gcn3_lsoa_model.pt (torch, 6389 bytes, 5 tensors)

conv1.bias f4 [32]
000000 0f e0 6f be 23 a6 60 bf f3 21 41 be 9f f4 03 bd
       -0.23425315 -0.87753505 -0.18860607 -0.03221571
000010 a4 66 c7 be 75 9d 77 be 37 0d c2 3e cd ae c5 bd
       -0.38945496 -0.24181159 0.37900707 -0.09652481
000020 eb ff 9e bd f8 1c df bd 5c 85 a0 be 17 6c ad be
       -0.07763656 -0.10894197 -0.31351745 -0.33871529
000030 ca 25 14 bf 2f 18 b5 bd 40 4c f3 3d 73 2b 87 3c
       -0.5787016 -0.08842503 0.11879778 0.01650021
000040 04 fc 1b bf 5b 73 c9 be 76 91 87 3e b9 20 58 bc
       -0.6093142 -0.39345822 0.26478165 -0.013191395
000050 a3 71 24 bf 58 ec b1 be 1a 55 21 be 94 d5 9a be
       -0.64235896 -0.34750628 -0.1575512 -0.30241072
000060 35 7e 9a be 9d d8 95 bf 4f fb d0 be 8f c3 02 bf
       -0.30174413 -1.170673 -0.40816733 -0.5107965
000070 72 3c 36 bf c2 d1 06 bf 7d 03 c4 be 76 3f 0b bf
       -0.7118598 -0.52663815 -0.3828391 -0.5439371

conv1.lin.weight f4 [32, 6]
000000 e7 76 13 3e e6 27 8c bc 15 62 03 bd bd c8 68 3e
       0.14400826 -0.017108869 -0.03207596 0.22732826
000010 f3 18 9d bd 8c 27 5e be b1 56 28 3f 1c a1 9e 3d
       -0.07670774 -0.21694773 0.6575728 0.07745573
000020 fd e0 77 3e ea 7f 99 3e 62 4c 06 3e 27 72 71 3d
       0.2420692 0.29980403 0.13115075 0.058946755
000030 22 03 14 3e e9 36 f9 3d a4 4d 98 bf 2a 5b 2a bc
       0.1445432 0.121686764 -1.1898694 -0.010397712
000040 f6 1d a9 3d b9 67 81 3d 57 32 dd bb ef ab 5d 3c
       0.08257668 0.06318612 -0.0067503857 0.013529762
000050 77 9b d7 be 16 dd 0a bd 15 e5 36 be 45 d3 00 3e
       -0.42110798 -0.03390225 -0.17860825 0.12580593
000060 e6 dd c0 3e 75 34 5e bf 63 04 c9 3d 43 46 7b bd
       0.37669295 -0.86798793 0.0981529 -0.061346304
000070 a0 4b 8d 3d b4 26 d6 3b 41 8f 2d be f8 50 a3 3d
       0.0689919 0.0065353755 -0.16949178 0.07974428
000080 d6 4b 5f 3d 67 c3 ae 3d 01 81 ea bd 81 70 9a bc
       0.054515682 0.08533364 -0.11450387 -0.018852474
000090 ac 10 a4 bd cd 6c 03 3e 48 de 93 3d 37 38 8e 3f
       -0.080109924 0.12834473 0.07220131 1.1110905
0000a0 6f 40 4b bc a0 73 ea 3c 5d 2a f8 be ee 91 46 3d
       -0.012405499 0.028619587 -0.4846982 0.048479013
0000b0 6a 49 1a 3f 55 71 2a 3e 9f a7 f7 ba 64 9a 35 be
       0.6026827 0.16644795 -0.001889456 -0.17734677
0000c0 b8 cd 7b bd 31 02 9f bc b6 28 af 3e 28 30 f6 3c
       -0.061475486 -0.019410225 0.34210747 0.03005226
0000d0 b1 77 c9 3d 8b 7f 4c 3c b9 38 06 3e 47 3a b2 bf
       0.098372824 0.0124815805 0.13107575 -1.3924035
0000e0 c6 8b dc bc 68 74 d0 bf 84 3a 2a bc e8 d4 83 3c
       -0.026922118 -1.6285524 -0.010389928 0.016092733
0000f0 49 ac ef 3c d7 33 46 3b a7 75 3f bf fb 0c 8b 3d
       0.029256957 0.0030243301 -0.747889 0.06789585
000100 2c 04 ec 3c d0 87 b5 b8 89 b0 00 3f ef ed 30 be
       0.028810583 -8.6560496e-05 0.5026937 -0.17278264
000110 f5 3e d9 be 30 64 8d be 6a e4 a2 3e da f0 99 bd
       -0.42430845 -0.276155 0.3181489 -0.07516642
000120 59 12 91 3e cb ef 05 be 10 82 ad be f4 18 11 3f
       0.2833431 -0.13079755 -0.33888292 0.566787
000130 a8 e9 37 be fe 23 cb bd 05 f4 b5 3e 10 a4 a7 3d
       -0.17960227 -0.09918974 0.35537735 0.08185589
000140 ab 5b 7d be 2d ae fe 3d a2 29 26 be 1e 1a 55 bc
       -0.24742 0.12435565 -0.16226819 -0.013006715
000150 23 45 0c 3f 4a a0 0e 3d 76 0f f5 3d e7 a3 77 3e
       0.54792994 0.034820832 0.119658396 0.24183618
000160 e4 a3 35 3e 8f 0a 0d 3f cf 70 9b 3d e4 4c 0b bb
       0.177383 0.55094236 0.07589876 -0.0021255547
000170 07 56 dd bd ad 46 91 bd d7 0c 19 3e 8d fe bf be
       -0.10807424 -0.070935585 0.14946304 -0.37498894
000180 87 84 8f bb 41 14 b2 3c c6 2d c4 bf 39 40 d7 3c
       -0.004379812 0.021738173 -1.5326469 0.026275741
000190 a7 08 1a 3d 64 fa 62 3c 9e f1 0f bf ff c4 1e 3f
       0.037605908 0.013853643 -0.56228054 0.6201934
0001a0 5c d3 f3 3d 43 29 58 bf 02 32 19 3c 80 fe c5 3c
       0.11905548 -0.8443796 0.009350302 0.024169207
0001b0 bf de 2d 3f 28 22 1b 3f 63 0a 01 be b5 38 08 3f
       0.6791801 0.60598993 -0.12601618 0.5321153
0001c0 e7 96 d7 3d cf ec 7f 3b 13 d5 e4 3e d6 23 ad 3d
       0.10526829 0.003905106 0.44693813 0.08454101
0001d0 b5 78 0a bd 4a 41 fc 3c e9 71 c5 be 1e 8a 3c 3e
       -0.03380652 0.030792851 -0.3856347 0.18412063
0001e0 89 8b ab 3e bf 65 28 bf ca 38 d1 3d 59 d8 47 3f
       0.33504894 -0.6578025 0.1021591 0.78064495
0001f0 c9 f8 a0 3d ad af f7 3c 57 4f 51 bf 82 48 19 3e
       0.07859952 0.030235136 -0.8176169 0.14969066
000200 4c 65 88 bd 1f c6 4b be 0e 6f 36 3d 7a 9c 68 bb
       -0.06659946 -0.19899796 0.044539504 -0.0035493658
000210 61 9e 76 3e b9 fb 16 be de 27 cd be b6 da fd 3d
       0.24083854 -0.14744462 -0.4006948 0.123952314
000220 72 d1 c3 3c eb 95 f5 bd 4a 1d 62 3e 6d 73 63 be
       0.023903582 -0.11991485 0.22081485 -0.22212
000230 8f f6 23 3c 25 82 64 be 01 90 ce bd 50 65 7a 3e
       0.010007515 -0.22315271 -0.1008606 0.2445271
000240 99 a6 69 3e e9 bf 4c 3e 8d b9 9b bf d3 be 2f 3d
       0.22817458 0.19995083 -1.2166001 0.042906594
000250 71 19 9b bc c9 b1 f9 bc d8 9c 73 3f d6 8b 0d 3e
       -0.01893303 -0.030480282 0.951612 0.13822874
000260 37 f1 98 3e b9 58 ad bc 97 4e 63 3e 86 75 94 bd
       0.29871532 -0.02116047 0.22197948 -0.07248978
000270 78 f8 08 be dc 2f 1e be 2c 6a 0a bd 62 74 04 bd
       -0.13376033 -0.15447944 -0.03379266 -0.032337554
000280 1f 94 1e be e0 15 ce 3c 8d 1e b5 3e 24 20 d6 bf
       -0.15486191 0.025156915 0.3537487 -1.6728559
000290 ec df f5 be ae c4 a0 bf 7a c3 0d bc 4c 44 30 bc
       -0.480224 -1.2560022 -0.008652562 -0.010758471
0002a0 57 fb 4f be 28 e5 5c bf df 07 ab 3e a9 ea 5c bf
       -0.20310722 -0.86287165 0.33404443 -0.86295563
0002b0 1b 7c 83 bd d0 57 a3 3c 76 e9 80 3e 0b d8 4c bf
       -0.064201556 0.019939333 0.25178117 -0.80017155
0002c0 5e 2d d6 bd 9f 3c 2c bf 30 b0 6a bd 51 8d 85 bc
       -0.10457872 -0.6728 -0.05729693 -0.016302736
0002d0 2b 38 22 bf e0 e9 9b 3e 97 03 45 bb ab c3 54 3e
       -0.63366956 0.3045187 -0.0030061954 0.20777766
0002e0 9f 58 bc 3b de 82 b3 bd 55 82 c1 bd 5b 67 9d bf
       0.005747869 -0.08765195 -0.09448687 -1.2297167
0002f0 57 38 17 bf db 62 e7 3e 62 04 96 bc be c9 6b bd
       -0.5907034 0.45192608 -0.018312637 -0.057565443

conv2.bias f4 [16]
000000 4d 34 15 3f 4e 0f de bd d8 21 06 3f 2a 03 f7 bd
       0.5828293 -0.10842763 0.5239539 -0.1206115
000010 13 2f 20 3f ec ae a4 3e 63 85 28 3f c7 7e ee bd
       0.6257183 0.32164705 0.6582853 -0.116452746
000020 a4 47 f5 3b 65 5e c5 bd aa 3b 07 3f 33 21 ac bd
       0.007485347 -0.09637145 0.52825415 -0.0840477
000030 c7 3d 04 be 3d 76 b3 bd e9 8e 45 be 4f d2 28 be
       -0.12914191 -0.087627865 -0.19292797 -0.16486476

conv2.lin.weight f4 [16, 32]
000000 d5 c9 ef 3d 83 ad f1 3e 15 ee a9 3e 73 06 1c 3e
       0.11708418 0.4720269 0.33189455 0.15236835
000010 c1 5d 67 3e c6 13 38 3d a7 02 ed 3e a4 fa 42 be
       0.22594358 0.044940732 0.46291086 -0.19040924
000020 5b 46 30 bd 91 f5 34 bf 0c 92 b1 3e d6 16 10 be
       -0.043035846 -0.70687205 0.34681737 -0.14071211
000030 f0 14 7b 3d 16 b2 c2 3e 72 e0 80 3e 79 b5 a5 3e
       0.061299264 0.38026494 0.25171238 0.32365015
000040 fe 6b d1 3e 77 11 b5 ba a5 5c c0 3e 1e 40 dc bd
       0.40902704 -0.0013814409 0.37570682 -0.10754417
000050 c4 a5 97 be 1e e4 6d be 89 e7 81 3e 88 da 9d be
       -0.29618657 -0.23231551 0.2537196 -0.3083079
000060 4a 5d 02 3f 0f d6 94 3d 54 3b 2f 3e 1e 4e 6c bf
       0.509236 0.07267391 0.17112476 -0.923067
000070 f9 4b f4 be 0b 1d a3 be ac 34 09 3d 05 68 b6 bd
       -0.47714213 -0.31858096 0.033497497 -0.08906559
000080 3b 49 7b bd e2 5d 30 be 66 52 7a be 7b f6 6c 3d
       -0.061349135 -0.17223313 -0.24445495 0.05785225
000090 08 0e c1 be 14 91 a5 be 0e 2e f1 bd 42 ca b3 3d
       -0.37706017 -0.32337248 -0.11776362 0.08778812
0000a0 82 8f d9 be a0 a5 8d be bb 4b c8 be 34 1b bf 3d
       -0.424923 -0.27665424 -0.39120278 0.093313605
0000b0 f3 5e 9a be 58 cf da be 4d 53 bf bc 7f 56 69 3e
       -0.30150566 -0.42736316 -0.02335515 0.22786902
0000c0 76 6b fd bd e6 d2 2f be 55 77 90 be fc 8d c7 bd
       -0.12374012 -0.17170295 -0.28216043 -0.09743878
0000d0 a5 1b 6f 3d 88 43 7c be 81 8c 19 be f2 32 7b 3e
       0.058375973 -0.24635136 -0.14995004 0.24531153
0000e0 6e 6b 45 3e 52 7c 41 3d 2d 9a 17 bd 62 c2 4b 3e
       0.19279262 0.0472377 -0.037012268 0.1989837
0000f0 c9 92 3c be 16 48 2a 3e 71 f8 6d 3e 58 00 a4 3e
       -0.18415369 0.16629061 0.23239304 0.32031512
000100 c6 aa 0e bf 85 49 2e bf 2c 90 68 3e 8e cd ed bc
       -0.5572933 -0.6808093 0.22711247 -0.02902868
000110 ac 65 93 be 30 60 35 3e 1f 24 93 be 38 72 1f 3e
       -0.28788507 0.17712474 -0.28738496 0.15570915
000120 68 24 61 3e bf 9a 5f c0 07 6c 94 be bc 41 dc bd
       0.21986544 -3.49382 -0.28988668 -0.10754725
000130 f7 35 b3 be 64 86 2c bd 65 e6 6f be 65 c3 5c be
       -0.3500211 -0.042120352 -0.23427732 -0.21558912
000140 52 a5 c0 be b2 25 fc 3e 45 cd 66 3e 28 ab 6e be
       -0.3762613 0.4924751 0.22539242 -0.23307478
000150 e1 d2 a9 be e5 c9 e9 be 6b 95 0c bd f5 b6 2f be
       -0.331687 -0.45661846 -0.034322184 -0.17159636
000160 79 f6 24 3e 86 81 55 bf 97 69 4a be 58 a2 a0 bf
       0.16109647 -0.8340076 -0.19766842 -1.2549543
000170 6c b0 bd be 32 c3 d4 3e e5 ff 86 3d 62 ef 66 bf
       -0.37048662 0.41555172 0.06591777 -0.9020902
000180 98 e3 87 bd ac 7d 25 3e 9b 76 c5 be 64 f1 b8 be
       -0.06635207 0.16161221 -0.3856705 -0.36121666
000190 4a 42 2b bd a2 6b 03 be ae 8f 35 be ed 51 90 3b
       -0.041811265 -0.12834027 -0.1773059 0.0044042976
0001a0 dd 85 98 be b1 1b 45 be c7 4a 47 bd 1d 97 c5 3c
       -0.2978963 -0.19248845 -0.048655298 0.024119908
0001b0 98 69 25 3e ce 49 19 3e 96 6e 9a bd 71 8f ec bd
       0.16153562 0.1496956 -0.07540624 -0.11550797
0001c0 a9 13 30 bd 5c ba b7 bc b7 78 c2 be 12 17 b7 bd
       -0.0429875 -0.02242773 -0.37982723 -0.08939947
0001d0 51 0f 4a 3d 5e a7 73 3e d3 e6 02 3d 7e 79 e7 bd
       0.049331013 0.23794314 0.031958412 -0.1130247
0001e0 2b e2 76 bd 0f f4 a5 bd 59 bd 61 be cd c0 42 be
       -0.060274284 -0.08103191 -0.22044887 -0.1901886
0001f0 9a d3 d4 3d c2 d9 53 bb 20 a0 54 3d 91 89 33 3e
       0.10391922 -0.0032325839 0.05191052 0.17532946
000200 6c 34 61 3e 6a e2 41 3e b1 da bd be 2f 88 ca bd
       0.21992654 0.18934026 -0.3708091 -0.09889256
000210 4b 7f 40 bc 8c 8e cc bd 72 ef 58 3e b0 a2 85 3e
       -0.011749099 -0.09988126 0.21185091 0.26100683
000220 6d 47 10 3e 4b 34 87 be 51 7b f6 3d d8 2b 4d bd
       0.14089747 -0.26407084 0.120352395 -0.05009064
000230 b2 d7 b5 be a6 c8 e2 3d a6 7f a1 3e e4 e5 1a 3d
       -0.35516125 0.11073427 0.315427 0.037816897
000240 b9 cd ee bc aa ab 4f 3e 2d 50 ca 3e a6 6e 19 3e
       -0.02915083 0.20280328 0.39514294 0.14983615
000250 ff 22 ae be 1f 11 b3 bd 70 f5 ae be 58 dd b3 3e
       -0.34011075 -0.087435 -0.3417163 0.3512981
000260 e1 b8 53 3d 72 f3 c0 3d 91 05 0f be 8c 0f 26 bf
       0.051689986 0.094214335 -0.13966967 -0.6486747
000270 ac 28 da be c1 7f 83 be 7c 59 24 3d e6 9b 2a bf
       -0.42609155 -0.25683406 0.0401244 -0.6664413
000280 71 3b c1 bd cd a0 18 3f e1 24 5c be ed bb 97 3e
       -0.09435166 0.5962036 -0.21498443 0.29635563
000290 5e e9 83 bf 31 d9 69 3d a3 64 84 3e d8 91 60 bf
       -1.0305593 0.057091895 0.2585803 -0.8772254
0002a0 16 c7 91 be 4c f1 94 bf 9c 41 20 bf a7 85 cc 3e
       -0.28472203 -1.1636138 -0.6260011 0.3994572
0002b0 e9 1c a2 bf 2c 33 ab bb ac 2f 8c 3e b7 8f 04 3e
       -1.2665073 -0.005224606 0.2738012 0.12945448
0002c0 a7 0c eb bf 7b 99 76 bf 95 db 8b bd ac b0 16 3e
       -1.8363236 -0.9632794 -0.06828991 0.14715832
0002d0 c5 49 ac bf 3c e8 87 be 86 7a 81 bd 88 a0 03 bc
       -1.3460013 -0.26544368 -0.063221976 -0.008033879
0002e0 9e 96 0b bf 0d 34 bc 3f 01 01 2b 3e c0 82 d8 bf
       -0.545267 1.4703385 0.16699602 -1.6914902
0002f0 0b 25 57 3e eb 43 ab 3e 26 71 09 bf e6 58 76 bf
       0.21010225 0.33450255 -0.53688276 -0.962294
000300 00 1d 80 be aa f6 ba bd 5e 34 ed 3e 18 3a 38 3e
       -0.25022125 -0.09129079 0.46329015 0.17990911
000310 b0 e2 92 bd 42 e5 ef bd 62 16 aa 3e 38 f9 72 3e
       -0.071721435 -0.11713649 0.33220202 0.23727882
000320 21 38 ce 3d 48 d6 1a bd 6e 4e 0a be 4e c0 95 3e
       0.100692995 -0.03780201 -0.13506481 0.2924828
000330 0f 27 bd be bc d4 9e be da 7a 28 3e fa 58 03 bc
       -0.36943862 -0.31021678 0.16453114 -0.008016819
000340 be fe 94 3f ac 75 60 be ec 32 5d 3e a4 32 a8 3e
       1.1640241 -0.21919888 0.21601456 0.32851136
000350 ca 37 af be 26 33 16 3e eb 45 24 3d 47 23 9f bd
       -0.3422225 0.14667949 0.04010574 -0.077704005
000360 6b 28 37 3e 21 7d 5f 3e 25 79 4c be a2 7b 28 bc
       0.17886512 0.21825077 -0.19968088 -0.010283383
000370 b3 a0 1c bf 3a d1 d4 be 91 88 be be ca 30 ea be
       -0.6118271 -0.41565877 -0.37213567 -0.45740348
000380 43 a3 d7 be be e0 36 3e b6 c5 52 3e 24 5c 6f 3e
       -0.42116746 0.1785917 0.20583233 0.23374993
000390 c0 2f 7d be b5 f1 e9 3e 62 e2 b4 3d 77 ca 85 3d
       -0.24725246 0.4569222 0.088322416 0.06532758
0003a0 48 83 e1 be 57 91 a0 bd 8e ea bb be 97 f7 ac 3d
       -0.44045472 -0.078402214 -0.3670239 0.084456615
0003b0 c5 6e c7 be fd c9 9a be 63 bb 16 be 5c b4 3b 3c
       -0.38951698 -0.3023223 -0.1471992 0.011456575
0003c0 ad d8 14 3e 5b 00 d3 be 24 cb 96 bd b3 07 af be
       0.1453578 -0.4121121 -0.07362965 -0.34185562
0003d0 3e 5d e8 bd de 25 1f be 6e 0d ba be d0 63 3b be
       -0.113459095 -0.15541789 -0.3633837 -0.18299794
0003e0 1a 4e 7d be 40 f3 48 bd 50 c8 48 3d 8d 15 20 3e
       -0.24736825 -0.049060106 0.049019158 0.15633221
0003f0 5c fc fa bd d9 50 5a bd d7 4d 71 3e af f1 43 be
       -0.12255165 -0.05329976 0.2356485 -0.19135164

conv3.lin.weight f4 [1, 16]
000000 08 bd eb 3e 72 17 16 3d 47 37 cd 3e 6d 12 12 be
       0.46042657 0.036643453 0.40081236 -0.14264841
000010 6d 49 fa 3e 71 b3 37 3f 33 4d cc 3e 62 ad 87 be
       0.48884144 0.7175818 0.39902648 -0.26499468
000020 f8 1b b9 3e e8 f7 b5 be ae 8e 39 3e 32 9a 79 be
       0.3615415 -0.355407 0.18120834 -0.24375227
000030 60 14 40 be af 81 62 be 44 fb 91 3d f8 b7 5a be
       -0.18757772 -0.22119783 0.07128003 -0.21359241
