data/gcn_pt_files/gcn1_hybrid_model.pt (torch, 44893 bytes, 15 tensors)

conv1.bias f4 [64]
000000 bb 19 24 39 0e 0a f0 37 29 66 32 39 86 dc 37 b9
       0.00015649844 2.8614912e-05 0.0001701346 -0.00017534391
000010 ec 33 d4 38 ce 01 88 35 5e 51 a7 b7 63 12 e2 b8
       0.00010118619 1.0133315e-06 -1.994584e-05 -0.000107799446
000020 34 f4 c5 36 41 f0 27 b8 3a 36 c0 b8 a7 a2 81 b8
       5.8994865e-06 -4.0039657e-05 -9.165374e-05 -6.181496e-05
000030 89 f7 c0 38 23 fd 57 37 5a a4 9a b8 c4 b8 8d b8
       9.2013805e-05 1.2873937e-05 -7.373905e-05 -6.757819e-05
000040 97 a7 57 39 bd 03 43 39 9a 49 7a 39 be f3 b4 b5
       0.0002056643 0.00018598042 0.00023869277 -1.3481983e-06
000050 6a 1c 86 39 c2 9d d3 39 78 da 6c 38 b7 a4 a3 38
       0.00025579642 0.00040362595 5.647025e-05 7.803126e-05
000060 59 74 7e 38 5c 18 ac b7 2e 27 67 39 33 90 ba b9
       6.0666676e-05 -2.0515341e-05 0.00022044472 -0.0003558412
000070 4a 70 43 b7 86 41 1a 39 9f d0 80 37 25 76 0d 39
       -1.164905e-05 0.00014710994 1.5355936e-05 0.0001349082
000080 8e 02 fe 38 44 e8 8b b8 b9 78 b9 38 04 74 92 b8
       0.0001211214 -6.671299e-05 8.843974e-05 -6.983432e-05
000090 75 06 dd 39 c9 e9 1d b8 16 be 0c b9 ae 0e a7 b8
       0.00042157216 -3.7649446e-05 -0.00013422253 -7.965915e-05
0000a0 06 02 1d 39 99 6f 24 b8 fa da cd 38 0b 28 c9 39
       0.0001497344 -3.920458e-05 9.815949e-05 0.00038367542
0000b0 0a f3 6d b9 a2 40 65 b9 35 26 e0 b8 24 62 70 37
       -0.0002269262 -0.0002186322 -0.00010688269 1.4327965e-05
0000c0 78 04 42 39 78 e8 8d b8 d7 8a 15 b9 22 dd 8c 38
       0.00018502946 -6.7667046e-05 -0.00014261469 6.7169094e-05
0000d0 9d ca 5d b8 ec 7d 98 39 20 f4 4e 37 d3 03 6e 38
       -5.2879204e-05 0.00029085518 1.2335397e-05 5.6747183e-05
0000e0 67 8d 12 39 6f b3 94 b7 14 a2 20 b8 ec bc ea 37
       0.00013976321 -1.772653e-05 -3.829792e-05 2.7982947e-05
0000f0 b3 fc bb b8 2d 2c 50 b8 a8 5e b2 b8 eb 86 13 b9
       -8.963924e-05 -4.9632206e-05 -8.5053325e-05 -0.00014069273

conv1.lin.weight f4 [64, 10]
000000 95 e4 f7 bd 79 6f 3f bd 21 b5 75 3c bc c6 fc 3b
       -0.121041454 -0.046737168 0.014996798 0.0077141207
000010 91 13 e0 ba da b4 a5 bc ca 27 a3 bd 1c 7c 15 3e
       -0.0017095675 -0.020227838 -0.079665735 0.14598125
000020 f0 15 5b bc b9 87 e4 bf a0 c3 8a 3c c1 31 46 3e
       -0.0133719295 -1.7853919 0.016938984 0.19354917
000030 b4 19 79 3e 71 e8 6b 3d a8 ec c5 3e c1 98 7e 3d
       0.24326211 0.05759472 0.38657117 0.062157396
000040 08 e6 f1 3e 01 9b ef 3e 67 a3 c2 3c 33 7e 72 bf
       0.47245812 0.46797946 0.023759557 -0.94723815
000050 5a 26 2a bd b9 6a 06 bd 69 a2 50 bd 81 ed d5 bc
       -0.04154048 -0.032816622 -0.050936136 -0.026114227
000060 b4 48 5d ba 0e fe 9b bc 06 05 d6 bd cd 74 9c bd
       -0.00084413146 -0.019042041 -0.10450177 -0.076394655
000070 ea ed 46 bc aa 37 27 c0 29 c2 8f be 3d 2f 0b 3f
       -0.012141684 -2.6127725 -0.2807782 0.54368955
000080 f2 0f 23 3f 1a 85 0f bf 21 c4 e4 3d 26 61 a6 3d
       0.63696206 -0.5606247 0.11170221 0.08123998
000090 e2 c7 c2 3d 54 24 c2 3f da 09 b0 3d 36 9a ce 3e
       0.09510781 1.5167336 0.08595629 0.4035203
0000a0 cc c6 7e 3e c3 d1 32 3f 80 a9 44 3f 02 97 b6 bd
       0.24880522 0.6985132 0.76821136 -0.08915521
0000b0 6a ff ff 3e 78 62 77 3f 55 85 03 be 5e 1a 8e 3f
       0.49999553 0.96634626 -0.12843831 1.1101797
0000c0 5f 11 00 bd 73 40 2b 3e d7 7f e3 3d b9 41 a0 be
       -0.031266566 0.16723804 0.11108368 -0.31300142
0000d0 5f 6d db bc 66 0d 1a 3e 9c 7f c6 3d 22 53 83 3c
       -0.02678555 0.15044174 0.09692308 0.016030852
0000e0 20 34 8f be 8f 49 aa bf f2 be 5b 3b e3 2e 37 3f
       -0.27969456 -1.3303698 0.003353056 0.7155592
0000f0 05 34 81 3e 07 a7 cf 3e 85 2c 4f 3f 99 19 8b 3c
       0.25235 0.4055712 0.80927306 0.01697998
000100 5b f1 32 3f a8 7b 9c 3f 04 bb 4b bf 91 24 22 3f
       0.6989953 1.2225237 -0.7958224 0.63337046
000110 52 d5 e6 bd ad de 89 3e 74 d2 1b be 67 01 aa 3e
       -0.11271156 0.269277 -0.15217 0.33204195
000120 72 d0 77 3e 51 2a 13 3e ba b4 51 bf d4 23 2a be
       0.2420061 0.14371611 -0.8191639 -0.1661523
000130 6e ba 03 3d 24 f9 49 3f b9 26 02 3d 63 49 0c bd
       0.032160215 0.78895783 0.03177521 -0.034249675
000140 49 cd 92 bd 6f fd 2c bd d1 00 8c 3c 5f 63 e8 bc
       -0.07168061 -0.04223388 0.017090233 -0.028367696
000150 a2 d3 90 bc 6c 17 6a bd fb a0 26 be e7 ff 4f 3e
       -0.01767904 -0.057151243 -0.16272347 0.20312463
000160 15 a7 2f bc 42 85 c9 bf 23 d5 89 be 33 af 49 be
       -0.010720988 -1.5743792 -0.26920423 -0.1969574
000170 a3 55 e7 3e 6a 43 da 3d 6c 46 5e 3e f6 2a 88 3e
       0.45182523 0.106573895 0.21706551 0.26595277
000180 10 da 28 bf 8e fa 05 bf 9f 98 58 bc 72 77 b8 bf
       -0.65957737 -0.5233544 -0.013219981 -1.4411452
000190 c8 8c 79 3d a4 3e 8b bd 9a aa 82 bd 24 9f d4 bc
       0.060925275 -0.06799057 -0.06380196 -0.02595479
0001a0 8d 90 a0 bc e4 82 81 be 92 e8 73 bb 72 0a e8 bd
       -0.019600177 -0.25295174 -0.003721748 -0.11330117
0001b0 e2 bf af bc b8 1a 42 c0 7d 5c b5 3e cf cf 4d 3e
       -0.021453802 -3.0328808 0.35422125 0.20098804
0001c0 93 2e fa be 7c 70 db 3e fd ce 93 bf 19 b6 8a be
       -0.48863658 0.42859256 -1.1547543 -0.27092054
0001d0 62 8c 07 bf d2 87 ce 3e db d3 22 3e 3e c4 3c be
       -0.5294858 0.40337998 0.15901129 -0.18434235
0001e0 b8 78 0e 3d 25 bf a0 3e 89 b8 1a 3f be 01 ad be
       0.034783095 0.31395832 0.6043783 -0.33790392
0001f0 fd 7d 6d 3e cb 93 92 3e e0 c1 7d 3d 3a eb 6f 3e
       0.23192592 0.28628382 0.06195247 0.23429576
000200 17 0d f5 3d 83 df f4 bd df c4 bf be 9f 02 89 3e
       0.11965387 -0.11956694 -0.37454888 0.26759812
000210 45 23 13 3e 27 d4 c6 3d ac 42 fc 3e ed bd b4 3e
       0.14368923 0.097084336 0.49269617 0.35301152
000220 4f 82 23 3e 66 2c 26 3d 72 5f a3 3e 8d b3 5d bd
       0.15967678 0.040569685 0.31908756 -0.05412631
000230 3e 84 9c 3e 1d 6a 2c 3f 62 0b 34 3f 79 94 3e 3e
       0.30569643 0.67349416 0.7032987 0.18611325
000240 c5 82 a0 3e be 5c 9d 3e a5 64 6d 3f e1 29 ed 3c
       0.3134977 0.3073482 0.92731696 0.028950633
000250 d4 e8 70 3e 5e 04 83 3e d6 c0 b9 be b1 f4 71 3d
       0.23526317 0.2558927 -0.36279935 0.059071247
000260 2c 98 07 bb 06 52 33 39 17 fe 3e bd a7 04 f0 bc
       -0.0020690067 0.00017101326 -0.046629038 -0.029299093
000270 f1 3b c1 bd 70 75 12 3f e8 d8 fc 3a 30 8a bc bf
       -0.09435261 0.57210445 0.0019290717 -1.4729671
000280 ea d0 63 bf a8 9c a7 be 54 0a 2b bd e1 c3 c5 bd
       -0.8899065 -0.32736707 -0.041757897 -0.096565016
000290 89 f5 4e be f0 69 8d be e1 a1 28 3e 38 f1 96 3f
       -0.20210852 -0.27619886 0.16468002 1.1792364
0002a0 c3 2c 4b bd 43 b1 e3 3e 90 d7 4b 3f 9d fa 8a 3e
       -0.049603235 0.44471177 0.796258 0.27144328
0002b0 ad 5d 48 3e 69 93 fa 3e aa e7 d5 be f9 ad 0c be
       0.19566984 0.4894059 -0.41778308 -0.1373824
0002c0 32 a9 67 3d 54 e9 0d bf f6 87 28 3e 3a 20 18 3d
       0.05655784 -0.55434155 0.16458115 0.03714011
0002d0 72 08 2e 3f d0 1f df 3d 12 4a 70 3e a2 80 a3 bc
       0.67981637 0.1089474 0.23465756 -0.019958798
0002e0 5c 14 00 3e f2 4a 66 bf 5d 73 7d bf 85 05 71 bf
       0.12507766 -0.8995811 -0.99004155 -0.9414905
0002f0 95 a8 86 3c 1d 94 c8 be 86 4a 14 3f cf 9a 9f 3e
       0.016437808 -0.391755 0.57926214 0.31172797
000300 1a 22 96 3e b4 65 cb 3d c3 d2 29 3f 96 7f 1f 3f
       0.29322892 0.09931508 0.6633722 0.62304056
000310 8d b0 cd be e3 73 95 3e 27 21 44 be 32 f9 23 be
       -0.4017376 0.29189977 -0.19153272 -0.16013029
000320 ac c6 5f 3f 93 6d 4d 3e ef d6 28 3e 28 bf 84 3d
       0.87412524 0.2006133 0.1648824 0.06481773
000330 e7 f5 0d 3e 6a d7 2f be da b0 86 be 42 ec 8f bf
       0.13863336 -0.17172018 -0.26306802 -1.1243975
000340 7a 4a d3 3c 68 1f 30 3f ea 64 fb 3c 5e 09 93 bd
       0.02579235 0.6879792 0.030687768 -0.07179521
000350 d4 50 89 bd 2f 89 30 bd 55 bb bb bb 7a ef 61 be
       -0.0670487 -0.04309958 -0.005729119 -0.2206401
000360 8c d9 b3 3d 8e b1 ee bd 24 d2 b4 bc 5c 9d 43 c0
       0.08781728 -0.116549596 -0.02207286 -3.0564795
000370 67 b2 72 bf c2 e0 93 be 72 f5 20 bf 8b a7 34 bf
       -0.9480347 -0.28882414 -0.6287452 -0.7056815
000380 bc 51 55 be f9 5a 74 be 79 80 d8 be fe b8 2a bf
       -0.2083196 -0.23862828 -0.42285517 -0.66688526
000390 81 32 0c be 90 40 11 3f b8 94 ca bd cc a3 ee 3d
       -0.1369114 0.5673914 -0.09891647 0.116523355
0003a0 1c be 0d 3e 4f 7c a5 3c 22 f8 1e bf d2 f3 43 be
       0.13842052 0.020200877 -0.6209737 -0.19135979
0003b0 e7 c6 f6 3b 35 ad 98 3f ef 5d c8 3c 9d 95 23 3e
       0.007531035 1.1927859 0.024458854 0.15975042
0003c0 4f 18 39 3d 1c 25 b7 3e f8 52 9c 3e 01 19 23 3e
       0.045189198 0.357705 0.3053205 0.15927507
0003d0 de c0 c6 bf 2d b7 43 bd a7 b4 1c 3e 58 2a 2e 3f
       -1.5527608 -0.047782112 0.15303288 0.6803336
0003e0 0c 9d ac ba 19 de e4 bd 1b df 22 3f 34 ba 5b 3e
       -0.0013169362 -0.11175174 0.6362168 0.2145775
0003f0 38 2a 23 3f 1b e2 89 3e 06 5f 8f 3e 2e f0 a1 3f
       0.63736296 0.26930317 0.28002185 1.2651422

bn1.weight f4 [64]
000000 92 a0 7c 3f 1f 23 0a 3f e2 e9 a9 3f 74 e8 2c 3f
       0.9868251 0.5395984 1.32745 0.67542195
000010 2c b7 f4 3e b2 08 59 3f c5 6b 11 3f 67 b6 41 3f
       0.47796 0.84778893 0.5680507 0.7566895
000020 72 67 4f 3f ec d0 7b 3f b4 df c5 3f 17 28 6b 3f
       0.8101722 0.98365664 1.5458894 0.9185805
000030 ef 07 05 3f 07 17 09 3f 76 0d 35 3f f2 fb 35 3f
       0.5196523 0.5355076 0.70723665 0.71087563
000040 83 66 4a 3f 0a c0 58 3f d0 4e 4a 3f ce 63 33 3f
       0.7906267 0.8466803 0.7902651 0.70074165
000050 35 41 4e 3f b6 99 ca 3f 16 ab e0 3e 95 1e c2 3e
       0.8056825 1.5828159 0.43880528 0.37913957
000060 14 64 48 3f 30 e2 05 3f b8 b4 52 3f 2f 7f 9a 3f
       0.7827771 0.5229826 0.82307005 1.2070063
000070 ac 33 0e 3f c6 3b b2 3f b6 86 32 3f 60 9f 51 3f
       0.55547595 1.3924491 0.697368 0.8188381
000080 10 02 38 3f b7 67 c1 3e 47 d4 50 3f 72 3c 26 3f
       0.7187815 0.3777444 0.8157391 0.6493598
000090 36 9c 38 3f d3 22 6e 3f 53 1d 29 3f 56 5b 16 3f
       0.7211336 0.9302189 0.6606037 0.5873312
0000a0 d3 89 1f 3f 6d e0 c8 3e c3 bc af 3f 3d 15 50 3f
       0.6231968 0.39233723 1.372948 0.8128241
0000b0 08 3f 60 3f 3b 54 44 3f 62 df 31 3f 9d 11 3c 3f
       0.8759618 0.76691025 0.6948148 0.73464376
0000c0 99 ec 20 3f 9d 5c 25 3f cd 40 45 3f 8d 97 3a 3f
       0.6286102 0.6459444 0.77052003 0.728875
0000d0 db cf 53 3f ca 6d 5a 3f 96 74 ef 3e c7 0d 14 3f
       0.8273904 0.85323775 0.46768636 0.5783352
0000e0 0e 55 2d 3f da 4c 0c 3f 6c 28 dd 3e c0 3b 41 3f
       0.6770791 0.54804766 0.43194902 0.75481796
0000f0 09 66 4c 3f b6 71 55 3f 8d c8 71 3f ae 1a 3b 3f
       0.79843193 0.83376634 0.9444664 0.73087585

bn1.bias f4 [64]
000000 9b 77 26 bf 8e 8a 93 be 8c f4 39 bf 78 99 98 bf
       -0.65026253 -0.28816646 -0.72638774 -1.1921835
000010 6e 4a da bf 57 4a 07 bf a4 2e b8 bf 98 dc 44 bf
       -1.7053964 -0.5284781 -1.4389234 -0.768991
000020 c7 fa 0f bf 40 d9 de be 5f 53 91 bf 46 c6 ca be
       -0.5624203 -0.43525124 -1.1353568 -0.39604396
000030 bb a2 4c bf 1a d9 5f bf c2 d2 9f bf 57 f7 a9 bd
       -0.79935807 -0.87440646 -1.2486193 -0.082991295
000040 60 7b b2 bf 46 b2 07 bf 2a 4c 9c be 3e b9 62 bf
       -1.3943901 -0.530064 -0.3052686 -0.8856391
000050 0b da 44 bf 16 02 91 bf 60 76 ce bd 9a f2 36 be
       -0.7689521 -1.1328762 -0.10081172 -0.17865983
000060 e6 d0 12 bf b3 ff 09 bf f9 91 08 bf 20 09 13 bf
       -0.57350004 -0.5390579 -0.53347737 -0.574358
000070 7e 2f af bf 76 5d 73 bf 49 8b 75 bf 09 d2 2b bf
       -1.3686368 -0.95064485 -0.9591566 -0.67117363
000080 69 df 09 bd a3 1e 14 be dc a3 68 be 96 cc 6f bf
       -0.033660326 -0.14464812 -0.22718757 -0.9367155
000090 16 5b cc be c1 68 05 bf 2c 71 48 bf 46 73 cd be
       -0.39913243 -0.52112967 -0.78297687 -0.4012701
0000a0 e8 c7 99 bf eb c5 9e 3d 56 7b 5b bf ec 23 a2 bf
       -1.2014132 0.077525936 -0.8573507 -1.2667212
0000b0 51 78 88 bf 91 3b 3a bd 08 f0 61 bf 90 d7 92 bf
       -1.0661718 -0.045466963 -0.88256884 -1.1472034
0000c0 f3 ea b4 bf 17 d1 2d bf 99 b0 3a bf c0 bc 0b bf
       -1.4134201 -0.6789717 -0.72925717 -0.54584885
0000d0 b0 19 46 be 84 d8 a6 be ed 28 5b be 09 1c 93 bf
       -0.19345737 -0.32587063 -0.2140233 -1.1492931
0000e0 29 60 65 bf e2 d4 69 be e7 83 1b 3d af 02 97 bf
       -0.89599854 -0.22835115 0.03796759 -1.1797694
0000f0 79 2e b7 bf f2 1b 22 bf 45 89 0e bf a0 68 00 bf
       -1.4311057 -0.6332389 -0.55678207 -0.50159645

bn1.running_mean f4 [64]
000000 ed 82 41 bf 29 1d be 3f 86 1f 2a bf bc 1b aa 40
       -0.755904 1.4852649 -0.6645435 5.3158855
000010 9d 7e f7 bf 94 30 b3 3d cc 40 df c0 da 1b 00 40
       -1.9335514 0.087495 -6.97666 2.0017
000020 da 52 15 bf ce e6 4d bf 86 44 94 bf 64 94 1b 41
       -0.58329546 -0.80430305 -1.1583412 9.723728
000030 c3 e9 e8 40 cc f0 9a 41 c2 f3 64 41 00 e3 52 3e
       7.2785354 19.367577 14.309511 0.20594406
000040 90 12 3c c0 8e c1 20 41 a6 ed 96 3f 0a 19 3b c1
       -2.938633 10.047255 1.1791275 -11.693613
000050 65 f1 c5 3f a1 b7 9b bf 97 80 06 c1 ba de ca 3f
       1.5464293 -1.2165414 -8.406394 1.5849221
000060 3b cd 62 bd 4f 2c 0a c1 a8 ce 1d 41 e0 73 03 bf
       -0.055371504 -8.635818 9.862953 -0.51348686
000070 b5 01 b3 c0 9f b5 3e bf 00 11 bf bf b6 88 7f 40
       -5.5939584 -0.7449588 -1.4927063 3.9927192
000080 29 aa cd 3f 44 bf 4e 40 64 5f 2a 41 27 20 57 c0
       1.6067554 3.230424 10.648289 -3.3613374
000090 5e 2d a0 c0 d4 dc 32 be ff 64 38 c0 d3 c5 43 40
       -5.005538 -0.17467052 -2.8811643 3.0589492
0000a0 7f d3 c9 3f 32 bf dd bd 46 d9 16 bf fe e3 4f 40
       1.5767668 -0.10827483 -0.5892528 3.2482905
0000b0 4c 3a 37 3f c9 26 94 bf 42 58 b3 40 0b 57 38 c0
       0.7157333 -1.1574336 5.6045237 -2.8803127
0000c0 dd 7a 05 40 39 46 e2 40 3f 13 fe 40 f9 49 f6 bf
       2.085624 7.071072 7.9398494 -1.9241325
0000d0 80 fc 4a b9 aa 9a 88 3f e6 de 1c c0 a3 21 20 c1
       -0.00019358285 1.06722 -2.4511046 -10.008212
0000e0 7d 11 e6 3f 4c 53 c2 40 ea f5 56 c0 80 06 81 bf
       1.7974087 6.072668 -3.3587594 -1.0080109
0000f0 33 14 8d c0 78 1a f7 40 e6 35 3e bf 7b 40 8e 3f
       -4.4087157 7.721981 -0.7430099 1.1113428

bn1.running_var f4 [64]
000000 76 46 4b 3f 0c 3d 1a 3f fd 6a c3 3f 40 bb 46 3f
       0.7940439 0.602494 1.5267025 0.7762947
000010 d7 e8 f7 3f 1f 4e 22 3f 2f 00 4d 40 df 02 fe 3e
       1.9367932 0.63400453 3.2031362 0.49611565
000020 71 56 1f 3f 7a f5 13 3f 9b 40 0a 40 08 47 13 40
       0.62241274 0.5779644 2.1601932 2.3012104
000030 a3 ea 82 3f 5d 45 f9 40 fd 00 55 40 c0 9a 0a 3f
       1.0227855 7.789717 3.3281853 0.5414238
000040 6c e7 6c 3e ab da d5 3f 42 94 dd 3d 10 99 b0 40
       0.23135155 1.6707357 0.108192936 5.5186844
000050 82 32 31 3e e7 53 0a 40 a2 80 1a 40 fd ad c4 3e
       0.17304423 2.161371 2.4141011 0.38413993
000060 6d 57 b1 3f b2 87 99 40 ac b1 f7 3f cf f7 88 3f
       1.3854805 4.7978144 1.9351096 1.0700625
000070 c9 c8 0c 40 b7 3b c3 3f b6 6e 65 3f 43 c2 a3 3e
       2.199755 1.5252599 0.89622056 0.31984147
000080 4f ae 5d 3f ab 08 86 3f d5 65 39 40 cf df 54 3f
       0.865941 1.0471395 2.8968403 0.83154005
000090 70 66 1d 3f dd e3 91 3f e6 a0 7e 3f 45 62 8c 3f
       0.6148443 1.1397663 0.9946426 1.096749
0000a0 c9 d6 c6 3e d9 a7 14 40 f7 97 99 3f 1f 2f f8 3e
       0.38835743 2.3227446 1.1999501 0.4847345
0000b0 59 2c c3 3d 5b 36 bb 3e b8 11 32 3f 19 bf 8c 3f
       0.09529943 0.36564907 0.69558287 1.0995818
0000c0 89 09 90 3e ab 41 6e 3f 65 99 aa 3f 75 ee a6 3f
       0.28132275 0.9306895 1.3328062 1.3041521
0000d0 df 63 b4 3e 34 17 1f 3f 3b 97 ec 3f 17 83 8c 40
       0.35232446 0.6214478 1.8483652 4.391002
0000e0 75 e8 81 3e 10 8b 86 3f 32 90 28 40 33 ed 2e 3f
       0.25372663 1.0511189 2.633801 0.6833069
0000f0 1e 5b e8 3e e4 84 84 3f d3 93 79 3f fc d3 25 3f
       0.45382017 1.0353055 0.97491187 0.6477659

fc1.weight f4 [64, 64]
000000 84 7d 85 be 03 a4 29 3b e1 92 30 bd 93 c4 5f be
       -0.26072323 0.0025885112 -0.043108825 -0.21852331
000010 67 2a 0e bd 59 c7 08 3d 56 fc 68 be 93 f9 b9 bd
       -0.034708407 0.033393238 -0.22752509 -0.09080806
000020 30 2e 74 bd 81 c0 70 bd 8f 9e 86 be 67 00 38 3d
       -0.05961436 -0.058777336 -0.26292846 0.04492226
000030 fc 9e 9f be 06 21 80 be bb 94 37 bf c6 1a fc 3d
       -0.31175983 -0.25025195 -0.7171132 0.12309794
000040 71 64 27 3f d3 db e7 3d 46 26 1a bd 83 76 00 bf
       0.65387636 0.11321225 -0.037634157 -0.50180835
000050 a6 c3 93 3e b4 b3 5b be b7 fe 05 be d8 55 95 bd
       0.28860205 -0.2145527 -0.13085447 -0.07291764
000060 43 8f 45 3e a7 5d e5 be 88 98 f6 3d 14 bf 80 bd
       0.19292931 -0.44798014 0.12040812 -0.06286445
000070 7a a0 74 bc 88 ce b4 bd fc 7c 2f bd ff 7f d8 be
       -0.014930839 -0.08828455 -0.042843804 -0.42285153
000080 65 55 52 3c 5b 2c ee bd 6c 4b 15 3b 41 38 e0 3d
       0.012837742 -0.11629554 0.002278055 0.109482296
000090 9b 23 33 be 29 d6 de bd 5c 2c 18 3d b6 1d 36 bc
       -0.17494051 -0.108806916 0.03715168 -0.011115482
0000a0 1d 74 50 3f 63 21 8b bc 5f 11 2b 3d df 88 10 3d
       0.81427175 -0.016983693 0.041764613 0.03528678
0000b0 a1 d0 d2 3e 99 89 94 be 4b c0 8f be 1e 81 07 3f
       0.41174796 -0.2901123 -0.28076395 0.5293139
0000c0 6e 9d d4 bc 6e fd c6 be 4b 46 0c bd ab d9 3f be
       -0.025953975 -0.38865227 -0.034246724 -0.18735377
0000d0 39 5b 8a be 63 24 ba 3e 9f e1 8c 3d be 19 5c be
       -0.27022722 0.36355886 0.06878971 -0.21494195
0000e0 e8 d9 69 bd e0 18 89 be 71 94 96 bd ac 5d 43 3f
       -0.057092577 -0.2677679 -0.07352532 0.76314807
0000f0 3a d2 12 3f 25 6e 75 be 36 e1 a4 bd a0 96 5f be
       0.5735203 -0.23967798 -0.08050768 -0.21834803
000100 e6 e5 ec bc fb ea 05 be bf 66 e8 be 9e 82 b4 3d
       -0.028918218 -0.13077919 -0.4539089 0.08813976
000110 55 16 0f be 5a 17 a0 3d 19 d6 3d be 5b e5 60 be
       -0.13973363 0.07816954 -0.18538703 -0.21962492
000120 20 f3 15 bd 15 8c 2e be 27 73 2b bf 6d 9e 02 bf
       -0.036608815 -0.17045625 -0.66972584 -0.5102299
000130 ef 61 06 be 48 54 c8 bd 6f 07 15 be 01 ed d7 3c
       -0.13123296 -0.097817004 -0.14553617 0.02635813
000140 d9 03 85 3e 6e d9 f4 be b0 50 75 bd ca ca 22 be
       0.25979498 -0.47822136 -0.059891403 -0.1589767
000150 65 7f 6c be f4 0e 41 bf 41 83 f8 3c 61 d6 98 3d
       -0.23095472 -0.7541344 0.030336024 0.074627645
000160 e6 ee fe be c9 bc 1b be 05 56 f9 be 13 1b ec be
       -0.4979164 -0.15208735 -0.4869844 -0.46114406
000170 10 8e 57 be 10 ad 37 bf 83 a0 6c bd 81 e3 02 bf
       -0.21050286 -0.7174845 -0.057770263 -0.51128393
000180 e4 90 88 bd f6 03 b9 3d cb 5c ac bd 65 05 81 3c
       -0.06668261 0.090339586 -0.08416136 0.015749643
000190 90 cd 00 3e b1 29 06 bf b0 78 81 3e 8d ef 8a bd
       0.12578416 -0.52407366 0.2528739 -0.06783972
0001a0 e5 e9 f6 3e 22 fa a0 bd f5 c4 25 bf 3a 4b b2 3e
       0.48225322 -0.07860209 -0.6475366 0.34823018
0001b0 88 68 b0 bd fb 4c 09 be 5f 08 90 bc c2 ee 88 3e
       -0.08613688 -0.13408272 -0.017582117 0.26744658
0001c0 8d 7d cb bc 4b 94 32 be 11 a2 58 be cf 37 40 3e
       -0.02484014 -0.17439382 -0.21155573 0.1877129
0001d0 af f5 b7 bc 7e ee 8d 3d cb 5a 78 3d 40 14 33 be
       -0.022456018 0.069302544 0.060633462 -0.17488194
0001e0 eb ad 98 3e 7f fe ef bd 38 fb 57 3e af 64 f0 3e
       0.2982019 -0.11718463 0.21091926 0.46951815
0001f0 81 ae cb 3e f1 e7 13 bf c9 f6 8f bd 93 90 53 3e
       0.39781573 -0.5777579 -0.070294924 0.2066062
000200 9f 18 e7 3e 82 a1 87 3d 05 a3 c4 3e b3 ad 3e bd
       0.45135972 0.06622602 0.38405624 -0.04655237
000210 8a 7f 4a 3e c2 03 c0 be 2a ee 8e bc 1d fa 6e bd
       0.19775215 -0.37502867 -0.01744755 -0.058343995
000220 51 f2 7c 3e 6a aa 4c bd 9c dd 4e 3f c1 17 43 3d
       0.24701811 -0.049967207 0.808069 0.047630075
000230 64 4f 1c bd bf 3d f2 bd 36 1d 2c be 94 81 a4 be
       -0.03816165 -0.118281834 -0.16808018 -0.3213011
000240 f5 e9 ee be 8e 9a 97 3b 79 ed 3d 3d 2e 09 fc bd
       -0.4666287 0.0046265787 0.04636905 -0.123064384
000250 25 79 50 be 5c db 76 3f cb 85 21 be ec 36 be bd
       -0.20358713 0.96428466 -0.15773694 -0.09287819
000260 96 f9 31 3d 2f c0 f9 bc da 95 81 3d f7 c4 c8 3e
       0.043450914 -0.030487148 0.0632741 0.39212772
000270 75 1c 57 3e 7f 46 87 3f e6 6d f3 3d 86 0e 62 39
       0.21006949 1.0568389 0.11886196 0.0002155845
000280 32 2c aa 3d 97 25 69 3c cf 4d 7c 3c 8e 96 7c be
       0.08309211 0.0142301535 0.01539941 -0.24666807
000290 1e 40 88 be 7f 02 11 3e ec d3 8a bd 64 d8 12 3c
       -0.26611418 0.14161108 -0.06778702 0.008962724
0002a0 f8 b6 4b 3e 46 21 7c bd c6 af c4 3e d7 db 10 3e
       0.19894016 -0.06155517 0.38415354 0.14146362
0002b0 cd 91 ed be 83 88 a2 3d b5 27 bc 3c 4a 12 52 be
       -0.464003 0.07936194 0.022968153 -0.20514789
0002c0 7b 62 c9 be 64 aa e8 bc 3f 7b 6e bc 93 2f 09 be
       -0.39332947 -0.028401561 -0.014555751 -0.13397054
0002d0 c2 2d 78 be cf 8b 35 3d 0e 29 20 be 8c b5 3f 3e
       -0.24236205 0.044322785 -0.15640661 0.18721598
0002e0 b0 bc 8a 3d a6 72 f1 bb 66 7a 15 be 18 e0 38 be
       0.067742705 -0.0073684035 -0.14597473 -0.18054235
0002f0 e7 bd 71 be 82 77 4a 3d 5f dd a9 3e e9 7e 9d be
       -0.23607598 0.049430378 0.33176705 -0.30760887
000300 d6 11 d7 3e 1a 6c 15 3d da 3e f0 3e 20 5c d5 3d
       0.42005795 0.036480047 0.46922952 0.10417962
000310 63 a0 0b bd 94 68 83 3c de b9 05 bd 5c be ab bc
       -0.034088504 0.016041078 -0.03264796 -0.020964794
000320 97 0b a7 3d db c4 66 be 7f a6 ac 3f 22 93 a2 bb
       0.081565075 -0.22536032 1.348831 -0.0049613873
000330 9c f1 99 3d 67 1d 54 be 4d 8f d0 bd 47 ca 9c be
       0.075167865 -0.20714341 -0.101835825 -0.30623075
000340 e0 a1 87 bd e5 a7 81 3c 18 28 03 be ce 29 bf bd
       -0.06622672 0.015827129 -0.12808263 -0.093341455
000350 61 1a bc 3c 5a 79 83 3f 26 22 4f 38 94 79 98 3d
       0.022961797 1.0271409 4.938445e-05 0.07445064
000360 8a 64 03 3e 12 7f f4 bd 27 78 96 bb ab 97 9f be
       0.12831321 -0.11938299 -0.00459196 -0.311704
000370 0a 7c 36 bc 4a 28 93 3f 44 8a 48 be be 09 ab bb
       -0.011137972 1.149667 -0.19583994 -0.005219667
000380 61 0c 6b be df 91 37 be c7 4b 11 3c f6 ae ef bd
       -0.22953941 -0.17926739 0.008868164 -0.11703293
000390 74 cd 6a 3d 48 82 75 3c 2b 69 88 bd 36 7f 08 3e
       0.05732484 0.014984675 -0.06660684 0.13329777
0003a0 b2 00 25 be 43 f6 5c bc 43 82 07 3f 8b 3c ec bd
       -0.16113546 -0.013486448 0.5293314 -0.11534985
0003b0 8f 5a 06 bd b8 87 a7 be 04 d9 28 3e 26 a0 5d be
       -0.032801207 -0.32720733 0.16489035 -0.21643123
0003c0 73 9b 37 be 9e 9b e3 bc fa b6 8c bd d3 52 2d 3c
       -0.17930393 -0.027784165 -0.068708375 0.010578829
0003d0 cf 91 97 3c 85 ba b1 be 6c 85 a8 3c 51 55 e8 3d
       0.018502144 -0.34712616 0.020571433 0.11344398
0003e0 a6 e8 55 3e 7e 97 bf 3d ff 8e 1a bd 37 b2 c3 be
       0.2088953 0.09355067 -0.037734028 -0.38221905
0003f0 4b 02 db bd 55 cf 7e 3b 4e 37 d0 3d 04 bc 18 3d
       -0.10693797 0.0038880904 0.101667985 0.03728868

fc1.bias f4 [64]
000000 0e f7 78 37 5f f6 3e b9 d7 4b 22 b8 75 de 8a b8
       1.4839474e-05 -0.00018211592 -3.869444e-05 -6.6217886e-05
000010 c1 07 9d 38 4d 94 d2 37 9b 7c ec 38 aa 86 f6 38
       7.487788e-05 2.5103009e-05 0.000112765665 0.00011755277
000020 e2 ca 34 b8 7e df e5 35 98 eb 93 b6 4d 74 e7 b8
       -4.3104294e-05 1.7126874e-06 -4.408368e-06 -0.00011036601
000030 55 1d ab 37 7d 75 2c b8 6e f9 aa b8 fe c4 6b 33
       2.0398447e-05 -4.1117415e-05 -8.1526916e-05 5.4894365e-08
000040 36 0d a3 b9 90 dc 4d b9 cb fb 52 39 04 7b 4a 37
       -0.00031099626 -0.0001963249 0.00020120961 1.206878e-05
000050 9c 2c 04 b8 ed 18 32 b3 45 fe 3f b8 03 41 74 b8
       -3.1512798e-05 -4.1466524e-08 -4.5774756e-05 -5.823468e-05
000060 7b 79 1a ba b7 8d 71 b7 f7 7f cd b8 a0 7c 49 b7
       -0.0005892736 -1.4397715e-05 -9.798997e-05 -1.200955e-05
000070 ba 76 55 37 45 dd 69 38 e7 a7 90 37 4f 87 c1 38
       1.27234325e-05 5.5757602e-05 1.7244323e-05 9.22816e-05
000080 0c 9b 1d 38 09 e1 02 37 33 87 f9 b6 b4 0a 4f b8
       3.7576116e-05 7.800999e-06 -7.4365175e-06 -4.9362614e-05
000090 74 43 89 b8 c4 38 a6 38 c8 b4 99 36 54 06 bb 37
       -6.545233e-05 7.92607e-05 4.580801e-06 2.2295084e-05
0000a0 68 c5 67 b8 9a bd 12 38 71 3d b7 b8 23 6c 9a 38
       -5.525854e-05 3.4985693e-05 -8.737564e-05 7.363434e-05
0000b0 14 94 c8 b9 8f cc cf b8 59 82 19 b5 7a ad 6f 37
       -0.000382573 -9.908631e-05 -5.718662e-07 1.4285901e-05
0000c0 2c a2 d3 37 b4 c9 89 38 e1 45 ce b7 86 bc ab 37
       2.5228677e-05 6.570239e-05 -2.4589654e-05 2.0472577e-05
0000d0 a8 f8 df b7 3e 1d a1 38 7a 91 71 b9 fc 4e 0a b9
       -2.6699461e-05 7.682525e-05 -0.00023037745 -0.0001319013
0000e0 89 a2 81 b7 a9 23 a8 38 be 51 07 36 c0 ce bc b2
       -1.5453685e-05 8.0175065e-05 2.0164148e-06 -2.19801e-08
0000f0 92 d0 b1 b7 f2 32 38 39 5d 4c 78 b9 7f cb 07 b8
       -2.1197167e-05 0.00017566586 -0.0002367957 -3.237603e-05

bn2.weight f4 [64]
000000 d3 98 72 3f f5 5d 61 3f 64 45 4d 3f bf 4f 40 3f
       0.9476444 0.8803399 0.80184007 0.7512168
000010 42 83 45 3f fe 43 40 3f a8 d2 52 3f f7 96 3c 3f
       0.7715341 0.7510375 0.82352686 0.73667854
000020 9e ee 55 3f f7 22 f3 3e c2 37 3b 3f 59 42 73 3f
       0.83567226 0.47487614 0.73131955 0.95023113
000030 c6 4e 3f 3f cd 3e 39 3f 7b f8 5f 3f 6c ac f2 3e
       0.74729574 0.7236145 0.87488526 0.47397172
000040 3b 37 40 3f b6 70 31 3f 96 f6 51 3f 14 a3 2a 3f
       0.75084275 0.6931261 0.82016885 0.6665509
000050 7c f9 3b 3f 54 f1 f1 3e f1 11 1c 3f bd 93 33 3f
       0.7342756 0.4725443 0.60964876 0.70147306
000060 b0 d9 85 3f b6 c8 3c 3f 62 36 57 3f 1c d1 29 3f
       1.0457058 0.7374376 0.84067357 0.663347
000070 44 21 71 3f c8 3a 59 3f 7e c3 46 3f 81 1e 7d 3f
       0.94191384 0.8485532 0.7764205 0.9887467
000080 6d a3 45 3f e8 c2 6a 3f 83 00 0d 3f 6a f6 48 3f
       0.7720249 0.91703653 0.55078906 0.78501
000090 9f b4 44 3f 34 e3 44 3f 28 71 74 3f bc 45 3b 3f
       0.76838106 0.76909184 0.9548516 0.7315328
0000a0 89 60 4d 3f dd 7a 3b 3f 3a 05 62 3f b8 a2 32 3f
       0.80225426 0.7323435 0.88289225 0.6977954
0000b0 29 bb 79 3f 2b 2e 85 3f ed 8d 09 3f 54 f4 3a 3f
       0.9755121 1.0404714 0.53732187 0.73029065
0000c0 16 9d 43 3f a3 0f 7e 3f f4 ae 32 3f ff fd 06 3f
       0.7641157 0.9924261 0.6979821 0.5273132
0000d0 82 d8 37 3f 4c d5 30 3f f0 19 8e 3f 10 57 6f 3f
       0.7181474 0.69075465 1.1101665 0.9349222
0000e0 2d c4 3f 3f 16 6f 64 3f 24 6a ff 3e 40 2c 82 3f
       0.74908715 0.89232004 0.49885666 1.0169754
0000f0 db b4 3a 3f 44 59 51 3f 06 76 3e 3f 22 1c 3e 3f
       0.72932214 0.81776834 0.7439884 0.7426168

bn2.bias f4 [64]
000000 2a a0 c2 be 3f c7 ab be e1 00 ea bd 12 d4 62 be
       -0.3801282 -0.3355045 -0.11425949 -0.22151211
000010 2b 3f 7d be cc 14 67 be 13 83 40 be f8 b6 cf bd
       -0.24731128 -0.22566527 -0.18800001 -0.101423204
000020 a9 a8 2a be 73 a9 f8 be 77 e4 f4 be 07 f4 66 be
       -0.16665901 -0.4856678 -0.47830555 -0.22554027
000030 fe cd 5a be 04 af 6b be db 66 43 be 43 9c 06 bf
       -0.21367642 -0.23015982 -0.19082205 -0.52582186
000040 9f c1 08 bf 32 6c e5 be c8 9d 0f be 97 2c e3 be
       -0.5342044 -0.4480911 -0.14025033 -0.44369957
000050 c9 6b 9b be a9 0e e7 be 32 13 cf be 37 35 56 be
       -0.3035567 -0.45128372 -0.40444332 -0.20918737
000060 02 b0 9a be 16 07 89 be 2c eb 4a bd 29 f6 ce be
       -0.30212408 -0.2676322 -0.049540684 -0.4042218
000070 71 65 1f 3e db c5 ae be a5 3e b1 be f9 d2 bb be
       0.1556604 -0.34135327 -0.34618106 -0.36684397
000080 15 0a 75 bd fb 59 52 be a0 90 de be 81 ce 23 be
       -0.059824068 -0.20542137 -0.43469715 -0.15996744
000090 b6 72 48 be a7 50 56 be b1 c2 29 be 4b 06 59 be
       -0.19575009 -0.20929204 -0.16578175 -0.21193807
0000a0 98 3a 20 be d9 24 98 be 70 5d 9b be c4 e9 4e bd
       -0.15647352 -0.29715613 -0.30344725 -0.050515905
0000b0 86 1d 5c 3e 65 6b 7d be 9c af 0b bf 70 0f 39 be
       0.21495637 -0.24747999 -0.54564834 -0.18072295
0000c0 ce 60 cb be 6b 66 dc be 30 75 47 be dd 14 07 bf
       -0.39722294 -0.4304689 -0.19478297 -0.5276621
0000d0 17 96 06 be 49 c3 db be dd 18 66 3d 91 60 ac be
       -0.13143192 -0.42922428 0.056176055 -0.33667424
0000e0 8c 48 8c be c5 c4 93 be e9 b4 f4 be 12 18 82 be
       -0.273991 -0.2886106 -0.47794273 -0.2540899
0000f0 98 dc 97 be 62 be 37 be ba 4d 05 bf 16 ad 23 be
       -0.29660487 -0.17943719 -0.52071726 -0.15983996

bn2.running_mean f4 [64]
000000 20 18 81 be 19 24 36 bf 36 3e ab 3b e2 65 95 bd
       -0.25213718 -0.7114883 0.005225922 -0.07294823
000010 84 2e af be 55 bf 19 bf 73 52 b7 be dc 8c e1 3e
       -0.34215176 -0.60057575 -0.3580509 0.4405278
000020 8f 50 8e bf 06 3a bf be c4 84 1b bf 4b 46 27 bf
       -1.1118335 -0.37348956 -0.6074946 -0.65341634
000030 f8 15 62 bf bd 77 d6 be 1b dc ed be e5 22 83 be
       -0.8831477 -0.41888228 -0.4645699 -0.2561256
000040 26 a4 3c bf c2 41 fa be aa 13 84 3d 60 b2 3d bf
       -0.7368797 -0.48878294 0.06449063 -0.74100304
000050 b8 8f 59 be 3d 8d 9b be d4 62 85 be 10 d4 df be
       -0.2124623 -0.30381194 -0.26051962 -0.43716478
000060 ce 08 21 bf 9a a7 0e bf 3c ab 30 be c7 7c b7 be
       -0.6290406 -0.5572449 -0.1725282 -0.35837385
000070 73 f5 9e 3e 01 de 95 be 01 fb 3e bf 0c fc 38 bf
       0.31046638 -0.29270938 -0.7460175 -0.72259593
000080 5a de 57 be d4 67 09 bf 4f 83 3b be e2 23 a4 bd
       -0.21080914 -0.53674054 -0.18311809 -0.080146566
000090 f0 fe 3f bf 86 ae 9b be f0 cc ff be 41 68 74 bf
       -0.7499838 -0.30406588 -0.49961042 -0.9547158
0000a0 f3 14 e6 be ba ad 95 be 14 23 23 bf 1f 1c e8 be
       -0.44937858 -0.29234105 -0.637254 -0.45333955
0000b0 09 6e d7 3e 6f d9 2d bf 3b 15 98 be f9 36 93 3d
       0.42076138 -0.679099 -0.29703698 0.071882196
0000c0 a0 b1 d3 be 04 7e 7c be 0e ca 02 bf c7 9b 61 be
       -0.41346455 -0.24657446 -0.5108956 -0.2203208
0000d0 bb f7 87 be 7b 2d b5 be 31 96 f9 be 46 b0 0d bf
       -0.2655619 -0.3538626 -0.487474 -0.55347097
0000e0 94 10 24 bf 3c c4 44 bf fe 29 8d be 9c 85 33 bf
       -0.64087796 -0.7686193 -0.275711 -0.70125747
0000f0 fe b1 32 bf 7b 5a 44 bd 06 28 20 bf 24 14 e8 be
       -0.69802845 -0.04793785 -0.6256107 -0.45327866

bn2.running_var f4 [64]
000000 35 23 0c 3f c4 c0 e1 3f 4b c1 95 3f 29 da af 3e
       0.5474122 1.7636952 1.1699613 0.3434613
000010 94 95 2b 40 97 fa 1f 40 55 7a b6 3f 7a f3 4d 3f
       2.6810045 2.4996698 1.4256083 0.8044964
000020 b5 e4 1f 40 41 d9 9d 3f 22 9d 71 3f e8 5d 48 40
       2.4983342 1.2331926 0.9438039 3.1307316
000030 07 5e 38 40 e1 3f 05 40 3e 84 12 40 12 0d 7b 3e
       2.880739 2.0820239 2.2893214 0.24516705
000040 ee c1 70 3f 53 d0 04 3f 08 2a 63 3f 82 53 f8 3f
       0.94045913 0.5188038 0.8873601 1.9400485
000050 96 67 a4 3e 7b 21 cd 3e 0f b4 5a 3e 5b 30 0e 40
       0.3211028 0.40064606 0.2135775 2.2217014
000060 8e 6b 4d 40 ed 15 b7 3f ee c7 37 40 b3 35 15 3f
       3.2096896 1.4303566 2.8715777 0.58285064
000070 be 88 60 3f f2 90 62 3f 76 b6 00 40 0b 66 14 40
       0.8770865 0.8850242 2.0111365 2.3187282
000080 53 8b d8 3f 13 7e 26 40 00 2d a2 3e 66 7c 86 3f
       1.6917518 2.601445 0.31674957 1.0506713
000090 de 0a 11 40 6c 41 08 40 72 3c d3 3f 26 5e 2c 40
       2.2662883 2.128993 1.6502821 2.6932464
0000a0 5c 27 a9 3f 93 4b 98 3e 96 aa 38 40 15 1f 01 40
       1.3215137 0.2974516 2.8854117 2.017522
0000b0 a1 32 8b 3f 63 6d 8b 3f 63 2c 6e 3f f8 3d 58 3f
       1.0874826 1.0892757 0.9303648 0.84469557
0000c0 29 df 54 3f 39 56 3f 3f 3e 65 5c 3f 7c 0b 6e 3e
       0.83153015 0.7474094 0.86091983 0.23246568
0000d0 a7 e8 05 40 50 6f be 3e a4 57 f2 3f 0b 9d 7d 3f
       2.092325 0.371943 1.8932996 0.99067754
0000e0 d9 68 33 40 77 11 2f 40 2b 9a 41 3f ba 70 60 3f
       2.8032744 2.735441 0.75625867 0.8767201
0000f0 7c c7 2e 40 95 14 8b 3f d4 07 60 3f 83 3c d9 3f
       2.7309256 1.0865656 0.87511945 1.6971592

fc2.weight f4 [64, 64]
000000 ca c7 72 3d e4 77 e1 bc 93 42 14 3e 48 60 46 bd
       0.059272565 -0.027522989 0.14478521 -0.048431665
000010 b7 c7 12 3d a1 bc 8e 3c 23 75 d6 bd 89 46 59 be
       0.035834994 0.01742393 -0.10471561 -0.21218313
000020 1d cd f1 bd 44 12 10 be 39 ae 23 bd f2 8d 1d be
       -0.118067004 -0.14069468 -0.039961074 -0.15386179
000030 f2 68 6c bb 0b b9 8e 3e 3b ca 83 bd d7 70 4b bd
       -0.0036073294 0.27875552 -0.06435057 -0.04966816
000040 2c 1e 3f be a3 5e 7c bd f1 08 80 3d b5 6d 39 be
       -0.18663853 -0.06161369 0.062517054 -0.18108256
000050 b4 1f f0 bc 1e a7 48 3d 0a 61 8d bc fb df 51 be
       -0.029311992 0.0489875 -0.017258186 -0.20495598
000060 d0 82 54 be 85 b3 ba bb 65 d1 18 3e 15 e7 63 bd
       -0.20753026 -0.00569767 0.14923628 -0.0556403
000070 c9 82 51 be a4 33 3e bd b1 77 08 bd c3 6f 28 be
       -0.20460047 -0.046435967 -0.03331727 -0.16448884
000080 bc a4 87 be dc 05 d7 bd b8 a4 00 3d b8 0e da 3d
       -0.2649287 -0.104991645 0.031407088 0.10647339
000090 d3 ee d5 3c df ab 89 3d 32 89 91 be 30 0a db 3d
       0.026114857 0.06722235 -0.28424984 0.106953025
0000a0 bb c0 ec bd 55 18 b4 bd ce ac 2b bd f2 7a 85 be
       -0.11560198 -0.087937035 -0.041912846 -0.26070362
0000b0 89 16 42 be eb 1f d8 3d eb a6 af bd 6e db 5f bd
       -0.18953909 0.10552963 -0.08576759 -0.054652624
0000c0 5d df a0 3c d2 a7 a1 bd 85 40 a6 bd 75 b2 8c 3c
       0.019637758 -0.07893337 -0.08117775 0.017174939
0000d0 3e 8d 15 be 8f 8e c9 bb 81 30 40 bd ed f9 0b be
       -0.14604661 -0.0061510275 -0.046921257 -0.13669558
0000e0 16 30 0f 3e 01 50 2f bd 43 80 d2 bb 16 11 ab bd
       0.13983187 -0.042800907 -0.0064239814 -0.08352868
0000f0 89 89 8f bd 08 6c 00 be 48 e6 3c 3c fc 73 2f 3e
       -0.070086546 -0.1254121 0.011529513 0.17134088
000100 1e 7c 31 bb 64 e9 d5 bc 40 30 ec bb 97 dd fc bd
       -0.0027082036 -0.026112266 -0.0072079003 -0.123469524
000110 07 f1 65 3d b6 f5 44 3d 69 db 94 bd 8b e7 b0 bd
       0.056138065 0.04808589 -0.07268412 -0.08637913
000120 25 18 15 3d 33 3e 88 3d 92 ae be bd a4 f1 ac bd
       0.03639998 0.066524886 -0.093106404 -0.08444527
000130 d9 57 0f bc 67 d8 2f be 06 ea 85 bc 4b ee 36 3d
       -0.008748972 -0.17172395 -0.016346943 0.044660848
000140 b2 13 96 3c bc d0 e6 ba 2d 0d 82 bc 9b fc 05 be
       0.018319938 -0.0017609815 -0.015875423 -0.13084643
000150 77 5c 66 bd a4 70 ad 3d 9a 5e 02 be 56 11 98 bd
       -0.056240525 0.0846875 -0.127314 -0.074251816
000160 5e bf e0 bd 65 22 1a 3d 72 22 8d bd 53 66 85 3d
       -0.109740004 0.037630457 -0.068913355 0.065136574
000170 06 3e c5 ba 1a 7b 98 bd 62 bc 21 bd 92 fa c7 3c
       -0.0015048392 -0.07445355 -0.039486296 0.024411473
000180 23 db f4 bd 38 da 26 bc fe c7 62 bc b2 0c d6 bd
       -0.119558595 -0.010183863 -0.013841627 -0.1045164
000190 81 45 12 be 1e 60 ec 3c 06 38 82 bd b7 6a 96 bd
       -0.14284326 0.028854426 -0.06358342 -0.07344573
0001a0 57 44 15 3d 3d 43 22 bd 9e a2 dd bd 16 e6 23 be
       0.036442127 -0.039614905 -0.108220324 -0.1600574
0001b0 e5 49 21 bd 93 f3 9c 3c 58 80 2e 3d af af 40 3c
       -0.039377112 0.019159114 0.042602867 0.011760636
0001c0 63 34 d3 3c 89 bd bd bd 36 d8 81 bc 06 5f 52 bd
       0.025781816 -0.092646666 -0.015850168 -0.051360153
0001d0 34 d6 58 bd 50 8e 53 bd fa 18 be bc 5d 65 16 3c
       -0.052938655 -0.05164939 -0.02320527 0.00917944
0001e0 f7 3b f7 bc ee 98 94 bd 33 27 6f 3d f5 03 32 bd
       -0.03017996 -0.072557315 0.058386993 -0.043460805
0001f0 06 fb 8c 3d ec 2d 0e be a5 7d 29 bd b1 3c 97 bc
       0.068838164 -0.13884705 -0.04137959 -0.018461557
000200 5e 0a 84 bb e9 2d 20 be d0 21 19 be 59 e7 88 bd
       -0.004029556 -0.15642513 -0.14954305 -0.06684751
000210 d8 07 35 be 6a 5a a9 bd d6 d1 ab 3c dc 54 03 bb
       -0.17678773 -0.08269198 0.020974081 -0.0020039594
000220 bc 88 9a bd cf 92 5b bd 5d aa ab bc 0d 16 61 3d
       -0.07545611 -0.053606804 -0.020955259 0.05495267
000230 77 e6 0c be 5d 44 2d bd de cb db bd 99 9c 77 3b
       -0.1375979 -0.042301524 -0.10732244 0.0037782548
000240 8d 07 0d 3d bf 4d 69 bd eb 3f bf bd 05 e9 2f bd
       0.03443103 -0.05695891 -0.09338363 -0.042946834
000250 47 f6 29 bd 55 b3 0c 3d 2b c1 9a 3c 41 80 f4 bd
       -0.041494634 0.03435071 0.018890938 -0.11938525
000260 49 08 74 bd 79 32 ea bd 8a 58 8e bd 2d 6d b1 bd
       -0.059578214 -0.11435408 -0.06950481 -0.08663402
000270 70 43 c4 bd ab 6b 38 3d df a2 fd bd 28 0c 8e bd
       -0.09583175 0.045024555 -0.12384581 -0.06935912
000280 5a 79 36 bd d7 10 60 bc 1a 5b 96 3d 82 5e 7d be
       -0.044549324 -0.01367589 0.07341595 -0.24743083
000290 a2 fc cb bc 03 87 73 3d d6 2c d1 bd a5 7c 7e bb
       -0.024900738 0.05945493 -0.1021363 -0.0038831618
0002a0 a3 fd bc bd b2 c5 04 bb 8b 40 f7 3c 1f d8 a7 bd
       -0.09228065 -0.0020259437 0.030182144 -0.08195519
0002b0 e2 e6 3b be ef 3d d7 bd f2 19 94 bd 89 37 08 be
       -0.18349794 -0.1050986 -0.07231511 -0.13302435
0002c0 4e 78 82 be c9 8d 8d bd 9b 2b c6 bc ba c2 d2 bd
       -0.2548241 -0.06911809 -0.024190715 -0.102910474
0002d0 0a 38 a4 bc 28 c9 37 be e6 dd 98 bd 49 33 82 bd
       -0.020046253 -0.17947829 -0.07464199 -0.06357438
0002e0 e2 5b 92 3c 00 01 ca bd 52 ef 57 3d 5b 8c be bd
       0.017866079 -0.09863472 0.052718468 -0.093041144
0002f0 be 6f 8c bd 46 82 cc bd 47 fe 46 3c cd b6 12 be
       -0.06857251 -0.09985785 0.012145585 -0.14327545
000300 09 37 00 be d9 dc 8f bd 36 60 b4 be 97 62 d1 3c
       -0.12520994 -0.07024545 -0.35229653 0.025559707
000310 37 a9 b0 be 87 cb 48 3d 31 e4 12 be 7e 5f a9 be
       -0.345041 0.049022224 -0.1434486 -0.33080667
000320 e7 12 1d be 7c 60 22 bd c9 8d 03 be 48 d6 e8 bd
       -0.15339242 -0.039642796 -0.12847055 -0.11368996
000330 6a 13 7f 3d a4 4a ed bc 6c 25 2f be cb f5 9f bd
       0.062274374 -0.028966255 -0.17104119 -0.07810553
000340 03 45 84 3d b6 ce 87 3d 13 b2 bd bc df d4 de 3d
       0.064584754 0.06631224 -0.023156201 0.10880446
000350 c1 ab 83 bd 86 72 65 3d 1e 2e 0e be e3 67 32 bd
       -0.06429244 0.05601742 -0.1388478 -0.043556105
000360 28 a8 01 be 56 43 0d be 8d 7d 89 3d 01 c4 92 3d
       -0.12661803 -0.13795218 0.067134 0.07166291
000370 be 52 5c be 05 b6 19 be 94 9d dc bd ed 66 b0 bd
       -0.21515939 -0.15010841 -0.10772243 -0.086133815
000380 2f 3d 0f bd c6 ce 73 bd 9e 9f fd bd a0 07 91 be
       -0.03497046 -0.059523366 -0.1238396 -0.2832613
000390 ad e5 8a be d5 c3 f6 bc 4e ae da bd 9f 6f bb bc
       -0.27128354 -0.030122677 -0.10677777 -0.022880374
0003a0 bb 89 84 bd 81 1b 26 be 7c 71 cc bb 55 3b c8 be
       -0.064715825 -0.1622143 -0.0062391143 -0.39107767
0003b0 b4 b3 a7 bd 7a 7a 69 be f1 65 88 39 c4 7f a3 be
       -0.081885725 -0.22800627 0.00026015894 -0.31933415
0003c0 b1 e0 03 bd 81 d1 13 be 88 a1 ce bd f3 c1 c8 bd
       -0.032196704 -0.14435388 -0.100894034 -0.09802618
0003d0 98 4e dd bd 62 8d 08 3d aa 81 71 be aa b9 38 3c
       -0.10806006 0.03333796 -0.23584619 0.0112747345
0003e0 13 db 91 3d 5d 64 3c bd de 1a 58 3c 18 aa 02 be
       0.07121863 -0.04599415 0.013189999 -0.12760198
0003f0 83 bd f4 bd 30 bb dc bd 15 bd c8 ba 25 a3 2f be
       -0.11950209 -0.10777891 -0.001531514 -0.17152078

fc2.bias f4 [64]
000000 fb 94 67 3d 74 85 a1 bc 69 f4 ab bd a8 7e c1 3d
       0.056538563 -0.019716956 -0.08396227 0.09447986
000010 af 82 9b bb af b4 5e bd c0 17 f4 bd bf 74 2e 3d
       -0.0047458033 -0.054371532 -0.119185925 0.042591807
000020 6c a7 2a 3e 76 42 12 3f 1f 34 93 3e e8 48 1a 3d
       0.16665429 0.5713266 0.28750703 0.037667185
000030 2b b4 c7 3b cd 81 3a 3e c7 5e a2 3d 3d e8 a8 3e
       0.0060944757 0.18213578 0.079282336 0.32989684
000040 53 49 ba 3d 0f 1d 8f bc 8b 7b c9 bb ff c4 ee 3a
       0.09096017 -0.01746991 -0.0061487607 0.0018216668
000050 bb 2f 2a 3e cc b3 f7 3c 0f 9e 86 3c b8 7f 35 3e
       0.1661977 0.030237101 0.01643279 0.17724502
000060 66 7b 04 3d 82 b3 17 3e 2e bc 1e 3c 3a 2d e0 3d
       0.032344244 0.1481457 0.00968842 0.10946126
000070 00 d2 bc 3d ee 37 54 3d e7 8d e0 3d a2 b9 1d 3f
       0.09219742 0.05181115 0.10964566 0.6161138
000080 0c c4 ad bc 21 ef 1d 3e 69 ec d2 bd d5 0f 1d 3e
       -0.021211646 0.15423252 -0.10298998 0.1533807
000090 3c a9 be 3b d8 3c 2d 3d d8 19 7f 3e be 1c b4 3d
       0.005818514 0.042294353 0.24912202 0.08794545
0000a0 79 6b 2e bc 91 4f 1f 3f 63 ab 21 be db 4a 3b 3e
       -0.010645741 0.62230784 -0.15788035 0.18290274
0000b0 a6 8a d6 bd d3 86 23 bd 31 4d ae 3d c5 8d 99 bc
       -0.10475664 -0.0399235 0.08510817 -0.018744359
0000c0 76 d2 16 3e 2b 22 d9 3d 7f 36 a5 bd e9 69 fe 3d
       0.14728722 0.1060222 -0.08067035 0.124225445
0000d0 ed a6 ed bb 56 2a dc 3c 51 3f 44 3e af 6b 1b bc
       -0.007252565 0.026875656 0.19164778 -0.009486123
0000e0 fb 29 94 3d cb 3e b9 3b bb 64 e0 bd d7 bb a5 3a
       0.0723457 0.0056532375 -0.10956713 0.0012644482
0000f0 58 ce ab 3c 7a 65 81 3d bb f4 97 3c 1d 1e b6 bc
       0.020972416 0.06318183 0.018549314 -0.022231156

out.weight f4 [1, 64]
000000 8f c3 b7 3d 82 db 43 3b 02 d0 6c 3d 8e 4a 39 bc
       0.08972847 0.0029885476 0.05781556 -0.011309279
000010 e3 86 61 3c b6 a2 47 3e db f1 5b bd ab d2 23 3e
       0.01376507 0.19495663 -0.05369745 0.15998332
000020 ce 9d 42 3e f5 dc a5 be 80 c9 6a 3d 26 6d 8c bd
       0.1900551 -0.3239514 0.05732107 -0.06856756
000030 3c 85 35 3d 85 65 10 be e2 18 76 3d 63 64 9e 3d
       0.044316515 -0.14101227 0.060082324 0.07733991
000040 ab b2 ff bd 57 85 0c bd 8d 43 10 3d 70 5a b8 3b
       -0.1248525 -0.03430685 0.03522067 0.0056260154
000050 3b fa f9 bc 12 ca 94 3d 1b 20 d2 bc a6 4b 29 3e
       -0.030514827 0.07265104 -0.025650075 0.16532764
000060 e2 59 6f bb e5 fd 24 3e 10 67 5d bd 83 38 61 3d
       -0.003652208 0.16112478 -0.054053366 0.054985534
000070 4f 9c 29 3d a2 7a 22 be 84 d1 1e be fa 7b 88 3e
       0.041408833 -0.15867093 -0.15509611 0.26657087
000080 8f 1b 96 3c b1 b2 fb bd 34 6e 9e 3c 3e 08 84 be
       0.018323688 -0.12289942 0.019339658 -0.25787538
000090 73 35 a1 bd 4a 45 a4 3d a1 eb b9 bd 40 07 b5 bc
       -0.07871523 0.08021028 -0.09078146 -0.022098184
0000a0 b0 8e b0 3d 7e 1f db be e7 f0 12 be 4d c4 4a be
       0.086209655 -0.42797464 -0.1434971 -0.19801445
0000b0 42 c9 47 3c 37 55 a5 3b 89 ff 7d 3e 95 f9 3b bd
       0.01219398 0.005045559 0.2480451 -0.045892317
0000c0 92 33 32 be 2a 9f b0 3e 76 62 46 3b 60 10 28 3e
       -0.17402485 0.34496433 0.003027109 0.16412497
0000d0 f0 25 0b 3d 4f b2 67 bc 53 ca 7e 3e ee c5 05 3e
       0.033971727 -0.014141633 0.24881868 0.13063785
0000e0 72 75 dd 3d 21 06 01 3e 04 16 18 3e 33 7e 37 3e
       0.108134165 0.12599994 0.14852148 0.17919235
0000f0 66 c8 b8 3c 13 6a 46 3c af 56 2d 3e c2 3c 00 bd
       0.022556495 0.012110251 0.16927598 -0.031307943
