data/gcn_pt_files/gcn1_mse_model.pt (torch, 44821 bytes, 15 tensors)

conv1.bias f4 [64]
00000000: 3e1a b838 678a abb8 a46f ce37 cc30 0c38
00000010: d3c7 07b9 4df4 6eb7 1d92 8039 d0c5 1938
00000020: 1627 1537 6a28 93b9 d553 b3b8 e2ff 70b9
00000030: 1713 23b8 9b39 0db8 1af3 ab39 d63e 46b8
00000040: 111a 2639 ae05 a0b8 943c a237 33ec c0b8
00000050: 482d 9238 5b29 c5b8 f0e6 95b8 f519 8938
00000060: 0980 9eb8 dbaa ee38 72de 2638 aa21 4a38
00000070: f2f7 42b8 10a2 7638 a59c 8338 74df 2cb8
00000080: 8afc 1039 db76 3cb8 f6bc 8837 99a9 53b6
00000090: 5a04 a0b8 0d17 c8b7 91a4 4939 b9bc 8ab8
000000a0: af35 3c38 599c a9b8 0596 f438 935f c937
000000b0: 0286 d737 0683 c738 b549 dd37 9d85 c637
000000c0: 3ef1 793a ef8c 05b7 c52f 1a38 86c3 76b7
000000d0: 8294 20b8 d799 28b8 09f9 05b9 fa4c d438
000000e0: 1c04 2738 50c3 3937 1ea2 5eb7 9926 3638
000000f0: 63be cfb7 30b5 8038 22ec a0b8 027a b9b9
8.778692e-05 -8.179695e-05 2.46091e-05 3.3424047e-05 -0.00012949044 -1.4242786e-05 0.00024522925 3.666227e-05
8.8901925e-06 -0.00028068136 -8.551e-05 -0.00022983507 -3.8880007e-05 -3.367067e-05 0.00032796786 -4.72654e-05
0.00015840704 -7.6304525e-05 1.9340114e-05 -9.199269e-05 6.970257e-05 -9.401395e-05 -7.147889e-05 6.537504e-05
-7.5578755e-05 0.00011380549 3.9784652e-05 4.8191905e-05 -4.648412e-05 5.8801903e-05 6.275744e-05 -4.1216103e-05
0.00013826988 -4.4933386e-05 1.6300455e-05 -3.154017e-06 -7.630205e-05 -2.3852592e-05 0.0001923016 -6.615505e-05
4.487269e-05 -8.08767e-05 0.0001166277 2.4005572e-05 2.56924e-05 9.5134645e-05 2.6379576e-05 2.3665658e-05
0.0009534544 -7.960231e-06 3.676095e-05 -1.47082665e-05 -3.828528e-05 -4.0197596e-05 -0.00012776641 0.00010123286
3.981973e-05 1.1072334e-05 -1.3269977e-05 4.342813e-05 -2.4764979e-05 6.1372644e-05 -7.673378e-05 -0.00035376853

conv1.lin.weight f4 [64, 10]
00000000: 0fd5 06be 9c4a 843e 9f40 023f b89b 00bf
00000010: 2ae3 04be b2e9 d1be d557 a8be 40be 8d3f
00000020: 2968 113d 3360 09be eab7 8b3d 10d4 0f3f
00000030: 573d 693f 40d8 96bc 547b 503f ac38 11be
00000040: b3c0 e7be 35b9 53bf 6305 833d b7ca 983e
00000050: 8d2f cf3e 808a 05bc e73a abbd 24ab 343d
00000060: 89a3 a2bd dcf4 4a3f a240 983f 5074 b13f
00000070: 9300 00bd 35d9 7a3f 5c01 ee3e 92ed 123e
00000080: 1e64 6e3e 0d2d 40be 7da9 323e 359e f03e
00000090: 1e44 013f 50df 9a3e 03d1 bcbd e73d 26bf
000000a0: 48f0 813f b0b0 753e fdf5 10be 8ca6 a53c
000000b0: 18c1 8b3e 1230 3abd 1ec4 6a3d 80ef afbf
000000c0: 278f 6a3c b9bc 123f dc50 a03e e2a1 bf3e
000000d0: 0ac8 103f 9c90 46be 4143 a93e e669 7f3e
000000e0: c078 983e ae56 603d 9f7a 2a3e 03dd 35be
000000f0: 5e12 70be ea16 833e c745 623e 51cf 143d
00000100: 76f6 4a3e 17bb 973d 41cf 823e bb4f 943f
00000110: 4fa4 513d 8eea 5a3e 1480 89be 9611 71be
00000120: d089 923e 6f01 78be 2f68 573e 313b 03bd
00000130: b69e 1ebf 0ef4 83bf 48dd 85bd 13e4 8bbf
00000140: 644b 79be 9f3a d83c 6d50 a53d 453f 09bc
00000150: bee1 35bb 54f7 39be 1637 13be 6028 ab3e
00000160: 19b6 26bb 6bbd cebf 0291 a4be edf2 a6bc
00000170: 440c cdbc bbed 03bc d40e 0f3c deb1 88b9
00000180: e05a a5be 688a 913d 16b6 5bbc a64d 36c0
00000190: a970 82bd 25ed 923d 2633 3a3e 4223 cabc
000001a0: 09b7 7d3d 83d3 febc c31f 6dbe 7e40 013f
000001b0: a5cf 063c 7896 81bf a9e8 6dbe 5841 503e
000001c0: 9a54 4a3d e871 a33d 07b5 d4be bfd5 4bbe
000001d0: dbeb 023e ace6 903f ab6e f73c b4a0 033e
000001e0: 58bd 91be 06db b03d 806f 473e 2098 c7bc
000001f0: 8e24 a33d 69af a4bd 2652 4ebe d423 163f
00000200: 9dea 183c 7579 aebf 3c17 113f 50f5 6b3e
00000210: a4f7 fdba 3f34 83bc c301 93be 0133 58be
00000220: c853 4fbf 5582 23be cc9b 073e 1b17 24bf
00000230: 766d 1fbf 47d7 4fbe 24dd 80be f2b5 26be
00000240: 556d 743e c23b 91be 52dc 65bc 77bc 403f
00000250: 0b70 8fbd fdc7 533f 5064 993c 976f 65be
00000260: bce3 57be 03c9 1e3d 152d 52bd 5fcc 7bbe
00000270: 02c8 6ac0 62f0 11bf 432f e73d 8e54 d5be
00000280: cd55 0d3e ce12 0b3f 55ee 553f 71e0 823e
00000290: 6185 9f3e 9df6 1d3e 1469 b13d fd9d 863f
000002a0: 749f f33d 43e4 8ebd 3146 d1bd 18ea 14bf
000002b0: c5d8 bebf 98a8 8dbe 026e a83d 9644 2abe
000002c0: f02b 72bf d17c d5bf 39b7 45bd db97 0c3d
000002d0: 3411 033f 275d 9a3d 3776 d13e 1433 4ebe
000002e0: e561 a23e 60da dc3d 94a1 83bf 566f 7dbf
000002f0: 9223 283c 6b32 3ebf b93a af3c 1b5a ab3d
00000300: e7c9 663e e543 883c 00a5 bd3d 3b0c 34bd
00000310: fe2e 03be 2c55 c93e c0ce 6cbb 6120 98bf
00000320: 0c45 dabd 60bd 823e ea41 563e 363a ff3d
00000330: d810 8dbf 2d12 19be 60f8 7fbb ed90 3b3f
00000340: 6f67 4d3b 034d f3bc 9aed f4bd 0f70 11be
00000350: 4551 b9bd 3386 20be ea65 0b3e 7cd7 7f3e
00000360: 4770 a4bf 36ae 37bf db01 19bc 1e06 78bf
00000370: a709 cabd 332d 1d3f 3576 e83e 3b9f 0dbe
00000380: 4ff9 0fbf 34e6 753d fe88 423e 8e55 b93f
00000390: a12f 083e 80b7 18be ffd0 203f 38b1 1d3e
000003a0: b5dc 0e3f 313c ebbc 5120 a53e b0e0 be3d
000003b0: 32af 9bbf f888 0cbf ca68 93bd 92a7 b3be
000003c0: 81b6 98be 8069 a73e dd5b 2d3e 36db 6e3e
000003d0: 64e4 d1bd 648a ecbd 4a96 ee3e 6a22 bd3f
000003e0: 7f80 ac3d be58 b43e d3f1 d3bc 90a6 f03e
000003f0: fb2d 353f 252f a4be 4b88 1f3f dfe7 883e
-0.13167213 0.25838172 0.50879854 -0.5023761 -0.12977281 -0.40998608 -0.3287951 1.1073685
0.035499725 -0.13415603 0.06822188 0.56182957 0.9110922 -0.018413663 0.81438184 -0.14181775
-0.45264205 -0.8270448 0.06397512 0.2984216 0.40465966 -0.008150697 -0.08360844 0.044108525
-0.07941348 0.79279876 1.1894724 1.3863621 -0.031250548 0.9798768 0.46485412 0.14348438
0.23280379 -0.18767186 0.17447467 0.46995702 0.50494564 0.302485 -0.09219553 -0.64938205
1.0151453 0.23993182 -0.14156337 0.020221017 0.27295756 -0.045456 0.05731594 -1.3744965
0.014316357 0.5731922 0.3131169 0.37428194 0.56555235 -0.19391102 0.33059123 0.24942741
0.29779625 0.054770164 0.16648339 -0.1776009 -0.23444507 0.2560342 0.2209693 0.036330525
0.1982058 0.074087314 0.25548747 1.1586832 0.051182088 0.21378538 -0.26855528 -0.23541865
0.28620768 -0.24219297 0.21035837 -0.03203887 -0.61960924 -1.0308855 -0.06536347 -1.0928978
-0.24345165 0.02639514 0.080719806 -0.008376901 -0.002775296 -0.18160754 -0.14376482 0.3342924
-0.0025438129 -1.6151556 -0.32141882 -0.020379508 -0.025030263 -0.008052285 0.008731563 -0.00026072463
-0.32295895 0.07106477 -0.013410112 -2.8484893 -0.063691445 0.07174138 0.18183574 -0.024675015
0.061942134 -0.031106716 -0.23156647 0.5048903 0.008228217 -1.0124044 -0.23233284 0.20337427
0.04939709 0.0798071 -0.41544363 -0.19905756 0.12785284 1.1320395 0.030204138 0.12854272
-0.2846477 0.086355254 0.19476128 -0.024364531 0.07965957 -0.08041269 -0.20148525 0.5864842
0.00933328 -1.3630816 0.5667608 0.23042798 -0.0019376171 -0.016016124 -0.28712282 -0.21113206
-0.80987215 -0.15967686 0.13243026 -0.64097756 -0.622764 -0.20296966 -0.25168717 -0.16280344
0.23869832 -0.28365904 -0.014029579 0.75287575 -0.070037924 0.8272703 0.01872459 -0.2240585
-0.21082968 0.03876592 -0.051312525 -0.2458968 -3.6684575 -0.5700742 0.11288311 -0.41666073
0.13802262 0.5432557 0.8356679 0.2556186 0.31156448 0.15426107 0.0866262 1.0516964
0.11895648 -0.06977131 -0.10218466 -0.581697 -1.4909903 -0.2766769 0.08224107 -0.16627726
-0.94598293 -1.6678716 -0.048270438 0.03432451 0.51198125 0.07537299 0.40910503 -0.20136672
0.31715313 0.10783839 -1.0283685 -0.9899801 0.010262387 -0.7429568 0.021390306 0.08366796
0.22537957 0.016633937 0.09259987 -0.043956976 -0.12810895 0.39322793 -0.0036133975 -1.1884881
-0.10657701 0.25535107 0.20923582 0.12462275 -1.1020765 -0.1494834 -0.0039057955 0.73268014
0.0031342169 -0.029699808 -0.119593814 -0.14202903 -0.09048704 -0.15676193 0.13613096 0.24984545
-1.2846764 -0.717502 -0.009338821 -0.96884334 -0.09865122 0.61397094 0.45402685 -0.13830273
-0.5623979 0.060033992 0.18997571 1.4479234 0.13299419 -0.1491375 0.628189 0.15399635
0.5580552 -0.028715225 0.32251218 0.093201995 -1.216284 -0.548965 -0.07197721 -0.35088784
-0.2982674 0.32697678 0.16929574 0.2332581 -0.1024864 -0.115498334 0.46599036 1.4776127
0.08422946 0.35223955 -0.025872147 0.47002077 0.70773286 -0.32067218 0.6231734 0.26739404

bn1.weight f4 [64]
00000000: d2dc 203f fa62 203f 04ee 003f 9c6f 323f
00000010: 6224 4c3f 3b32 363f 2ad2 2b3f 14db 1f3f
00000020: 3211 8e3f 8fbf a73f 5a8f 4e3f 5a8b 493f
00000030: fa8d 603f ddf4 803f facb 4a3f a425 853f
00000040: 11e6 133f 2612 2d3f 24be 4c3f 783f 543f
00000050: 30cb 4a3f aba4 203f ff1f 123f b35e e03e
00000060: 9203 e13e 82e2 0d3f b39f 403f 8921 423f
00000070: 188b b33f 47c1 673f 6174 903f cc0f 7c3f
00000080: eea5 b53f df26 4a3f 6931 163f 3f3d b53f
00000090: c0a4 6e3f 4232 213f 2dd0 a53f 0f0f 0e3f
000000a0: bc34 813f 544a 473f e729 4c3f 587c 0b3f
000000b0: 029a 5c3f 142f 2e3f 890d 273f 4904 673f
000000c0: 8814 883f 131a 543f 1743 4d3f d2e9 b93f
000000d0: e288 083f 633f 773f 5e6f 153f d31b b93f
000000e0: 05d9 763f dc21 863f 6b1a 523f d26e 503f
000000f0: f03f 5b3f dd50 023f d3cd 4d3f 21d4 733f
0.62836945 0.62651026 0.50363183 0.6970155 0.79743016 0.71170396 0.6711756 0.6244366
1.1098998 1.3105334 0.8068749 0.7872826 0.8771664 1.0074726 0.79217494 1.0402112
0.5777293 0.6760582 0.7997763 0.82909346 0.7921629 0.62751263 0.5708007 0.4382225
0.43948036 0.5542375 0.7524368 0.7583242 1.4026823 0.9052929 1.1285516 0.98461604
1.4191263 0.7896556 0.58669144 1.4159316 0.9322014 0.6296731 1.2954155 0.5549173
1.0094218 0.7784779 0.7975144 0.5448661 0.861725 0.68040586 0.6525503 0.90240914
1.0631266 0.82852286 0.80180496 1.4524481 0.53333867 0.96581095 0.5837306 1.4461616
0.96424896 1.0479083 0.8207156 0.814191 0.85644436 0.5090464 0.8039219 0.9524556

bn1.bias f4 [64]
00000000: 0571 d5bf 44aa c1bf b217 afbe f0ea 33bf
00000010: aa66 0ebf a9bf 86bf bfd1 e6bd cc4d cd3d
00000020: 600a 11bf 233a 28bf f525 debe 6853 1ebf
00000030: caa4 f1be e8ce 65be d2ee 85bf 6021 d53e
00000040: acb0 c1be 919f 5e3e 1cbf 1cbe 717d bdbe
00000050: 5468 f3be 7f1e 0f3e f187 a4be 30cf 09bf
00000060: 99aa d5bd f3ac cabf ce18 e6be e7bb 193e
00000070: c502 5fbf 1567 7dbf 6f2b adbe 85a0 01bf
00000080: 3c75 62bf 4dae 21bf 58a6 51be 5803 67bf
00000090: 0dc2 38bf 3d34 9abe ae10 1dbf 18df 98bf
000000a0: b08b a8bf 0d9a 17bf 7628 36be 52f9 8bbd
000000b0: d06a 29bf fb5b 73bf 7d26 a23e 4a14 cbbe
000000c0: 0646 a1bf 1d03 22bf 666b 5fbf fb87 6ebf
000000d0: 8790 5cbf faa0 2abf 8112 d7bf 284c 59bf
000000e0: a0cb 27bf b5ff 09bf 6d92 9ebf ecfc dbbe
000000f0: 8233 acbf 7fd0 61bf ae0d c8be ee78 68bf
-1.6675116 -1.5130086 -0.34197766 -0.7028036 -0.556254 -1.052724 -0.11270475 0.10024604
-0.56656456 -0.6571371 -0.43388334 -0.6184602 -0.47196037 -0.2244221 -1.0463507 0.41627026
-0.37830102 0.21740557 -0.15307277 -0.37009767 -0.47540534 0.13976477 -0.32134965 -0.5383177
-0.104329295 -1.583403 -0.449408 0.15013085 -0.871136 -0.98985416 -0.338222 -0.5063556
-0.88460135 -0.63156587 -0.20473611 -0.9023948 -0.721711 -0.3011798 -0.61353576 -1.1943083
-1.3167629 -0.5921944 -0.17788872 -0.068346635 -0.6617861 -0.95062226 0.3166999 -0.39663917
-1.2599494 -0.63286 -0.8727325 -0.9317624 -0.8615803 -0.6665188 -1.6802522 -0.8488183
-0.6554508 -0.539058 -1.2388436 -0.42966402 -1.3453219 -0.88208765 -0.39072937 -0.90809524

bn1.running_mean f4 [64]
00000000: 1585 1440 ece4 7a40 053b 01c0 5d13 b5c0
00000010: 260c 4f3f 8838 2241 c500 4b40 3a8b 7fc0
00000020: 9b19 49bd e31f 3dbf a3a4 113f 5496 f63f
00000030: ab0e 2a3f e027 0241 b17b 87c0 2e36 dd40
00000040: b327 ea40 8eee 45c0 9b5d 1c3f 58ce 1ebe
00000050: 5e0a 803e e468 20bf 1dfc 0241 5d99 8bc0
00000060: edef a640 c191 2340 330f aac0 0d2e a940
00000070: d00a 49bf de54 d5bf 3190 2241 bfd3 4d41
00000080: 0d88 3bbf be3a 583f 29d6 17c1 113c 22bf
00000090: 91a1 7c3f 46a6 343f d54e e5be 5782 17c1
000000a0: ca75 a33f cd77 54be 41f8 f3bf 6472 3b40
000000b0: 1848 66bf f6d1 b73f 6706 d6bf da9f 5b41
000000c0: 654f 7d3f d91d 4dc1 cfef 2840 d3fc 15bf
000000d0: 7eda 0ac1 eac2 a940 6a99 8ac0 518e 8ebf
000000e0: ef3f 9a3f 51da 8641 026d 0cc0 c53f b940
000000f0: 0724 8840 2859 03c1 3f8b f240 942f 10c0
2.3206227 3.9202223 -2.0192273 -5.6586137 0.8087791 10.138802 3.171922 -3.9928727
-0.049096685 -0.7387678 0.5689184 1.9264627 0.6642863 8.134735 -4.233849 6.9128637
7.317346 -3.0926852 0.6108033 -0.15508401 0.2500791 -0.6266005 8.186551 -4.362471
5.216788 2.555771 -5.3143554 5.2868714 -0.78532124 -1.6666524 10.160203 12.864196
-0.7325447 0.84464633 -9.489785 -0.63372904 0.9868403 0.70566213 -0.44786707 -9.469321
1.2770321 -0.20748825 -1.9060136 2.9288568 -0.89953756 1.436095 -1.6720704 13.726526
0.9894927 -12.819787 2.6396368 -0.58588904 -8.678343 5.305043 -4.3312273 -1.1137182
1.2050761 16.8566 -2.1941533 5.7890344 4.254398 -8.209267 7.579498 -2.252904

bn1.running_var f4 [64]
00000000: d3ae 973e 69da 3c3f d46d 573f 1d63 cb3f
00000010: 4ecb 3b3e 9bc7 e43f c90c aa3e e0e9 213f
00000020: f676 253f 2a0d e43f c6a7 ca3e fe9f 883e
00000030: 0413 0f3f fa09 973f 1024 da3e 044a c63f
00000040: 92c2 b73f 7750 2740 2e6a 733e c827 203f
00000050: 77e1 363f aaac 9b3e b349 a93f 190a 8b3f
00000060: 83b5 253f 88cf 313f f6bc 0d3f 07f4 e03f
00000070: 2475 1a40 4bc9 0d3f b57c ee3f 6799 2f40
00000080: e401 3540 ab53 1f3f c3b2 eb3f c6b6 d83f
00000090: 6071 553e 6179 c33f d0dd 943f 0c4f 8e40
000000a0: 3956 073e 5665 cb3e 187d 883f 125d 873f
000000b0: ceb0 ca3f 6473 6c3f 2feb a53f 06cf 5740
000000c0: a3ed 483e 7bd3 ed40 dc49 2d3f 44ae ad3f
000000d0: 3a03 8340 ad03 9c3f e6b5 fb3f a577 fa3f
000000e0: 9fb2 0a3f bad2 9940 ad67 7e3f ef00 2f3f
000000f0: 9353 e43e 4ee3 4640 259b 793f 6d4b ed3d
0.29625568 0.7377077 0.8415196 1.5889622 0.18339273 1.7873415 0.3321288 0.6324749
0.64634645 1.7816517 0.39581126 0.26684564 0.5588839 1.179992 0.42605639 1.5491338
1.4356253 2.6142862 0.23770973 0.625607 0.7143778 0.3040517 1.3225616 1.0862457
0.6473009 0.6945729 0.55366457 1.7574471 2.4133997 0.55385274 1.8631808 2.743738
2.8282404 0.6223704 1.8413929 1.6930778 0.2084403 1.5271417 1.1630192 4.4471493
0.13216485 0.3972575 1.0663176 1.0575278 1.5835207 0.9236357 1.2962397 3.3720107
0.19621901 7.4320655 0.67690825 1.3568807 4.094144 1.2188622 1.9664886 1.9567763
0.54178804 4.8069735 0.99376947 0.683608 0.44595012 3.1076236 0.97502357 0.11586652

fc1.weight f4 [64, 64]
00000000: 777d d4bd 0ca5 4abe b3ca 813e 654e 6b3c
00000010: 26ec bc3d 6256 19be 209e 893d 7903 9bbe
00000020: eb8b bc3c 5e8b e23d 12d6 8eb9 7b89 9a3d
00000030: 1608 f13c 2088 1abe bfbb 7f3e 0c17 3e3c
00000040: 3fcf 9ebd eb7b 91bb 1f06 d6bd 6240 c03c
00000050: 5a04 113e 0fe4 87be 2ec6 bdbd 8d98 7cbe
00000060: 6643 b83d 516c 0abe 1a0b 073e 1da0 bc3d
00000070: 95d0 3bbe 4049 da3d eaf8 91be 2e2c 91bd
00000080: fa03 16be e7d8 9c3d d80d 90bd 4d9e 85be
00000090: 1bdb db3c 4c10 f1bd 2539 b6bb 3573 fcbd
000000a0: 20cc 4e3d 7503 853b 8345 2e3e e917 7b3d
000000b0: b12f 5b3e 52df 67bd 4fa0 41be 8f19 9ebd
000000c0: df28 013f e691 c0bc 900c 4ebe b2c6 51be
000000d0: 05aa 35bc d9f9 bc3d 742e 2abe b911 50bd
000000e0: ece4 26bd e119 efbd a1cb 453f 0725 49be
000000f0: 0f3d 1abc 9c72 4cbe 83af 91bd 9f7d c53e
00000100: 1abb 023e cd5a dd3d 875d 3b3d d639 01be
00000110: 1375 a2be f22d acbd c6c1 783d 5fad 9cbd
00000120: 7520 903e a852 913e 9bf4 ba3b 1dba cc3d
00000130: f48e 8a3e c194 cd3c 392c e3bd 390b 603c
00000140: f452 98bd f079 183b 2f1e 86bd 5bb1 d03d
00000150: 800a 51bc 7b63 b5bd 178d 86bd 87cf f83c
00000160: de07 e33d a8d8 89be 9ee1 aa3d 40e3 eb3c
00000170: c8c0 263f 0971 95be 4c94 a43c 2979 cfbc
00000180: ed99 253f b732 113e a0ae 273d e5a9 6a3f
00000190: 499f 8bbe ad80 593e a46a d03e 7a73 f4bd
000001a0: 8fcf a9be 252f b6be 3f6a 863c 1d21 07bd
000001b0: c387 6ebe b68c 03bf 01f6 c6bb dc8d b2bc
000001c0: f56b fbbe a5d1 82bd a124 7f3e 2f5d 653f
000001d0: f6ff cebd 7dde d3b9 ece7 9bbe 060d 033f
000001e0: e72c a1be cd34 d53d b673 febd 128a 8cbc
000001f0: 6987 01bf adcb 603d b7b5 fbbd 2d2c 8d3d
00000200: 2722 bebe b030 1abd 617b 93be 6c5d c23d
00000210: 4b09 3c3e ff3a 72be c937 9bbe c2ec 013d
00000220: e9f4 00be a7cc 4bbf 1ce2 043e 7639 5abf
00000230: 655a b1bd 1614 a33d 9d68 5dbd 23ae 453d
00000240: 88da 94be deaa a03c 0966 7ebd d523 853e
00000250: 2b35 80bf 6007 dbbc 506c b6be c38c 733e
00000260: 97a3 19bf 9e9d 98be dc3d ed3d 7c45 6fbd
00000270: aff1 a1bf 15ee aabd fd61 ea3d 0e7a 9f3d
00000280: 2f78 9dbf c23a 78bf b346 3f3e 2128 5cbf
00000290: 2164 8d3d 37ed 093e 0d87 3dbf 2918 01bf
000002a0: a80e 3ebf e456 52bc d043 113e 490d 163e
000002b0: 64ee 8c3e 966b 6fbe 7e05 9dbd d8c0 2b3e
000002c0: a34e 2bbe ea78 e3bc bd44 da3d 05e5 88bf
000002d0: d4b8 29be a56b 823c 392d e9be a5c4 8fbf
000002e0: 5cac 2d3e aafb 793d 8fb7 0c3e bae8 a0bc
000002f0: 16cf 73bf 2b4a 68be 7c8e 82be d67e d2bd
00000300: 216a 6cbe 16b8 b93b 3681 3abe 8a30 903e
00000310: 8181 bfbe d6cf a7be c1bf 793d 9b30 a3be
00000320: b176 e93c e16d acbd d6c3 373d 43ef 10be
00000330: 2f36 7bbd 2e86 553b 8126 39bf a410 acbd
00000340: e98a eabd ddc1 b9bd adf8 5cbe f64f b1bb
00000350: c425 673e d366 cbbe 3f41 20be adf9 d5bc
00000360: ec9e 58bd 5028 dd3d 7c7f 03bf 6d43 9ebd
00000370: d44f 9e3e ee11 b6be 3f35 e6bd b97e 083d
00000380: 348a ce3d f00d 67bd 9937 ffbd a75a ef3d
00000390: c740 8dbe 9c58 d33e d202 1bbe 57c8 03be
000003a0: 3fde ca3e ba82 cfbd c2b5 babd 7db0 d9bd
000003b0: e179 efbe 1155 713c 41ac 91bd 29d4 84bd
000003c0: 23b7 08bf 4b99 88be 2400 263e 5029 5d3e
000003d0: 2fa2 04be 67e1 a63c 86d8 c23d e9bd 4a3e
000003e0: c7db d1be 384d 493e fa1a d4be 82e9 e8bd
000003f0: 135b 993d fa2c 863e 1ba8 38bc a252 b4be
-0.10375493 -0.19789523 0.2534996 0.014361952 0.09224729 -0.14974359 0.06719613 -0.30276087
0.023015937 0.110617384 -0.00027243845 0.075457536 0.029422801 -0.1509099 0.24973963 0.0116021745
-0.07754373 -0.004439821 -0.10450386 0.0234682 0.14161816 -0.26541182 -0.092663154 -0.24667569
0.0899723 -0.13517882 0.13187829 0.09210227 -0.18341286 0.106585026 -0.2851022 -0.07088505
-0.14649954 0.07658558 -0.070338905 -0.26097336 0.026837876 -0.117706865 -0.0055610114 -0.123266615
0.050487638 0.00405925 0.17018704 0.0613021 0.21404912 -0.05660946 -0.18908809 -0.07719719
0.5045299 -0.02350707 -0.2012198 -0.20485952 -0.011087899 0.09227342 -0.16619283 -0.05079815
-0.04074566 -0.11674858 0.7726384 -0.19643031 -0.009413972 -0.19965595 -0.07113554 0.38572404
0.12766686 0.108083345 0.04574349 -0.12619719 -0.31729946 -0.08407201 0.06073167 -0.076502554
0.28149763 0.28383374 0.005705429 0.09996436 0.2706219 0.025095345 -0.11092419 0.013674551
-0.07437697 0.002326604 -0.06548726 0.10190078 -0.012758851 -0.08856865 -0.065698795 0.030372394
0.11085485 -0.26923108 0.08343814 0.028794885 0.6513791 -0.291878 0.020090245 -0.025326328
0.64688 0.14179502 0.04093802 0.9166549 -0.27269962 0.21240492 0.4070636 -0.11936088
-0.33166167 -0.35582843 0.016408084 -0.032990564 -0.23293976 -0.5138658 -0.0060718064 -0.02179616
-0.49105802 -0.06387643 0.24916317 0.8959531 -0.101074144 -0.00040410823 -0.3045038 0.5119175
-0.3147957 0.104104616 -0.12424414 -0.01715568 -0.50597245 0.05488174 -0.12290519 0.068931915
-0.3713543 -0.03764409 -0.28805068 0.09490475 0.1836292 -0.23655318 -0.30315998 0.03171993
-0.12593426 -0.7960915 0.12976879 -0.8524393 -0.086598195 0.079628155 -0.054054845 0.048261773
-0.29072976 0.019612726 -0.062109027 0.260039 -1.0016226 -0.026736915 -0.3562951 0.23784165
-0.60015243 -0.29807752 0.11584064 -0.058415875 -1.2651881 -0.08346192 0.11444471 0.07786952
-1.2302302 -0.9696466 0.18679313 -0.8599873 0.06903864 0.13469397 -0.74034196 -0.5042749
-0.74241114 -0.012838099 0.14186025 0.14653505 0.27525628 -0.23380885 -0.07667063 0.16772783
-0.16729216 -0.027767617 0.10657642 -1.0694891 -0.16574413 0.01592047 -0.45542315 -1.1231886
0.16960281 0.06103102 0.13741897 -0.019642223 -0.95237863 -0.22684543 -0.25499332 -0.10278098
-0.2308736 0.0056676967 -0.18213353 0.28162032 -0.3740349 -0.32775754 0.060973886 -0.3187302
0.02849898 -0.08419395 0.044864498 -0.14153771 -0.06133097 0.0032581198 -0.7232438 -0.084016114
-0.11452276 -0.090701796 -0.21579237 -0.0054111434 0.22573 -0.39726886 -0.1564989 -0.026120031
-0.052885935 0.107987046 -0.513664 -0.07727704 0.3092028 -0.35560554 -0.11240625 0.033323977
0.10084954 -0.056409776 -0.12461776 0.116872124 -0.27588484 0.4127854 -0.15137795 -0.12869392
0.39622685 -0.10132356 -0.09116699 -0.106293656 -0.46772674 0.014729754 -0.07112933 -0.06485779
-0.53404444 -0.26679453 0.16210991 0.2159779 -0.12952493 0.020371152 0.09513955 0.19799007
-0.4098799 0.19658363 -0.4142683 -0.11372663 0.07488074 0.2620619 -0.011270548 -0.35219294

fc1.bias f4 [64]
00000000: a637 8537 0d78 9d38 9742 eb38 403b df37
00000010: c607 0237 d8c8 a4b6 9e4c 9037 6c37 8337
00000020: 19ee 5e38 1d10 0339 06b0 86b8 2b82 3038
00000030: 1985 8e36 dd16 7e36 11bc 4437 cfe6 b2b7
00000040: b880 e3b6 bee1 ddb8 693b f734 e852 a338
00000050: c0a9 8638 850c b337 75af b137 ba76 e9b8
00000060: 7729 e8b6 6671 b9b4 b197 8db8 47f8 c9b7
00000070: b7bc 11b6 031a 5339 e20a 6137 a26e 97b6
00000080: ee00 15b7 efb9 a337 768b f036 bcc4 d337
00000090: 38c7 0639 7cc1 cb38 2c36 3f37 f639 3e38
000000a0: 0b09 0937 98a0 a038 040c 1f37 b3e3 10b7
000000b0: 7911 9938 dbde b338 5748 79b8 c947 71b8
000000c0: a5d0 2338 4f67 9438 0714 0d37 9164 20b7
000000d0: 26fe 93b6 cf7a 8ab7 a08b 4c37 a74e 56b7
000000e0: 60c8 88b8 5549 c0b7 706c 4a36 b1c2 0938
000000f0: 3521 b0b8 385e 2fb8 9916 7a37 8d32 beb7
1.5880749e-05 7.5087046e-05 0.000112180765 2.6611262e-05 7.750414e-06 -4.910962e-06 1.7201815e-05 1.5642225e-05
5.315067e-05 0.00012499136 -6.422405e-05 4.20829e-05 4.2474244e-06 3.7862258e-06 1.1726298e-05 -2.1326732e-05
-6.780112e-06 -0.00010580149 4.6050562e-07 7.787888e-05 6.421236e-05 2.1344293e-05 2.1181748e-05 -0.0001113242
-6.918966e-06 -3.4541443e-07 -6.751659e-05 -2.407668e-05 -2.171653e-06 0.00020132218 1.3413579e-05 -4.51303e-06
-8.8813085e-06 1.9517696e-05 7.1687928e-06 2.5244772e-05 0.0001285345 9.7158336e-05 1.13971e-05 4.535351e-05
8.167942e-06 7.6593074e-05 9.479936e-06 -8.636084e-06 7.298863e-05 8.576895e-05 -5.9433598e-05 -5.7525733e-05
3.9056544e-05 7.076433e-05 8.408918e-06 -9.560158e-06 -4.410528e-06 -1.650807e-05 1.21918565e-05 -1.2773707e-05
-6.522308e-05 -2.2922331e-05 3.0163465e-06 3.2844666e-05 -8.398519e-05 -4.1811e-05 1.4906423e-05 -2.2673305e-05

bn2.weight f4 [64]
00000000: 8375 4e3f 514d 533f f953 783f a272 1b3f
00000010: ceb9 263f 4c87 2e3f 54a7 3c3f 76e7 2f3f
00000020: e18b 643f dbc2 253f 2581 463f aed8 5b3f
00000030: 5a3d 1c3f 45b8 3f3f 96bb 2d3f 765b 313f
00000040: 8644 193f 8130 623f b16d f63e d9a2 203f
00000050: f5aa 3d3f ed75 3e3f 65b8 2e3f 3110 553f
00000060: 2e52 253f 2d3a 283f 5fcf 373f 7ba5 3b3f
00000070: c162 363f 10d3 413f d68f 863f 14d2 2e3f
00000080: 0da6 2d3f 97a5 2b3f b5d2 343f 8e13 353f
00000090: f342 6e3f a1e4 313f a9b1 2e3f 635c 653f
000000a0: 96dd 1c3f 58f1 753f 07b5 213f e8e9 233f
000000b0: 6b70 733f ab85 343f 3a08 2c3f ee82 2f3f
000000c0: 8a4e 733f 931b 633f 615e 3a3f 9a94 113f
000000d0: 6232 253f 4c46 763f 0875 1a3f a11b 353f
000000e0: 0d2c 633f 3a85 633f 5e19 183f 278a 203f
000000f0: 145e 5b3f bc11 283f 3435 393f 9ba5 323f
0.8064806 0.8253985 0.9700313 0.6072179 0.65127265 0.68175197 0.7369282 0.68712556
0.8927594 0.6475045 0.7754081 0.858775 0.61031115 0.7489055 0.6786436 0.69280183
0.59870183 0.8835526 0.48130563 0.62748486 0.74088985 0.7439869 0.68250114 0.8322783
0.6457852 0.6571377 0.718008 0.7329938 0.71244437 0.7571268 1.0512645 0.68289304
0.678315 0.67049545 0.70634013 0.70732963 0.93070906 0.69489485 0.6823984 0.89594096
0.61275613 0.96071386 0.6316685 0.6402879 0.9509341 0.7051646 0.6720005 0.6855916
0.95041716 0.8871395 0.7280026 0.56867373 0.64530003 0.96201015 0.60334826 0.70745283
0.8873909 0.8887516 0.5941371 0.62710804 0.85690427 0.6565206 0.72346807 0.69783944

bn2.bias f4 [64]
00000000: 5a14 23bf 7f90 7cbd d4c7 abbe 11a3 babe
00000010: 555a a3be 354f 8fbe c225 f8be 528c eebd
00000020: 823a d6be 97a0 d93d e531 fc3b 75df bfbe
00000030: 6357 a1be 07fd e4bd b19a c2be 72c6 3abe
00000040: 7457 66be 3c52 3c3e 3af4 8ebe 4514 07bd
00000050: 81a6 abbd c99b b5be 28c8 bdbe 22f7 483e
00000060: b46b 07bf 31a1 61be cd27 b7be 2725 0dbe
00000070: 82a4 c9be 2194 83bd 972b b1be b5db 48be
00000080: 56fb 75be ac43 64be ce06 50be b83c 8fbe
00000090: 2dd9 a5be daee 06bf ffe0 b9bd 9ccd a4be
000000a0: 3070 b6be 1447 edbe 211d acbe d753 02be
000000b0: c467 47be 5935 c4be 7386 a7be 2313 b2be
000000c0: 36d2 16be e3a9 973d 9837 3ebe 3248 04bf
000000d0: 700e c9be 733a a2be 8459 d2bc ea34 7fbe
000000e0: 63f6 8fbe 04b7 99be 23a5 7bbe 5319 d5be
000000f0: c4c6 21be 6ab2 e7be d7f0 78be 2b06 70bd
-0.6370293 -0.06166124 -0.33550894 -0.36452535 -0.31904855 -0.27990118 -0.48466307 -0.11647858
-0.41841513 0.10626333 0.0076963776 -0.37475172 -0.31511983 -0.11181074 -0.38008645 -0.18239763
-0.22494298 0.18390745 -0.27920705 -0.032978315 -0.083813675 -0.35470417 -0.3706677 0.19625524
-0.52898717 -0.22034146 -0.35772553 -0.13783704 -0.39383322 -0.06424738 -0.3460357 -0.19615062
-0.24021658 -0.2229144 -0.20315096 -0.27976012 -0.32392254 -0.5270821 -0.09076118 -0.32188118
-0.35632467 -0.4634329 -0.33615974 -0.12727295 -0.19473177 -0.3832195 -0.32719764 -0.34780225
-0.14728627 0.0740545 -0.18575895 -0.5167266 -0.39268827 -0.31685218 -0.02567745 -0.24922529
-0.28117666 -0.30022442 -0.24574713 -0.41620883 -0.1579848 -0.45253307 -0.24310623 -0.058599632

bn2.running_mean f4 [64]
00000000: 8a8b 94be 3e23 c23d 87bd 6dbf 9986 46bf
00000010: 66bc 44be 8fae 27be a327 64bf 2970 0fbd
00000020: 6d7e cabf 6e61 443f b8ff 523f a12e 5dbf
00000030: 15fb 53bf 37f8 a7bf 02c0 cebe e54a 3cbe
00000040: ae31 5ebf 65f6 04be d548 7dbf d46d e5bd
00000050: 80e5 fe3d 374d eebf 3202 f5be 6606 86be
00000060: 0f14 e2be 7282 0cbe c7fb 8cbe ed91 7cbb
00000070: 2bf1 cdbf 45e3 da3d 99a2 6ebf 8536 a3bf
00000080: 92a6 3fbf 0027 c0be 0485 eabe b34c f8bf
00000090: b79a 1dbf 15fb 11bf 2ec8 a8bf 04c4 28bf
000000a0: 2e22 04bf 9956 abbf eaf6 88bf 78ae a2be
000000b0: 9c89 08bf c472 cabf 2428 5dbf d7af 33bf
000000c0: 8548 ccbe b039 11bf 1811 b6bf e34d 37bf
000000d0: a6d2 30bf 35bc 80bf 5eb3 24bf e220 8ebf
000000e0: 04d8 61be d2ad 1dbf 2924 23bf d562 69bf
000000f0: e236 1ebf 86f0 56bf 3e3b e2bf a329 673d
-0.2901271 0.09479378 -0.9286732 -0.7754913 -0.19212493 -0.16375183 -0.8912298 -0.035019074
-1.5819832 0.76711166 0.82421446 -0.86399275 -0.82804996 -1.3122624 -0.40380865 -0.18387945
-0.86794555 -0.12984617 -0.9893926 -0.11202589 0.124461174 -1.8617314 -0.47853237 -0.26176757
-0.44155928 -0.13721636 -0.2753584 -0.0038539127 -1.6089224 0.106878795 -0.93216854 -1.2751013
-0.7486354 -0.37529755 -0.45804608 -1.9398407 -0.615642 -0.57023746 -1.318609 -0.65924096
-0.51614654 -1.3385803 -1.0700352 -0.31773734 -0.53334975 -1.5816274 -0.86389375 -0.70190185
-0.39899078 -0.5672865 -1.4223967 -0.7160322 -0.69071424 -1.0057436 -0.6433619 -1.1103785
-0.2205506 -0.61593354 -0.6372705 -0.9116643 -0.61802495 -0.8396076 -1.7674329 0.056436192

bn2.running_var f4 [64]
00000000: 8bf5 303f 06d3 b93f 7b4e b240 f95d b53f
00000010: 779c 8240 a8cf be3f 3669 f23f e1e5 9a3f
00000020: 3bdc 5340 99fc 3540 b46f 3440 4e9d 4f3f
00000030: 0533 1740 c96f 1a41 aad7 933f 4f20 813f
00000040: fd94 2440 d3ac 8540 0cad 2640 3f86 3e40
00000050: 1250 fa3f 8440 1541 2fe8 ec3e 728f 7f40
00000060: 7ec8 f23e 9726 a63f 66bc 623e eba6 bd3f
00000070: c5a5 c240 3c43 1a40 6c67 c040 2162 8840
00000080: 9458 6140 5286 6740 0110 4340 fc0b dd40
00000090: 7770 b73f f93d f53e a753 ea40 74a9 2f40
000000a0: 75c5 dc3f 33e9 a140 4cce ec3f 1fff 0d40
000000b0: 9c2e 5040 13b8 c440 8c26 2f40 1045 1e40
000000c0: 01e9 3740 40b8 0340 5df9 db40 6868 6b3f
000000d0: e183 8c3f 57a7 3640 2207 4f40 0289 7540
000000e0: a4e7 e63f e9f5 0f40 04fa 1640 2807 eb3f
000000f0: d530 cf3f 24fc fd3f 1fbb 0841 6681 8f3f
0.6912467 1.4517524 5.57208 1.4169303 4.0815997 1.4907122 1.8938358 1.2101403
3.3103168 2.8435423 2.8193178 0.810994 2.362489 9.652291 1.155019 1.0087985
2.5715935 4.1773467 2.604312 2.9769437 1.9555686 9.328251 0.46270892 3.9931302
0.47418588 1.2980527 0.22142181 1.4816564 6.0827355 2.4103537 6.0126247 4.2619786
3.5210314 3.6175733 3.0478518 6.907713 1.4331197 0.47898844 7.3227115 2.7447176
1.7247759 5.0597167 1.8500457 2.2186964 3.2528448 6.14747 2.7367277 2.4729652
2.8735964 2.0581207 6.87419 0.91956186 1.0977746 2.8539636 3.2348104 3.8364873
1.8039441 2.2493842 2.3590097 1.8361559 1.6186777 1.9842572 8.545684 1.1211364

fc2.weight f4 [64, 64]
00000000: 8327 d23d f837 9fbe 2065 d4bd 510c 1fbe
00000010: 4187 ecbc 2bc5 06be d410 a33c a252 8fbe
00000020: b4bc 893e 966b 42be 4cd9 66be 5751 5a3e
00000030: b435 c03d 841f cfbd ee0a ecbd 0fc6 8fbd
00000040: 1b32 f73d 09ba e1bd c145 7abd c449 8bbd
00000050: f324 16be 950f 5cbe 5a71 6fbd aaa4 8d3c
00000060: a5c8 6bbe d437 32be 5ad0 7cbd a82e 79be
00000070: 2266 04be f9f6 17be 449e 47bd 36ad 1cbd
00000080: 565c d3bc 56d3 0abe 8a40 30be 65a3 64bd
00000090: c50b 19bd 5da4 1dbd 5234 41be 431d 36be
000000a0: 70cb 26be fd83 9a3d f979 2cbd 9c08 98bd
000000b0: c591 ee3d e82e 15be 7e88 65be c522 63bc
000000c0: 0fd3 a5bd 938e efbc 5e84 adbb 6568 e6bc
000000d0: e31e eabd 061e 1a3e ef6c 24bd 64dc 8dbd
000000e0: 554e 0f3e 8c42 bc3d 6a30 61be 7ecb 5c3d
000000f0: a95f 37be 20ad ba3c a662 cebd 672b 2abe
00000100: faf5 a4be f55f 04be 28cb 85bc 38f6 dabd
00000110: ac54 d6be 909c 07bd 827b 13be db36 11be
00000120: 66ec a0be c099 043e beea b8be 4b2d afbe
00000130: 0f29 52bd 6758 1c3d fa31 13be f1a4 1fbe
00000140: 83af 78be 604b bdbd 8617 2c3d e14c 81be
00000150: 4cdc a33d 8a41 32bd 7b76 e03d 42cd b2be
00000160: 1121 8bbd b2cf 0abc 0d80 6dbe 37b1 23be
00000170: f350 e7bd f50e aa3d 9014 b23c cbc2 a0be
00000180: 6320 923d 1366 90be 47cf 643c ea65 5bbe
00000190: a8ad 7ebe 1b69 5b3d a960 653d e0ae 8ebd
000001a0: c435 f6bb 3fe4 ae3d 32dd e0be f666 82bd
000001b0: ced1 05be c6d4 f3bd 1043 36be db4a 493e
000001c0: 2b5d 0abc ce08 45bd 4606 a8be 3c39 3abe
000001d0: 029b e8bc 5c3a 7a3d d9c9 c8be 0178 6ebe
000001e0: 0bc2 bcbd 963c 95bc 5811 33be 82bc 2a3d
000001f0: e847 cc3d 9722 6fbe 7fc5 9ebe 8ff0 23be
00000200: 150e ccbd 735a adbe ea4c 1dbd 39d4 8abd
00000210: 58d1 073e 4bd0 2abe 1b7f 2a3d b786 6ebe
00000220: 2398 26be bb31 87bd a781 11be ce88 55bd
00000230: cdb2 ccbd 50ef cbbd 6c66 13be 5d5a f43c
00000240: eda5 03be 995b 17be 5748 12bd 76a0 84be
00000250: 54a9 83be 0bc4 01be 7f57 313c 66c7 4ebe
00000260: ce32 bcbd 6726 74bd 2297 3ebe 518f 09be
00000270: 556d cebc 5279 3abe fe87 e6bd 4e7f 48be
00000280: ce26 acbd f6cb 0abe a18e c8bd 4201 8abd
00000290: 67cb 883d 58ad 9dbc e63e 27be b5eb 93bd
000002a0: 1b3e 5ebe 8575 5abe 46bb 43be 1599 70be
000002b0: 302c bebd fac7 debc 53a9 70bd 2a2d 34be
000002c0: 7113 fabd e10e 72bd 6816 1dbe ff82 f93c
000002d0: 6fee 28be 1688 54be 6c66 69be d363 36be
000002e0: d833 83bd 8bca 79be 610d d2bd 6df8 40be
000002f0: afe9 98bd c81b 3ebe 5365 85bd 6626 48be
00000300: 7eb5 21be 99a9 a3be 45cb 3f3d 3be7 25be
00000310: c90d ebbd c60c 8ebd fe7f abbd 1891 8cbe
00000320: f0fe bfbd 1c2c d1bc 61f1 3fbe 8e8a 91bd
00000330: 83a7 1cbe a846 dfbb 5150 d9bd 1c45 5ebe
00000340: 9fe6 3dbe 5859 8cbe 530a a4bc 69ee 93be
00000350: 679b 88be ccc5 dcbc aa0b 0ebe 954b 43be
00000360: bcba ef3c e886 67be 1841 95bd 37a0 bcbe
00000370: 3c02 eabd c214 00be 7e5b b13d acdb 7abe
00000380: 6881 fbbc fa40 cabe ccd7 07be dfa3 73bd
00000390: d0b2 71be a5bb 03be 32a2 99bd 1d9d 1bbe
000003a0: 977c e4bc 840f 97be 2ff4 62be e466 3dbe
000003b0: 0b6b a7bc 1020 dabd e4f5 13be 4956 7bbe
000003c0: 0525 dfbb 5c1f 01be 23c3 d4bc 16f4 7bbd
000003d0: 3cd9 fbbd cf9b 04be 1590 51be d308 5dbe
000003e0: 0250 93bd eeda ebbd 5ef8 babe 7493 d2bd
000003f0: ddd2 bfbd 2e8f e7bd 3a45 5bbd 6df1 45be
0.102614425 -0.31097388 -0.103708506 -0.15532042 -0.028873088 -0.13161151 0.019905485 -0.2799273
0.26901782 -0.18986353 -0.2254383 0.21320091 0.09385243 -0.10113433 -0.11525522 -0.070201986
0.12070104 -0.110218115 -0.06110168 -0.06801179 -0.14662533 -0.21490319 -0.05845771 0.017290432
-0.23025759 -0.17404109 -0.061722137 -0.24334204 -0.12929586 -0.14840306 -0.04873492 -0.038251124
-0.025800865 -0.13557181 -0.1721212 -0.055819888 -0.03736474 -0.038486827 -0.18867615 -0.177846
-0.16288543 0.07544706 -0.04210851 -0.07423517 0.11648897 -0.14568675 -0.22415349 -0.01386327
-0.08096897 -0.02924279 -0.0052953204 -0.028125951 -0.114316724 0.15050516 -0.04014295 -0.06926802
0.13994725 0.0919238 -0.21991125 0.053905003 -0.17907585 0.02278763 -0.100774094 -0.16618119
-0.32218915 -0.1292723 -0.016332224 -0.10691494 -0.41861475 -0.033108294 -0.14402583 -0.14181082
-0.31430358 0.12949276 -0.36116594 -0.34214243 -0.051308688 0.038170245 -0.14374533 -0.15590264
-0.24285702 -0.09242892 0.04201462 -0.25253966 0.08001003 -0.043519534 0.10960098 -0.34922224
-0.06793416 -0.00847237 -0.23193379 -0.15985571 -0.11294737 0.08303634 0.02173832 -0.31398615
0.071350835 -0.28202876 0.013965434 -0.21425596 -0.24870932 0.053567033 0.056000385 -0.069669485
-0.0075137336 0.08539628 -0.4391876 -0.063672945 -0.13068315 -0.11905818 -0.1779902 0.19657461
-0.008445065 -0.0481041 -0.32817286 -0.18185896 -0.028394226 0.061090812 -0.39216498 -0.23287965
-0.09216698 -0.018217366 -0.17487085 0.04168368 0.099746525 -0.23353039 -0.31010053 -0.16009735
-0.099636234 -0.3385807 -0.03840343 -0.067787595 0.13263452 -0.1668102 0.041625123 -0.23293577
-0.16268973 -0.06601282 -0.14209615 -0.05213242 -0.09995041 -0.099577546 -0.1439454 0.029828245
-0.12856264 -0.14781035 -0.03571352 -0.25903672 -0.25715125 -0.1267244 0.010824083 -0.20193252
-0.09189378 -0.059606936 -0.1861234 -0.13433577 -0.025198618 -0.18210343 -0.11256407 -0.19579813
-0.08405839 -0.13554367 -0.09792829 -0.06738521 0.06679421 -0.019247696 -0.16332588 -0.07222692
-0.21703379 -0.21333893 -0.19114408 -0.23495896 -0.09285772 -0.027194966 -0.05875523 -0.17595354
-0.122107394 -0.05909622 -0.15340579 0.030457972 -0.16497205 -0.20755038 -0.22792977 -0.17811517
-0.06406373 -0.2439367 -0.10256458 -0.18844767 -0.074664466 -0.18565285 -0.06513467 -0.19545898
-0.1579189 -0.3196533 0.046824712 -0.16201489 -0.11477239 -0.0693603 -0.08374022 -0.27454448
-0.09374797 -0.025533728 -0.18744422 -0.07106505 -0.15298276 -0.006813843 -0.10611022 -0.2170605
-0.18545006 -0.27411914 -0.020024454 -0.2889283 -0.26681063 -0.026949786 -0.13871637 -0.19071801
0.029263847 -0.22610056 -0.07287806 -0.36840984 -0.114262074 -0.12507918 0.08660029 -0.2449786
-0.030701354 -0.39502698 -0.13265914 -0.05948245 -0.23603368 -0.1286455 -0.075016394 -0.15196653
-0.02789144 -0.29504025 -0.22163461 -0.18496281 -0.020436784 -0.10650647 -0.14449269 -0.24544634
-0.006809833 -0.12609619 -0.025971955 -0.061512075 -0.122972935 -0.12950061 -0.20465119 -0.21585397
-0.07192995 -0.11516367 -0.36517614 -0.10282031 -0.09366391 -0.11306606 -0.053532816 -0.19330378

fc2.bias f4 [64]
00000000: 69a1 d4bd c47f 033e 7dfd 5abd a6af 0e3e
00000010: d90e 7d3c 74b3 10bc 2c23 4fbc 396c 873d
00000020: 14c2 ab3c 9ce1 0cbd c5a7 c43d aca5 be3d
00000030: 7333 19be e3a9 123e dce5 f13d 8103 0c3f
00000040: bc09 a73d 93a4 093e abde 073e 6ab4 223e
00000050: 3dbd 303e a129 33bd 393f cdbd 715f 12be
00000060: 831d 0f3d ffdd a93c 6b3e 06bd c51a b03c
00000070: bf63 573d ef16 bd3d e77d 873c 7817 80bd
00000080: 5a5b fbbc 636d 9b3e 097f fc3c 5fe9 df3d
00000090: 04f6 03be ed24 09be 632b 7c3d d1f8 a83d
000000a0: 290a 3b3d da31 cbba 5782 9d3d f5c7 92bd
000000b0: 1018 7837 9107 00be 83ce b83d a8a9 f13d
000000c0: 83dd ba3d 5cf7 633f 9100 113f 36a0 fc3d
000000d0: a897 133e e146 c63c 900c 93bd 0d6b 5c3d
000000e0: 9ec0 e73e 4276 b8bb dc0f 80bd 4f4d 9c3d
000000f0: abf2 b53c 90d6 973d 1f28 5ebc a8b0 ac3d
-0.10382349 0.12841707 -0.0534644 0.13934192 0.0154454345 -0.008831847 -0.012642663 0.06612439
0.020966567 -0.034394845 0.09602312 0.09308943 -0.14961033 0.14322619 0.1181142 0.54692847
0.081561536 0.13441686 0.13268535 0.15889135 0.17259689 -0.043740872 -0.100218244 -0.1429422
0.034940254 0.020735739 -0.03277437 0.02149714 0.05258536 0.0923289 0.016539527 -0.06254476
-0.030683208 0.30356893 0.030822294 0.10933184 -0.12886816 -0.13392992 0.061564814 0.08250583
0.045663986 -0.0015502528 0.07690876 -0.07167045 1.4787554e-05 -0.12502886 0.09023764 0.117999375
0.09124281 0.89049315 0.5664149 0.12335245 0.14413321 0.02420372 -0.071801305 0.05381303
0.45264143 -0.005629332 -0.06253025 0.07631933 0.02221044 0.074139714 -0.01355937 0.08432132

out.weight f4 [1, 64]
00000000: 776c 95bd 02c8 2fbc e190 a13d 2d61 0cbd
00000010: 44b4 763d a840 913b 9587 fc3c 1c36 053e
00000020: cdd4 933d 05db e03c 991d 873d 072f 43bd
00000030: 741c 533d 8cbd b63d 71f0 c43d 0584 f1be
00000040: f494 3abe f5b1 83bd b3dd 0abe 98de 4d3e
00000050: 190e 153e bb28 65bd 66b6 863d dc5b 82bd
00000060: 0d74 e8bd efa0 693d 651e 753d 631f 5a3d
00000070: d311 80be d8f5 b2bc 0fbd e1bd a95f 8bbc
00000080: 322a 2abc 7655 923d 4220 6ebe 32fd bb3d
00000090: 8a94 ecbd 8701 7ebd b54c 55bd a259 c2bc
000000a0: bae6 593e 8b37 d73d ebe0 8cbc 1e71 7abd
000000b0: f0d9 463d 4c56 1fbd 909d bd3b f2c7 97bc
000000c0: 2716 813d c76a c0be 899c 603e 9e3f 533e
000000d0: 2f52 2d3d 39c2 2f3c e157 c83d 9404 453e
000000e0: 5aa6 263e 657a ec3c a3f2 86bd 4f07 5d3d
000000f0: 74e2 01be 8189 793c 9881 d9bd 95db d13d
-0.07296079 -0.010728838 0.078889616 -0.03427236 0.06023051 0.0044327565 0.03082637 0.13008922
0.07218323 0.027448187 0.06597442 -0.04765227 0.051540807 0.08922872 0.09616173 -0.47171035
-0.18220884 -0.06430427 -0.13561134 0.20104444 0.14556159 -0.055947047 0.065777585 -0.06365177
-0.1135026 0.057038244 0.05984344 0.05325259 -0.250136 -0.021845743 -0.11022388 -0.017013388
-0.010386037 0.07145207 -0.23254493 0.091791525 -0.11551769 -0.062013175 -0.052075107 -0.02372438
0.21279421 0.10508641 -0.017197093 -0.061143033 0.048547685 -0.03890066 0.005786605 -0.018527959
0.06303053 -0.37581465 0.21934713 0.20629737 0.042314705 0.010727459 0.097823866 0.19240028
0.16274396 0.028866956 -0.06589248 0.05396205 -0.12684041 0.015230537 -0.10620421 0.1024696
