data/gcn_pt_files/gcn1_lsoa_model.pt (torch, 44077 bytes, 15 tensors)

conv1.bias f4 [64]
000000 26 e0 bc bd 39 ec 03 3e 7f a3 82 3d 18 05 35 bc
       -0.092224404 0.1288308 0.06378841 -0.011048578
000010 d1 48 ad bd 0f f7 1f be 4d b0 93 3d 52 6f 25 3d
       -0.08461154 -0.15621589 0.07211361 0.040389366
000020 b6 2f 48 bc 88 cf 9b 3c 81 1b 56 bd cb 7d 05 3e
       -0.012218406 0.019019857 -0.052272324 0.13036267
000030 0c 12 51 bc 7c cf 98 3c 9f 11 10 3d 5a ef 8b 3d
       -0.01276065 0.018653624 0.035173055 0.06832762
000040 33 b9 c4 be ac 6f a0 3c 88 13 eb 3d 94 11 88 3d
       -0.38422546 0.0195845 0.11478335 0.06643978
000050 a1 6f 70 3d b6 a6 ef 3b d7 a4 15 be 75 68 d5 bc
       0.058700208 0.0073135747 -0.14613663 -0.026050786
000060 1e 7e d8 bb ef e4 58 bc 94 7c ee bd 11 6b 99 3d
       -0.006606831 -0.013238176 -0.11644855 0.074911244
000070 bb 4d 1b bc a8 3a 0f bd e9 3a 02 3d 6a a2 bb bd
       -0.009478982 -0.03496805 0.031794462 -0.091618374
000080 82 2f f4 3c 91 50 a2 3d 46 2a 4d 3e b3 91 a2 bb
       0.02980781 0.07925523 0.20035657 -0.0049612164
000090 f6 62 01 3d 36 72 a0 bc 4c ed 93 bd 39 92 ee 3b
       0.031588517 -0.01958571 -0.07222995 0.0072806147
0000a0 16 ea c6 bd 8a f4 8d 3c c0 e4 c4 3b 06 1f 20 be
       -0.09712617 0.01732852 0.0060087144 -0.15636835
0000b0 ce e2 45 3d 3d 65 73 3d 1f ef 9a 3d 59 cb 1c 3e
       0.048312 0.05942272 0.0756514 0.15311946
0000c0 a1 b0 b1 bd 92 b5 25 bd 33 2d 3a 3c 15 70 c6 bd
       -0.086762674 -0.040456362 0.011363315 -0.09689347
0000d0 ef 5d ec 3d fc 73 e9 bb aa b6 58 bc f0 3f d8 bd
       0.11541354 -0.007124422 -0.013227144 -0.1055907
0000e0 a9 c6 8d bd 3e 72 82 bd d0 9e 1d 3e 03 21 81 3d
       -0.06922657 -0.06369446 0.15392613 0.063051246
0000f0 8e e3 ef bd a5 6f 9f bc 1b 76 71 ba 9f 9d 05 3d
       -0.117133245 -0.019462416 -0.00092110195 0.032621022

conv1.lin.weight f4 [64, 7]
000000 53 52 96 bf 7f 05 02 bf fc 5a 70 bf a2 94 5c bf
       -1.1743873 -0.50789636 -0.9388883 -0.86164296
000010 7d 71 63 bf 34 c8 29 bf 2e ec 02 bf 08 49 ef bf
       -0.88845044 -0.6632111 -0.5114163 -1.8694162
000020 44 b3 f8 be b5 4d 03 bf ff f9 0d bf f4 35 05 bf
       -0.4857427 -0.51290447 -0.5545959 -0.5203545
000030 ac ef 81 be e4 26 e4 be eb 3d aa bf 40 0c 77 bf
       -0.25378168 -0.4456092 -1.3300146 -0.96503067
000040 f3 c9 a0 bf d2 50 e4 be 44 e8 fd bc 01 84 ee be
       -1.256163 -0.4459291 -0.030994542 -0.46585086
000050 b3 0b df be a8 98 e2 3f 84 ad 88 3f 7e 43 5c 3f
       -0.43563613 1.7702837 1.0677953 0.86040485
000060 e0 f8 0d 3f ee 05 be 3d d7 3e ba be b0 6b a2 be
       0.5545788 0.09278475 -0.36376068 -0.31722784
000070 85 c5 bd be ce f0 00 3f 09 fe f9 3e ae 08 f6 bf
       -0.37064758 0.5036744 0.48826626 -1.9221399
000080 82 4a 9d 3d bb 1b d0 bf d8 12 62 3f 56 3d bb bf
       0.07680227 -1.6258463 0.88310003 -1.4628093
000090 5a db 91 bf 94 6b a4 bf b3 c7 a0 3c 2b 30 61 bd
       -1.1395066 -1.284533 0.019626474 -0.054977577
0000a0 2a 0a 2f be 85 0f 1f bf 55 16 88 3f a9 6f 7c 3f
       -0.17093721 -0.62133056 1.0631815 0.9860788
0000b0 a9 15 87 3f 8c e1 0b 3b 36 ba 1b 3e df 47 c7 3e
       1.0553485 0.0021344153 0.15207753 0.3892202
0000c0 67 0e 1b 3f ad 54 bf bf 86 99 72 be 5a a8 11 bf
       0.6056885 -1.4947716 -0.23691377 -0.5689751
0000d0 a6 12 7b bf 8c a4 3b bf d2 c0 26 bf 12 df fe be
       -0.9807533 -0.73297954 -0.6513797 -0.49779564
0000e0 b3 57 8e bf 2b ce de be 01 1d 70 3e 4e 1e 72 3f
       -1.1120514 -0.4351667 0.23448564 0.9457749
0000f0 58 79 35 bf 90 cb 41 bf 19 cb 48 c0 7a 20 58 3f
       -0.7088828 -0.75701237 -3.137396 0.84424555
000100 c6 b7 87 3f 13 95 10 3f bf e3 55 3f 1b 1d 3c bf
       1.0602958 0.5647747 0.8355064 -0.7348191
000110 70 e9 d1 be 07 11 98 bf 96 18 d9 bf 58 a4 29 3e
       -0.4099841 -1.1880196 -1.6960628 0.16566598
000120 ec 34 ab 3e f5 32 8a bf 3c bf b8 be cb 7c 38 bf
       0.33438814 -1.0796801 -0.360834 -0.7206542
000130 79 02 8f 3e 59 96 43 bf e3 51 a4 be ec 56 34 3b
       0.27931574 -0.7640129 -0.32093725 0.002751763
000140 05 a6 a6 3f 3b e4 98 bf 0d 30 ad bf 5a 86 f0 be
       1.3019415 -1.194465 -1.3530289 -0.46977502
000150 98 d4 de bf e2 5c 34 bf 78 0e 59 bf f1 f3 17 bf
       -1.7408628 -0.7045423 -0.847877 -0.593566
000160 c8 bd 27 bd 1d ba dd be b3 2a be be f3 fd e9 bf
       -0.040952474 -0.43306056 -0.37141952 -1.8280624
000170 54 70 2a 3e ef 0b bf 3e 1f 5e a4 bf 3b bf e4 be
       0.16644412 0.37313792 -1.2841223 -0.44677147
000180 72 fa 56 bf f7 1a fc 3d 15 88 80 3f 38 30 07 3f
       -0.839759 0.12309831 1.0041529 0.5280795
000190 2e 17 41 3f ff 7f 3f 3f ef 94 c2 bd c1 51 b9 3e
       0.75425994 0.7480468 -0.09501063 0.36195186
0001a0 3a c3 33 c0 f1 ae 81 bf 95 4f 2c bf b6 ea 46 bf
       -2.8087907 -1.0131513 -0.6730893 -0.7770189
0001b0 6a a0 ab be 42 59 7e bf b1 f2 09 be 90 9b 66 bf
       -0.33520824 -0.99354947 -0.13471486 -0.9008112
0001c0 67 10 4f 3d ea 50 6e 3c 43 16 61 3d 8f c2 ad bd
       0.050552752 0.014545659 0.05495287 -0.08484375
0001d0 2f 1f a3 be db 6c 84 40 f6 d8 9c bf 0a eb 66 3f
       -0.3185973 4.138288 -1.2253711 0.9020239
0001e0 88 ff 91 3e 50 56 54 3f aa 8f 83 3f 51 c5 c2 be
       0.28515267 0.829442 1.0278218 -0.38041165
0001f0 96 b7 29 bd e5 73 b0 bf 7b f7 f5 bf 2b d0 dd 3d
       -0.041434847 -1.3785368 -1.921615 0.108307205
000200 5e 3d b9 3e d7 ee 9d bf 13 df b4 be 32 35 5e bf
       0.36179632 -1.2338513 -0.35326442 -0.8679992
000210 1a 17 4c 3e 85 23 eb bf 36 83 93 3e 5a 76 bb 3e
       0.19930688 -1.8370215 0.28811044 0.36613733
000220 ad f7 ad bf 37 f4 c0 be 90 b2 ab bf 95 84 e0 3e
       -1.359121 -0.3768632 -1.3413868 0.43851152
000230 dd 5e ac 3f a6 61 43 3f bd b5 5b 3f 1a 5a 55 3f
       1.346645 0.76320875 0.85824186 0.8334061
000240 17 d6 c6 bc d0 22 ba bd 97 c7 0e c0 71 ab 05 3f
       -0.024272008 -0.09088671 -2.230932 0.52214724
000250 d5 66 73 3e 09 da 2f 3f b5 33 91 3f 60 88 2a bf
       0.23769696 0.6869207 1.1343905 -0.6661434
000260 94 ad 5e 3f 19 40 c3 bf 11 93 33 3f 74 c0 4b 3f
       0.8698361 -1.5253936 0.7014628 0.79590535
000270 7a a4 9c 3f 10 5a 1c 3f a0 b6 83 3e 2f 0f 8f be
       1.2237694 0.61074924 0.2572527 -0.27941272
000280 ec 70 86 bd bd eb eb bf f6 f7 8d bf ad d9 5d bf
       -0.06564507 -1.8431317 -1.1091297 -0.8666027
000290 6e a1 a9 be c4 5d 39 be 51 86 d6 be 8f 13 62 be
       -0.33130974 -0.18102175 -0.4189935 -0.22077774
0002a0 c9 5e 2a 3d 13 d9 c2 3e 3f 9b 9e 3e c3 a8 84 bf
       0.0415943 0.3805624 0.30977818 -1.0364002
0002b0 b1 8c ef 3d 3b 4b 37 bf bc 83 50 40 b5 85 05 c0
       0.11696757 -0.7159917 3.2580404 -2.0862858
0002c0 93 86 7a bf 58 fc e5 be 2b e6 cc be 31 94 5e be
       -0.97861594 -0.44919086 -0.40019354 -0.21736218
0002d0 cf 02 1f bd 80 cd 70 be b7 52 ab 3f 18 4a 3a 3f
       -0.038821038 -0.23515892 1.3384618 0.7276931
0002e0 b8 11 22 3f 93 f3 6b 3f f9 39 78 bc 1a 46 28 bf
       0.63308287 0.9216854 -0.0151505405 -0.65731966
0002f0 fa 46 1d c0 aa de e5 3f 2f a6 90 3f 97 a5 34 3f
       -2.457457 1.7958577 1.1300715 0.7056517
000300 d7 ea f3 3e b0 d3 02 3e c8 9e 09 bf bd 1e 36 3f
       0.47640106 0.12776065 -0.53757906 0.7114065
000310 73 59 07 c0 38 4b 95 bf 55 70 b5 3e 0a d7 51 bd
       -2.1148345 -1.166358 0.35437265 -0.051230468
000320 20 82 71 be c7 34 ee 3e f2 4c 65 3c 91 11 68 bf
       -0.23584795 0.4652464 0.013995396 -0.90651804
000330 47 e2 bb be e4 ab a5 3f 70 b1 d0 3e 46 15 8d 3f
       -0.36696073 1.2943082 0.40760374 1.1022117
000340 be 1e 14 c0 c6 30 ba bf 45 23 3e 3f db 8f c2 3e
       -2.3143764 -1.4546134 0.7427257 0.38000378
000350 17 f9 e1 3e 12 d7 49 3f 47 36 94 bf 30 7a ec be
       0.44135353 0.78843796 -1.1579064 -0.46186972
000360 ff 96 31 be 0e 03 de 3f 77 15 2d 3f 63 f7 3e 3f
       -0.17342757 1.7344682 0.6761088 0.7459623
000370 16 60 ef 3e 48 a1 a7 bb e5 e6 4e 3e 1e 0a ee 3f
       0.46752995 -0.005115662 0.20205267 1.8596838
000380 7f cb e7 bf 96 f0 af bf 67 bc 5d bf 8a c8 df be
       -1.8108977 -1.3745296 -0.86615604 -0.43707687
000390 ea 7f 02 be 91 92 0e be 6f 64 be be b0 86 31 bf
       -0.12744108 -0.13923098 -0.37186 -0.6934614
0003a0 bd 18 59 be 52 99 5b be df 8a b5 bf fa 04 19 bf
       -0.21200843 -0.21445206 -1.4183005 -0.5977322
0003b0 8a cb 8d 3e 4c 95 f6 be f3 e7 da bf d4 7e 15 3e
       0.2769435 -0.4816078 -1.7102035 0.14599162
0003c0 bc 65 aa 3e f2 97 a3 bf 1a 27 f6 be f9 58 65 bf
       0.33280742 -1.2780745 -0.48076707 -0.89588886
0003d0 eb 4b bf 3e d9 71 dc bf a7 7c b7 bf 97 9b 46 bf
       0.37362608 -1.7222244 -1.4334916 -0.7758116
0003e0 2f 64 29 be 8b 7b 1e be c2 3c a2 be b6 18 0e be
       -0.16542123 -0.15476815 -0.3168698 -0.13876614
0003f0 b9 8d 5e bf 65 dd df be 63 8b 13 bf 60 7b 1a bf
       -0.86935 -0.43723598 -0.5763456 -0.60344505

bn1.weight f4 [64]
000000 fa 27 93 3f 12 48 97 3e 67 2f a9 3e 04 cb 2a 3f
       1.1496575 0.29547173 0.33043978 0.6671603
000010 e0 72 b5 3f c2 8b b2 3e bd 67 d7 3e f8 de 96 3f
       1.4175682 0.34872252 0.42071334 1.1786795
000020 5c 6c 15 40 34 ff 46 3f ec e5 ae 3f 11 38 00 40
       2.3347387 0.7773316 1.3663917 2.003422
000030 48 e0 a5 3e d2 6e c4 3f eb fe 5a 3f 35 d6 75 3f
       0.32397676 1.534632 0.85545224 0.9602998
000040 d9 62 4c 3f c2 22 59 3f 45 bc bf 3f 9d d4 a8 3f
       0.7983833 0.8481866 1.497933 1.3189884
000050 77 6a 6c 3f dc d2 29 3f e9 59 1b 3f 15 db aa 3e
       0.9234995 0.6633737 0.60684067 0.3337027
000060 bf 1f a2 3f 28 2e af 3e 93 b7 6e 3f 93 37 3d 3f
       1.2665938 0.34214902 0.9324886 0.73912925
000070 0f 99 d5 3e ba 78 3a 3f e9 c6 62 3f ea 50 e2 3e
       0.41718337 0.72840464 0.8858476 0.44202358
000080 8b e2 91 3e 27 a1 00 3f 00 44 ab 3f 20 eb a5 3e
       0.2849315 0.502459 1.3380127 0.3240595
000090 40 00 36 3f b4 09 32 3f 12 10 f0 3f a4 88 a8 3f
       0.7109413 0.69546056 1.8754904 1.31667
0000a0 94 dd 91 3f f7 61 b7 3e 55 20 58 3f 06 15 c5 3f
       1.1395745 0.3581693 0.84424335 1.5397041
0000b0 8b f3 ae 3e 26 e4 60 3f 10 e6 3c 3f ef ba 91 3f
       0.34170184 0.87848127 0.7378855 1.1385173
0000c0 fb 56 dc 3f 66 a6 a5 3e 9f 30 4f 3f 6c da 81 3f
       1.7214044 0.32353514 0.80933565 1.0144782
0000d0 24 e6 a5 3f be 15 71 3f a4 0e 9d 3e 08 43 08 3f
       1.2960858 0.941738 0.30675232 0.5322728
0000e0 0c 63 ad 3e ff 02 8f 3f 93 d9 9a 3f 96 7f 22 3f
       0.3386463 1.1172789 1.2097648 0.6347593
0000f0 20 39 15 40 12 a8 4e 3f b7 ae 08 3f b2 63 68 3f
       2.3316116 0.80725205 0.53391594 0.9077712

bn1.bias f4 [64]
000000 b5 3b a9 bf a4 b1 cd 3d 8b 18 bc 3d 31 bb 7c be
       -1.3221346 0.10043648 0.09184369 -0.24680783
000010 53 d4 c1 bf 37 e3 92 3b d4 0d aa bf 61 b2 c0 bf
       -1.5142921 0.0044826525 -1.328547 -1.5054437
000020 b6 22 dd bf 1e 1e 25 c0 4b 26 f6 bf 86 58 d7 bf
       -1.7276218 -2.5799632 -1.9230436 -1.682389
000030 8a 32 b9 3d 2f 92 0b c0 61 51 9b bf 5a 48 58 bf
       0.09042843 -2.1807973 -1.213421 -0.844854
000040 ba a4 db bf e8 50 b1 bf 53 f3 07 c0 bd ee f2 bf
       -1.7159646 -1.3852816 -2.1242263 -1.8979107
000050 62 77 a3 bf fc 37 9b bf fa 40 cd bf a4 c2 28 3d
       -1.2770808 -1.212646 -1.6035454 0.04120125
000060 e4 ba d2 bf 5d f1 bd 3d 63 aa 9f bf ba 73 f0 be
       -1.6463284 0.09274552 -1.2473873 -0.46963292
000070 67 98 8d bd 55 d1 52 c0 ff 8c 4f c0 78 75 2d be
       -0.06913834 -3.2940266 -3.2429807 -0.16939342
000080 97 75 15 3e d6 e5 61 be 19 ea ea bf e8 f3 d9 3d
       0.14595638 -0.22060332 -1.8352691 0.106422246
000090 11 f4 f6 be a3 a3 00 bf c9 6e 90 bf c6 9e e8 bf
       -0.48233083 -0.5024969 -1.1283809 -1.8173454
0000a0 a5 d6 b9 bf 4d 9c 81 bd 94 b5 2b c0 d0 f7 0f c0
       -1.4518629 -0.0632864 -2.6829576 -2.2495003
0000b0 8e e0 72 3d fc 22 42 c0 8b 1b c1 bf 92 6d aa bf
       0.059296183 -3.0333853 -1.508653 -1.3314688
0000c0 0e 44 bb bf 8e 77 9a 3d f7 a4 30 c0 2d 3a f1 bf
       -1.4630144 0.075423345 -2.7600687 -1.8845879
0000d0 79 11 c9 bf 21 8c 22 c0 c1 d4 80 3b 07 4e 26 be
       -1.5708457 -2.5398028 0.0039316122 -0.16240703
0000e0 82 81 c1 3c ac cf f1 bf f0 c3 c5 bf a2 a6 8b be
       0.023621324 -1.8891501 -1.545042 -0.27275568
0000f0 75 6f f8 bf d1 3b db be 8b 9e 9a bf b6 3b 60 bf
       -1.9409014 -0.42819074 -1.2079633 -0.8759111

bn1.running_mean f4 [64]
000000 3a 57 21 3e de ec 79 3e 63 1f 81 3e 3e 44 55 3e
       0.1575593 0.24406764 0.2521926 0.20826814
000010 14 a4 8b 3e df 4b 04 bd d1 70 00 be 75 02 94 3e
       0.2727362 -0.03229892 -0.12543036 0.28908125
000020 37 3f 44 3f 34 47 c2 3e ca a1 cc 3d e6 fd 1c 3f
       0.7665896 0.3794495 0.09991796 0.6132492
000030 0c 21 20 3e 55 0f 69 3e ac e9 e2 3e 0d 76 62 3e
       0.15637606 0.22759755 0.44318902 0.22115345
000040 5a b2 c0 bf 44 f7 98 3e c6 fa a5 3e f1 5a c8 3e
       -1.5054429 0.2987615 0.32417887 0.39131883
000050 96 4f 06 3f 00 7f fa ba fc 5c 20 bb b4 a9 cd 3d
       0.5246519 -0.0019111335 -0.0024469486 0.10042134
000060 de a6 b4 be 30 77 d8 bb 98 37 11 3f 59 d9 2a 3e
       -0.3528356 -0.006606005 0.56725454 0.16684474
000070 82 ce 4a be 7d ff 7d 3f 7e c6 54 3e 2b 7e e2 be
       -0.19805339 0.9921797 0.20778844 -0.44236884
000080 4c d8 b6 3d fd 00 29 3d fe 5a c9 3e 48 95 99 3d
       0.08927974 0.041260708 0.39327234 0.07499176
000090 b8 f3 5b 3e 02 2d d3 3d 65 cd 2c 3f f5 1b 78 3e
       0.2147969 0.10311319 0.6750091 0.24229415
0000a0 b7 5b 28 3e 19 44 0a 3e 27 49 2a 3e 38 56 cc 3e
       0.16441236 0.1350254 0.16629468 0.3990953
0000b0 b8 9a 3f 3e b8 7f 8a 3d 4a c3 93 3d 5b 01 d5 3e
       0.18711364 0.06762642 0.07214983 0.41602597
0000c0 54 ca 19 3f c9 ae 17 be 38 f5 ca bd e5 dc f8 3f
       0.60074353 -0.14812769 -0.09910053 1.9442412
0000d0 60 21 22 3f d2 ae a4 be ed b9 81 3d 46 25 56 be
       0.63332176 -0.32164627 0.06334291 -0.20912656
0000e0 78 83 31 3e 44 8a fc 3f 39 15 a9 3e 6c 42 83 3e
       0.17335308 1.9729695 0.33024004 0.25636613
0000f0 62 2b 33 3f 85 a4 53 be 8f 97 95 3e c4 01 b3 bd
       0.6998807 -0.20668228 0.29217193 -0.08740571

bn1.running_var f4 [64]
000000 89 d6 73 40 0b 71 3b 40 8e 24 36 40 58 91 5e 40
       3.8099692 2.9287746 2.8459811 3.477621
000010 08 89 17 40 15 b8 1b 40 3c a1 c8 3f 59 82 63 40
       2.3677387 2.4331105 1.5674205 3.5548308
000020 da 47 3e 3f 66 49 09 40 5d f4 13 40 d5 80 9a 3f
       0.74328387 2.145105 2.3117898 1.2070566
000030 48 13 3b 40 f5 f4 43 40 6c d4 fc 3f 25 0a 22 40
       2.9230518 3.061826 1.9752326 2.5318692
000040 2c 47 2f 3e 87 ed 07 40 20 25 40 40 b2 f0 44 40
       0.17116994 2.1238725 3.002266 3.0771909
000050 a8 0e 43 40 08 85 de 3f 7f 56 18 40 d4 0f 4d 40
       3.0477695 1.7384348 2.3802793 3.204091
000060 d2 d0 2a 3f 8e ad 48 40 d8 43 3e 40 3a 7d 4d 40
       0.66724885 3.135593 2.9728909 3.2107682
000070 8f 5e 04 40 05 ba a8 3f 1c e6 ae 3f 1e a5 20 40
       2.0682714 1.3181769 1.3663974 2.510078
000080 f2 89 6d 40 b1 e8 48 40 44 06 3d 40 ba f5 3f 40
       3.7115445 3.1392024 2.9535074 2.999373
000090 62 31 0c 40 f1 aa 25 40 2c 24 52 3f b5 30 29 40
       2.190514 2.5885584 0.82086444 2.6435978
0000a0 68 7f 3e 40 e2 6b 20 40 18 52 c4 3f 7b 3b 27 3f
       2.9765263 2.5065846 1.5337553 0.65325135
0000b0 82 12 5e 40 4c 84 c2 3f 5d c3 dd 3f 4b ee 74 40
       3.4698796 1.5196624 1.7325245 3.8270442
0000c0 2b b6 93 3f d7 ad 5d 40 a7 c2 bc 3f 47 1e c4 3e
       1.1539968 3.4637353 1.4746903 0.3830435
0000d0 51 62 38 40 0e fe 04 40 4b a8 5c 40 3f 52 2b 40
       2.8810008 2.0780063 3.4477718 2.676895
0000e0 53 36 1c 40 5c e3 24 3f 86 89 5e 40 bf c4 40 40
       2.4408157 0.6440942 3.4771438 3.0120084
0000f0 a6 ff 1c 3f 8c 29 2f 40 76 14 b9 3f bd 60 22 3f
       0.6132759 2.7369108 1.4459369 0.6342886

fc1.weight f4 [64, 64]
000000 3b e8 6f 3f e8 ba 1f 3d 5a bb 00 3e 75 05 48 3d
       0.9371373 0.038996607 0.12571469 0.04883333
000010 dd 32 50 3e 39 71 95 3d d6 86 73 be 3e 08 ad 3f
       0.20331903 0.07296986 -0.23781905 1.351814
000020 57 68 8f 3c e7 4a bd bf bd 09 43 40 bf 8b e4 bc
       0.017505808 -1.4788483 3.0474694 -0.027898667
000030 8b 79 c7 3c 9e 44 64 40 4f c6 f8 bf 95 17 11 bf
       0.024349948 3.566688 -1.9435519 -0.5667661
000040 0c 2e 07 be bc 04 12 c0 2f 15 67 40 82 21 4f 40
       -0.13201159 -2.281539 3.610668 3.2364202
000050 38 ff 01 c0 31 f9 d1 bf 5c 29 73 bf 36 4e 07 3c
       -2.0312023 -1.6404172 -0.94984984 0.008258393
000060 05 b9 4e 3e 0c 2f 58 bd 41 04 01 c0 be e4 af 3d
       0.20187767 -0.052779242 -2.0158846 0.08588551
000070 e1 1e 41 3e 1f 10 a3 bd de 85 4e c0 10 c4 9f bd
       0.18859436 -0.07962059 -3.2269206 -0.07801068
000080 f6 de ea bc e1 cb 5f be 6c d6 30 40 4c ae 63 bd
       -0.02867077 -0.21855117 2.7630873 -0.055586144
000090 2b e4 44 bf e8 aa cb be 14 54 a6 bc 4e a1 30 40
       -0.76910657 -0.3977883 -0.020303763 2.7598453
0000a0 a3 e2 47 bf 7a 79 70 be 3c 50 47 c0 de 4b 52 c0
       -0.78080195 -0.2348384 -3.114272 -3.2858806
0000b0 17 92 4a 3b 93 a4 15 c0 4b 54 0e c0 0f bb 74 3f
       0.003090983 -2.3381698 -2.2238948 0.9559793
0000c0 04 b8 80 bc 20 5b 17 3d 57 d6 6d c0 f8 b8 7f 3e
       -0.015712745 0.036952138 -3.7162073 0.24972904
0000d0 c0 00 e6 bf e0 ab 87 c0 e4 e5 c0 ba c9 35 c2 bd
       -1.7968979 -4.239731 -0.001471695 -0.09482915
0000e0 07 b3 22 3d d9 40 1b c0 c4 24 a2 3f 33 30 cb be
       0.039721515 -2.425833 1.266747 -0.3968521
0000f0 27 ff 99 3b 4a 6e 6a 3d c2 9c c5 be 9d 19 df bc
       0.004699606 0.057234086 -0.3859616 -0.027233893
000100 b6 30 93 be c6 87 70 be 52 1c d3 3a bf a6 5d be
       -0.287481 -0.23489293 0.0016106463 -0.2164564
000110 95 e3 c9 be ea 7b 9a 3d 30 9e 86 be 35 fa e8 bd
       -0.39431444 0.07543166 -0.26292562 -0.11375848
000120 5c cd aa be 7a b3 90 be ba b4 96 be 10 45 e4 bd
       -0.33359802 -0.2826193 -0.29434758 -0.11145985
000130 8c 3c d9 3d 1f 87 4b be d1 17 b7 bd b5 ab 49 be
       0.106072515 -0.19875763 -0.089400895 -0.19694407
000140 d6 20 3c be 76 99 9e be 2e 21 a2 be f8 74 2f be
       -0.18371901 -0.30976456 -0.3166594 -0.17134464
000150 1c fb 9c be 2c 89 ad be 5d 68 6d be f9 7b b2 3c
       -0.3066033 -0.33893716 -0.23184343 0.02178763
000160 9a bf ca be 10 71 88 be 0f 18 21 be 14 b7 60 be
       -0.39599305 -0.2664876 -0.15731834 -0.21944839
000170 df 8b 21 be de 3b 91 3b 88 e0 2b be 54 f6 88 be
       -0.15776013 0.0044321856 -0.1678487 -0.26750433
000180 89 b9 94 be c9 7b 21 be 8b b3 5b be db 60 ca 3d
       -0.29047802 -0.15769877 -0.21455209 0.09881755
000190 eb 7c 11 be 8f b3 a9 bd 5d 8f ed bf d8 4f 38 be
       -0.14207809 -0.08286201 -1.8559376 -0.17999208
0001a0 44 e3 46 bf 7d 57 63 be ab 99 f6 be 8c cb d0 be
       -0.7769053 -0.22201343 -0.48164114 -0.40780294
0001b0 c9 5c 53 bd 29 96 56 be 54 98 01 be 89 a7 36 be
       -0.05160216 -0.20955719 -0.12655765 -0.17837347
0001c0 61 28 2a 3f bc f7 82 bd 21 10 48 be 6b ae 2e bf
       0.66467863 -0.06394908 -0.19537403 -0.6823489
0001d0 8a 89 ad be f6 11 8e be 0e 67 e6 bd 80 b0 f7 be
       -0.33893996 -0.27748078 -0.11250125 -0.48376846
0001e0 98 7b c0 3c 8b e2 17 bf 27 6e 9f be 1d d6 28 3e
       0.023496434 -0.5933005 -0.31138727 0.16487928
0001f0 8b 26 db bf 92 14 0d bf 1b ff 05 bf bf cd 74 3c
       -1.7121137 -0.5510951 -0.52342385 0.014941632
000200 0c 39 2b bf cc ea 70 be 59 2e df 3d 1f 9b 11 be
       -0.6688392 -0.23527068 0.10897512 -0.1421933
000210 6e 98 fa 3f 97 83 a9 3d aa 6d 9c be 98 e2 5c bf
       1.9577768 0.08277052 -0.30552417 -0.86283255
000220 f4 c1 86 bf d4 c1 64 3e 44 5f db 3d 4c ae 42 bf
       -1.052794 0.22339565 0.1071153 -0.76047206
000230 15 ba ad be 2e 1a 06 3f 04 3b 06 3f 9b cd 4d bf
       -0.33931032 0.523837 0.524338 -0.80391854
000240 bd 5d aa 3f fd f9 2a 3f 80 58 38 3e 70 bc 16 3c
       1.3309857 0.667877 0.1800251 0.0092002
000250 23 58 55 3f f2 43 34 3f 24 f3 58 bd 10 ae cf 3d
       0.8333761 0.70416176 -0.052966252 0.10140622
000260 c5 28 bc 3f c0 c5 35 3e 2b cd 3c bf 70 0b 01 3d
       1.4699942 0.17751217 -0.7375056 0.03150505
000270 f1 03 47 bd 36 99 87 bf 9f 11 66 3c 0c 20 5a be
       -0.048587743 -1.0593631 0.014042287 -0.21301287
000280 be de 9e 3c fa 5b 9e 3e 3e e2 19 3f dc 96 d1 3d
       0.019393321 0.30929548 0.60110843 0.10233852
000290 7d c2 a8 3d 44 07 a9 3e 76 4a 7d bf b2 1f c9 3d
       0.08240221 0.33013356 -0.98941743 0.098204985
0002a0 27 05 67 be 06 a4 11 be d7 d5 f2 3e 11 ce 8a 3f
       -0.22560559 -0.14222726 0.47428772 1.0844136
0002b0 f6 63 43 be 5e 50 3a be 41 12 5f bf 2c d0 9a bf
       -0.19081101 -0.1819472 -0.8713723 -1.2094779
0002c0 5a 5e 80 bf 65 ee ab be e1 44 37 be e7 8a 12 3e
       -1.0028794 -0.33580318 -0.17897369 0.143108
0002d0 d7 95 6e bf 15 65 9a 3e 5c 79 04 be 2d be 89 be
       -0.9319739 0.30155244 -0.1293692 -0.26902905
0002e0 bd 51 57 be 35 7a 65 3f d4 55 4e bf e6 c6 af be
       -0.21027274 0.896396 -0.80599713 -0.34331435
0002f0 32 39 9d bf 9d 1e 0d 3f 63 df 32 bf d3 51 c0 bf
       -1.228308 0.5512484 -0.6987211 -1.5024971
000300 3b b5 9e bf a4 ef 12 be 64 d5 db bd 95 04 a3 3e
       -1.2399057 -0.14349228 -0.107340604 0.31839433
000310 73 b3 17 c0 bc 2e ca bd 76 78 c1 3e 30 45 7b bf
       -2.3703277 -0.09872195 0.37787217 -0.98152447
000320 49 e3 0d c0 c6 53 3e be ec 5c 7c bf c3 04 f3 bf
       -2.2169974 -0.18586645 -0.9857929 -1.8985828
000330 7a e5 84 bd bf cf a7 bf 96 37 26 3f 33 36 fb be
       -0.06489082 -1.3110274 0.6492857 -0.49064788
000340 a4 e1 5a bf 46 8e 62 be 45 d9 e6 bf 3f 7f b6 bf
       -0.8550055 -0.22124586 -1.8035055 -1.4257582
000350 73 8a eb bd 83 93 24 bf ea 7f 11 3f b4 83 a5 be
       -0.115010165 -0.64287585 0.56835806 -0.32327044
000360 7e d6 1a c0 de 05 e6 bd 58 92 b0 3d 9e 02 21 3e
       -2.4193416 -0.11231588 0.08621663 0.15723655
000370 80 aa fc bd 88 5c ce bf d0 b8 0b 3e 4b 2f d1 3d
       -0.12337208 -1.6121988 0.13644719 0.102140985
000380 7d 73 b3 bd f2 8d c0 be 87 e5 c5 bf f4 0d 2a be
       -0.08762262 -0.37608296 -1.5460671 -0.16606885
000390 b5 43 ee be 77 61 15 bf 0c 1b 17 c0 94 0d d5 bf
       -0.4653603 -0.58351845 -2.3610258 -1.6644769
0003a0 16 6b 03 c0 64 c3 cc bd ef ab 8b be 66 0f ba be
       -2.053411 -0.09998205 -0.27279612 -0.36339873
0003b0 ac 5a 47 be 9b 2a 4b 3e ce 80 97 bb e4 2f 68 bf
       -0.19468182 0.19840471 -0.004623509 -0.90698075
0003c0 f7 ed 16 c0 a9 03 11 be 25 e6 37 be 18 08 1c 3e
       -2.3582742 -0.14161552 -0.17958887 0.15237463
0003d0 60 0c cd 3d 76 9a 2d 3f 55 e9 01 3d 9e c9 ed bd
       0.10012126 0.67813814 0.031716663 -0.11610721
0003e0 90 ce 4b bd b9 e2 38 3f a7 5c 8b bf c2 80 aa be
       -0.04975754 0.7222095 -1.088765 -0.3330136
0003f0 b9 a1 12 c0 b7 ea ad 3d 89 02 30 3f 3c b0 98 bf
       -2.2911208 0.08492034 0.6875387 -1.1928782

fc1.bias f4 [64]
000000 5c 5d d3 3a c9 21 e5 bd d0 d2 a5 3d e9 b5 af bd
       0.0016125846 -0.11188085 0.0809685 -0.085796185
000010 01 e0 d3 bd c8 7e 98 3d be 41 85 3e 7d af 8a bd
       -0.1034546 0.074460566 0.2602672 -0.06771753
000020 e6 4d cd 3d d6 60 eb 3c c4 7e 07 3d 8f fe c2 3c
       0.100246236 0.028732698 0.033079877 0.023803024
000030 9c 80 b3 3d d7 ef 2d 3c 95 46 92 3d 99 a1 d5 3c
       0.08764765 0.010616264 0.07142369 0.026078032
000040 b9 90 05 be 73 01 5f 3d 7f ba ae bd 62 09 e8 3d
       -0.13043489 0.05444474 -0.08531665 0.11329915
000050 af 8a 8f bc aa e8 45 be bd d5 1f be 79 34 b7 bd
       -0.017522184 -0.19327036 -0.15608878 -0.08945555
000060 49 cd 9b 3d 33 04 8a bd 22 8f 30 3b 0a aa bc 3e
       0.076075144 -0.06739082 0.0026940783 0.3684848
000070 a3 ef 25 3d fc 13 a2 3d 04 67 35 bd 31 42 ad bd
       0.04051174 0.07913968 -0.044287696 -0.08459891
000080 f4 40 30 be af e9 96 3d 68 73 b2 bd 06 12 92 3d
       -0.17212278 0.0736879 -0.08713418 0.07132344
000090 ef 2a ae 3d 57 79 bf bd 68 f2 c1 bc 4e 9d 04 bd
       0.08504283 -0.093493156 -0.023675159 -0.03237658
0000a0 ef b1 46 be 63 9a 62 3c 17 36 ca 3d b0 a8 3f 3d
       -0.19403814 0.013830754 0.09873598 0.046791732
0000b0 b7 11 a8 3a ab 3a 00 bd 02 8b 95 bd 6c 7c 1a be
       0.0012822662 -0.03130595 -0.07301904 -0.15086526
0000c0 9a 69 21 3d 8f fd de 3c c0 9a 77 bc ba 4f 68 be
       0.03940735 0.027220516 -0.015112579 -0.22686663
0000d0 d9 02 93 bb 42 18 32 bc 0d 2b 62 3e 52 40 57 bd
       -0.0044864235 -0.010870041 0.22086735 -0.052551575
0000e0 ce 63 08 bd 77 b8 f6 3c fa 31 1f bd f4 f3 3b 3d
       -0.033298306 0.030117257 -0.03886602 0.04588695
0000f0 96 66 5f bd a8 db 1f bd 4f 61 31 3c c8 52 f6 bb
       -0.054541193 -0.03902784 0.010826423 -0.0075171925

bn2.weight f4 [64]
000000 8f ba 23 40 21 7a 09 3f 44 68 9b 3e c6 9b 99 3f
       2.5582616 0.5370198 0.30352986 1.2000663
000010 66 01 f1 3e 13 df 6d 3f 75 87 1b 40 87 0a 54 3f
       0.4707138 0.9291851 2.4301426 0.82828563
000020 b5 7f 9f 3f dc 32 c5 3e aa 94 e8 3e 33 12 70 3e
       1.2460848 0.38515365 0.45425922 0.23444442
000030 47 0e b9 3e 78 68 db 3e 79 14 1f 3f 0e 45 8b 3f
       0.36143705 0.4285314 0.62140614 1.0880449
000040 79 78 91 3e fc 35 7a 3f 7a bc 39 3f 1a 14 27 3f
       0.28412226 0.97738624 0.7255322 0.6526505
000050 5d 75 11 40 16 ed af 3f 6a d6 16 3f de 8e 17 3f
       2.2727883 1.3744228 0.5892092 0.59202373
000060 9d c6 41 3f 18 6d 92 3e b8 c6 7a 3f ff f3 27 40
       0.75693685 0.28598857 0.9795947 2.6242673
000070 cd 05 a8 3e 1c 62 e1 3e 2a 40 dd 3e 6e 59 85 3e
       0.32816926 0.44020164 0.43213016 0.26044792
000080 d2 b3 2f 40 29 00 26 3f a8 b7 e3 3e 12 b4 2e 3f
       2.7453504 0.64843994 0.44476056 0.68243515
000090 19 c2 b0 3e f1 d2 e4 3e 69 ae f8 3e ec ec f8 3e
       0.34523085 0.44692186 0.48570564 0.48618257
0000a0 ed b8 c6 3f f8 53 af 3e bc d3 59 3f 03 3b 13 3f
       1.5525185 0.3424375 0.85088706 0.5751192
0000b0 a8 0a 95 3e 8c 81 b0 3f fd ae 30 3f fd c8 64 3f
       0.29109693 1.3789535 0.6901701 0.89369184
0000c0 86 f3 14 3f a3 cd ad 3f 94 ec ae 3f 32 b9 2a 40
       0.5818409 1.357838 1.3665948 2.6675534
0000d0 ab f4 d9 3e fb 33 91 3f 56 2b 11 40 eb 46 86 3f
       0.4256948 1.1343988 2.26827 1.0490392
0000e0 89 06 94 3f 8c 7c 1a 3f 6a 57 bb 3f a0 37 01 3f
       1.1564494 0.60346293 1.4636052 0.504755
0000f0 95 e8 81 3e 9f 70 4c 3f 31 af b9 3f 11 06 ca 3e
       0.25372759 0.79859346 1.4506589 0.39457753

bn2.bias f4 [64]
000000 3b d0 8c be 3d 2f 2a bf 35 da 88 be 28 92 fb be
       -0.27502617 -0.6647833 -0.2672898 -0.49134946
000010 d6 fd 93 3d d8 a0 dc be 1a 4d 07 3e 07 08 ad be
       0.0722615 -0.43091464 0.13213006 -0.33795187
000020 16 7c 1a bf 3b fd 45 bf 9f bd 66 be 65 a7 22 be
       -0.6034559 -0.77339524 -0.22533272 -0.15884168
000030 0e fb 19 be 2a 09 a5 be 20 86 d2 be 8c 65 2c bf
       -0.15037176 -0.32233554 -0.41117954 -0.6734245
000040 22 00 93 be 01 1c f2 be 10 0e af be d1 e5 d3 be
       -0.2871104 -0.4728699 -0.34190416 -0.41386274
000050 e2 95 a0 be 9f 60 0d bf dc d6 9b be ee 6d a3 be
       -0.31364352 -0.5522556 -0.30437362 -0.31919807
000060 8c 2f c9 be a7 53 0f be 19 7e b8 be 1f de 89 be
       -0.39294088 -0.13996755 -0.36033705 -0.26927277
000070 df dd 78 be 92 53 9e 3d e0 5d a4 be 80 61 03 be
       -0.24303387 0.077307835 -0.3210287 -0.12830162
000080 18 3d 85 be 43 75 ab be 6f 83 21 3d 92 08 9d be
       -0.26023173 -0.334879 0.039431985 -0.306706
000090 a9 d5 d5 bd 39 78 8d be 78 7e 31 be e3 df f2 3d
       -0.10441143 -0.27630785 -0.173334 0.11859109
0000a0 72 29 12 bf 15 76 16 be 4c f4 e1 be 5e 22 8a be
       -0.5709449 -0.14693482 -0.44131696 -0.26979345
0000b0 c5 a3 ab bd 1f 5d 17 bf f8 46 d3 be c9 3e c8 be
       -0.08380846 -0.59126467 -0.41265082 -0.391104
0000c0 c8 a3 b6 be 82 7b 08 bf ae e0 01 bf 80 d8 5e 3d
       -0.3567183 -0.5331346 -0.5073346 0.05440569
0000d0 b5 6e 39 be 16 10 12 bf c5 d8 2c be c4 ad f2 be
       -0.18108638 -0.57055795 -0.16879566 -0.47398198
0000e0 62 0d 16 bf 26 f5 9c be bf f0 15 bf 08 9a f8 be
       -0.5861417 -0.30655783 -0.58570474 -0.48555017
0000f0 81 b2 3b be 9b 68 1c bf 2f 18 0e bf ff be 62 be
       -0.18329813 -0.61097115 -0.5550565 -0.22143172

bn2.running_mean f4 [64]
000000 b1 c9 84 bf c3 d3 dc bf 7d 87 ad bf 4d c4 5c c0
       -1.0374051 -1.7252125 -1.3556973 -3.4494812
000010 64 63 f3 be 23 da 5c c0 a3 d9 cf be 18 88 47 c0
       -0.47536767 -3.450814 -0.4059573 -3.1176815
000020 d0 dc 54 c0 78 13 9b bf 21 f1 07 c0 7f 85 87 bf
       -3.3259773 -1.2115316 -2.1240923 -1.0587615
000030 cc 0e c4 bf 18 8b b1 bf de 67 87 c0 4e 32 13 c0
       -1.5317016 -1.3870573 -4.231429 -2.2999454
000040 22 c2 aa bf 09 ad 3e c0 07 18 b7 bf 92 dc e5 bf
       -1.3340495 -2.9793112 -1.4304208 -1.7957938
000050 67 21 a8 bf 6b 2f 6a c0 b6 8c 20 c0 b6 3a 0f c0
       -1.3135194 -3.6591442 -2.5085883 -2.2379584
000060 f7 f2 f6 bf e1 0b cb bf 7e 01 3c c0 42 c2 21 bf
       -1.9292897 -1.5863 -2.937591 -0.6318704
000070 6a ee bd bf 79 0e 82 bf 8e 86 df bf 17 93 5b c0
       -1.4838383 -1.0160667 -1.7462938 -3.4308527
000080 4d 67 98 bf d5 c6 0e c0 8a a7 7c bf 41 a8 22 c0
       -1.1906525 -2.2308857 -0.98693144 -2.5415194
000090 e9 29 9d bf 6b 82 79 c0 a8 d7 10 c0 8e 33 99 be
       -1.2278415 -3.898585 -2.2631626 -0.29922146
0000a0 99 83 80 c0 e2 0a c3 bf 04 53 b5 bf e0 b1 02 c0
       -4.016064 -1.5237696 -1.4165959 -2.0421066
0000b0 4e 05 6c 3e 55 71 7c c0 e4 cb fe bf 79 a6 5e c0
       0.23048899 -3.9444172 -1.9905972 -3.4789107
0000c0 d4 d7 07 c0 a6 e1 7a c0 02 c0 41 c0 9a f6 48 bf
       -2.122548 -3.9200225 -3.0273442 -0.78501284
0000d0 92 34 0a c0 4c e6 4f c0 fc d9 0c bf 82 c0 67 c0
       -2.1594586 -3.2484312 -0.5502012 -3.6211247
0000e0 c9 7a 4f c0 56 d1 7d c0 aa df 5f c0 90 0b 71 be
       -3.2418692 -3.9659019 -3.4980264 -0.23539567
0000f0 2b 33 75 c0 c4 ba 19 bf 24 06 4e c0 b3 e2 19 3d
       -3.831248 -0.60050607 -3.2191248 0.037569713

bn2.running_var f4 [64]
000000 10 66 98 42 3c a9 81 41 1f f2 7d 41 71 92 92 42
       76.19934 16.207634 15.871612 73.28602
000010 5c 4e fd 41 cf 61 77 42 ab db 84 42 e3 c7 61 42
       31.663261 61.845516 66.42904 56.4452
000020 f0 d0 6f 42 86 e1 3f 41 45 18 2b 42 3f fa 60 41
       59.95404 11.992559 42.7737 14.061095
000030 13 f4 af 41 b7 3c 7d 41 20 2b a5 41 9b 34 00 42
       21.994177 15.827323 20.646057 32.051373
000040 19 18 8c 41 50 45 5a 42 5e 76 63 41 d3 f2 03 42
       17.511766 54.567688 14.216398 32.987133
000050 c4 37 76 42 6d 3f a6 42 52 a1 1d 42 61 6a 26 42
       61.55446 83.12388 39.40754 41.603886
000060 50 f5 d9 41 cc 81 82 41 6a a5 5c 42 aa 7e 99 42
       27.244781 16.313377 55.161537 76.74739
000070 48 ee 53 41 8e 16 f5 41 80 52 fc 41 b3 b5 88 41
       13.245674 30.636013 31.540283 17.08872
000080 cf dd a6 42 81 21 fa 41 7b d0 d7 41 44 6c 24 42
       83.43322 31.26636 26.976797 41.10573
000090 f1 2b a2 41 7c cd 9c 41 99 51 ae 41 af 53 0a 42
       20.271456 19.600334 21.789843 34.581722
0000a0 59 b1 e7 42 77 ff b6 41 e1 ff 8b 41 5b 3b be 41
       115.84638 22.874739 17.49994 23.778982
0000b0 b3 b4 d0 41 07 c9 bf 42 4a 7d c7 41 4f 17 6b 42
       26.088232 95.89263 24.936176 58.772762
0000c0 16 ec e0 41 c0 f8 cf 42 c5 42 6b 42 e2 3b 30 42
       28.115276 103.98584 58.815205 44.05848
0000d0 1b ab ba 41 bb 39 90 42 3e 03 80 42 f8 37 96 42
       23.333548 72.112755 64.00633 75.109314
0000e0 6d 41 94 42 60 10 9f 41 1b b5 b3 42 a5 b5 34 41
       74.127785 19.882996 89.85372 11.294347
0000f0 63 1c d6 41 02 9d 86 41 fa 9d a0 42 d8 7e 5b 41
       26.76386 16.826664 80.30855 13.718468

fc2.weight f4 [64, 64]
000000 37 06 06 bf 22 df db bd de 37 8a 3d f5 51 83 3c
       -0.52353233 -0.107359186 0.06748937 0.016030291
000010 86 9c b6 be 77 3a a1 3e 57 ab 82 3f 2a 08 56 be
       -0.35666293 0.31489918 1.0208539 -0.20901552
000020 f1 4b 07 bf 6b 0a f7 bd b6 5b 95 bf 10 8c 18 bf
       -0.5285025 -0.12062534 -1.1668613 -0.5958872
000030 47 35 13 bf 35 cd 09 3d 60 1c 43 bf 14 d2 60 3d
       -0.5750317 0.033642966 -0.7621517 0.054887846
000040 a4 04 67 bf 08 ff fc be 28 d1 6e 3f 0d 94 eb be
       -0.90241456 -0.49413323 0.932879 -0.4601139
000050 3d ab ef bd be 4c 3f bf 98 17 fe be 3a 38 e1 be
       -0.11702583 -0.74726474 -0.49627376 -0.4398821
000060 78 18 75 be 48 d6 d8 be 36 eb 3b bf c4 ee d9 bd
       -0.23935115 -0.42350984 -0.7340578 -0.10641244
000070 fd 00 1b 3e f7 c8 90 3d 67 0b d0 bd b6 55 ae be
       0.15137096 0.07069581 -0.10158425 -0.34049767
000080 3d 89 ca 3d 39 68 34 be f5 3c 7a be 54 62 ab bf
       0.098894574 -0.17617883 -0.24437316 -1.3389382
000090 fc e5 08 bf e5 08 44 bf f9 cf 9e be a0 85 06 bf
       -0.5347593 -0.7657607 -0.31018046 -0.52547646
0000a0 32 0c 55 be 3d b9 0f 3e b6 b1 94 be 1c bf 06 bd
       -0.20805433 0.14035507 -0.29041833 -0.0328971
0000b0 33 59 52 3e 03 33 7d 3e 60 69 b6 bd 93 cf 0d be
       0.2054184 0.2472649 -0.089068174 -0.13848715
0000c0 99 96 b7 be 17 07 ed bd 78 34 00 3e 7b e4 6a bf
       -0.35857084 -0.11573618 0.12520015 -0.91754884
0000d0 ec b9 e9 be e8 ad c2 3d d7 84 05 be 9d c8 dc be
       -0.4564966 0.09505826 -0.13038956 -0.43121806
0000e0 23 92 42 3e e4 c4 59 bd 2e 5d 6c 3d 4a e8 a5 be
       0.19001059 -0.053166285 0.05770605 -0.32403785
0000f0 88 72 69 bf 85 aa 63 3e 1c 07 a1 be 05 37 a7 3e
       -0.91190386 0.22233017 -0.31450737 0.32659164
000100 c9 c8 e9 be bc 74 df bd 61 b1 75 be 5c 47 84 be
       -0.45661 -0.10910937 -0.23993446 -0.25835693
000110 43 cc d3 be 61 74 97 bd 43 97 02 bf 34 17 78 be
       -0.41366777 -0.073952444 -0.5101206 -0.24227601
000120 cf 5c 20 be 2c 00 99 3d 01 41 0f bd 9b 87 6a be
       -0.15660404 0.07470736 -0.034974102 -0.22903292
000130 aa 80 c4 bc c5 9e 8b bc 23 f5 db 3c f1 20 55 be
       -0.023987133 -0.01704348 0.026850289 -0.20813347
000140 51 c6 b4 bd 39 cc 59 bd 9d 9d 85 be 1e 0c 54 be
       -0.08826888 -0.053173278 -0.26096812 -0.20707747
000150 7a 82 f0 be fb d5 a9 be 51 7f fe bd 96 f8 10 be
       -0.46974546 -0.33171067 -0.124266274 -0.14157328
000160 c4 8b 55 be 5e a2 29 bc 5f 37 8b be 2a cc 90 bf
       -0.20854098 -0.010353653 -0.27190682 -1.1312306
000170 f8 66 24 be a1 1b 22 be c4 05 64 be b8 30 6b bd
       -0.16054904 -0.15830852 -0.22267824 -0.05741951
000180 35 1d d0 be 1f f6 89 be 96 97 ed be 47 d3 b5 be
       -0.40647283 -0.26945588 -0.46404713 -0.35512754
000190 2f db 8c be b3 53 cf bd 2f 46 58 be 0d e9 7f be
       -0.27510974 -0.10123386 -0.21120523 -0.24991246
0001a0 a0 79 b4 be 5a fb 44 bd f7 ce 31 be cc 94 f1 bd
       -0.35249043 -0.04809127 -0.17364107 -0.11795959
0001b0 07 76 47 bf 9f 39 2a 3d d9 f9 5b bd 03 b6 c9 bc
       -0.7791447 0.041558858 -0.05370507 -0.024622923
0001c0 a7 9a 1d be 53 1f be be fa 5a 53 be 28 5d f7 be
       -0.15391026 -0.37133273 -0.20640174 -0.4831326
0001d0 77 4d 30 be a6 80 be bd 66 de 7e 3e d6 66 1b be
       -0.1721705 -0.093018815 0.24889526 -0.15175948
0001e0 f7 1d 89 bd 44 dd 8d be 9a 40 9d be 7a 30 ac be
       -0.066951685 -0.27707875 -0.3071335 -0.33630735
0001f0 60 7e 66 be d9 8b 83 be 33 f6 09 bf 17 1b 2c 3e
       -0.22509146 -0.25692633 -0.53891295 0.16807209
000200 cf a6 ed bd d5 f6 4a 3c 11 14 34 3f cb 5b 29 bf
       -0.11604082 0.012387951 0.7034312 -0.6615569
000210 95 50 ed 3e 93 8b 08 3f 1c cb b2 be 08 f8 09 3e
       0.46350542 0.53337973 -0.34920585 0.13473523
000220 a8 cf 13 3f 9d 59 02 bd 30 b8 42 3e 97 c8 ee 3d
       0.57738733 -0.031823743 0.19015574 0.11659353
000230 ff 9c e7 be c3 17 14 bf 23 48 52 bc 5f de b9 bb
       -0.45236966 -0.5784876 -0.012834582 -0.0056722607
000240 ae 48 9f be f8 a1 1e bd 67 dd 03 3b c0 c9 12 3f
       -0.31110138 -0.038728684 0.002012098 0.57339096
000250 b8 b9 61 be 34 65 01 bd e8 41 23 bf 66 db aa be
       -0.22043502 -0.031590655 -0.6377244 -0.33370513
000260 2c e7 78 bf ec 38 09 bf 2e 53 c1 be ea 50 14 be
       -0.9722774 -0.5360248 -0.37758774 -0.14483991
000270 08 04 de be c0 23 1e bf 46 ee 23 3e 7c e3 b9 bf
       -0.4336245 -0.617733 0.16008863 -1.4522548
000280 f7 73 7e be 1f 5e a8 3d 42 68 43 bf d3 94 e8 be
       -0.24848925 0.08221077 -0.7633096 -0.45426044
000290 d0 81 42 bf 67 55 6d be f7 12 a5 be 45 c2 2b bf
       -0.7597933 -0.2317711 -0.32241032 -0.67093307
0002a0 4a 57 39 3e 6a a4 9c be 71 49 19 be 88 64 b1 3e
       0.18099704 -0.30594188 -0.14969422 0.34647012
0002b0 99 fd e9 be 16 eb f0 3d 01 4b 13 3f 56 77 14 be
       -0.45701292 0.11763589 0.5753632 -0.14498648
0002c0 66 37 01 bf e3 7e e2 be c8 28 ce bd c4 ce 04 bf
       -0.50475156 -0.44237432 -0.10066372 -0.51878
0002d0 5f 9f 84 bf b2 7a 39 be 9d 52 9d be 71 62 ca bd
       -1.0361136 -0.18113211 -0.3072709 -0.098820575
0002e0 5f bd 58 bd 59 86 f4 be ba 90 1b bf 50 53 a3 be
       -0.052914973 -0.4775875 -0.6076771 -0.318995
0002f0 14 2e 05 3e 4f 10 7e bd a8 28 a9 be 54 55 db be
       0.13005859 -0.06202727 -0.3303883 -0.42838538
000300 a0 df a5 be 62 e4 23 be 9b ce 06 3d 10 75 6b be
       -0.32397175 -0.1600509 0.032911878 -0.22993875
000310 a9 5a c6 be 95 35 f7 3d f1 74 1e bf 50 5a 36 bf
       -0.38741043 0.12070767 -0.6189719 -0.71231556
000320 87 49 ad be 9d 57 4b 3d c6 23 ed bb 8c 8e 58 bf
       -0.3384516 0.0496441 -0.0072369305 -0.8459251
000330 61 2d 32 3e 25 10 89 be b2 02 02 bf 39 19 58 bf
       0.17400123 -0.2677013 -0.5078536 -0.84413487
000340 40 df 33 3d 43 68 93 be 02 1f c1 3e 9b 34 5f be
       0.04391408 -0.28790483 0.3771897 -0.21797411
000350 10 46 53 be 5f e0 19 3d 5a b6 f6 be f1 8e d2 3e
       -0.20632195 0.037567493 -0.48185998 0.4112468
000360 f2 b7 32 be 55 cc 9c be 95 fa 62 bf 99 19 56 3d
       -0.17452982 -0.30624643 -0.8866361 0.052270506
000370 ec 8f 2f bf f5 6c fe be 8e db 5a bd 5a c3 95 3e
       -0.6857898 -0.49692503 -0.05343204 0.29250604
000380 ca 55 04 bf 75 35 16 3e 08 c3 01 bf b9 4a 4a 3f
       -0.51693404 0.1466883 -0.5068822 0.7902027
000390 8a 18 25 bf ac 9a 57 3e 9f d4 a6 be 46 ce 9d bd
       -0.6449057 0.21055096 -0.32584092 -0.07705359
0003a0 31 8f 34 3e 63 5f 3e be b3 e3 fb bd 40 96 10 bf
       0.17632748 -0.18591075 -0.122992896 -0.56479263
0003b0 74 b7 e1 3e 9b 7b f3 bc bb 63 2b bc 40 99 51 bf
       0.44085276 -0.029722026 -0.010460789 -0.81874466
0003c0 7b 08 dd 3e 94 3a b6 bc 07 c4 a5 3e 39 3a c4 be
       0.43170533 -0.02224473 0.3237612 -0.3832567
0003d0 84 f1 90 bf a2 5e 38 3f b4 f3 c6 be 9f 3b fc 3e
       -1.1323705 0.720194 -0.38857806 0.49264237
0003e0 f0 28 d8 3e 90 83 1b 3f 4c 8c a5 bc 53 e4 6e be
       0.42218733 0.60747623 -0.0202085 -0.23329286
0003f0 d5 cc ae 3d 7a 0e 1a 3d ea 01 2b bf b5 a5 d4 3d
       0.08535162 0.037611462 -0.66799796 0.103831686

fc2.bias f4 [64]
000000 05 eb f7 bf 20 09 a7 3d b9 2b 3b bd 9f 24 30 bf
       -1.9368597 0.08156037 -0.045695994 -0.6880588
000010 0f 7b 11 be 00 01 5a 3c 0c aa 26 be db 20 a2 bd
       -0.142071 0.0133059025 -0.16275805 -0.07916423
000020 5c 14 09 bd db e6 37 be 5d 68 52 bf 0a 9e be 3d
       -0.03346668 -0.17959158 -0.82190496 0.09307487
000030 4c be b4 be d0 ed 26 be 13 5f 01 c0 eb 26 6e be
       -0.35301435 -0.16301656 -2.0214279 -0.23257034
000040 d4 04 44 bf 44 8c 43 bf 66 cd 04 bd 63 67 14 c0
       -0.7656987 -0.76385903 -0.032422446 -2.3188102
000050 db 7d 57 3e e7 85 8a 3d a0 16 58 be 3c 0d b2 3e
       0.21044104 0.06763821 -0.21102381 0.34775722
000060 19 19 1b bf 23 15 1e be ee a3 8b bf 38 d6 44 3f
       -0.6058517 -0.1543775 -1.0909402 0.7688937
000070 08 2e 5f be 24 90 1d bf 51 41 c1 be d8 1d de be
       -0.21794903 -0.61548066 -0.37745145 -0.43382144
000080 34 51 66 be ca c2 e6 be 94 42 6a 3f 77 14 64 3d
       -0.22491914 -0.45070487 0.9150784 0.05568358
000090 c6 85 0a bf b4 d6 86 bd 86 9c 75 bd 7e 0a d9 bd
       -0.5411037 -0.0658392 -0.059963726 -0.10597704
0000a0 61 86 88 3f 09 19 cc be 7d 47 41 3e 88 c6 a7 be
       1.0666009 -0.3986285 0.18874927 -0.32768655
0000b0 8b 41 5e bf 89 67 26 be 25 10 b5 3d 5e fa 2e be
       -0.8681876 -0.16250433 0.0884097 -0.17087695
0000c0 02 68 38 be 70 69 89 3c 90 cd ca be 8a c7 4f bf
       -0.18008426 0.01677391 -0.39609957 -0.8116385
0000d0 9b cb db be 3f 23 19 bf 4c 98 49 be ad 7f ab bd
       -0.42928776 -0.59819406 -0.19687003 -0.083739616
0000e0 08 ad 39 3f af fb 90 be 01 e5 19 be 39 9f fb bd
       0.7252965 -0.2831702 -0.15028764 -0.12286229
0000f0 7b 4d a8 bd 0b 54 95 be d9 44 f9 be 4c 8d 8d be
       -0.08217903 -0.29165682 -0.4868534 -0.27646863

out.weight f4 [1, 64]
000000 a3 73 79 3e 7c f0 cb bd b8 15 53 3c b6 28 f4 ba
       0.24360518 -0.09957978 0.012883596 -0.0018627855
000010 73 ca 28 be 10 6d 6f 3d b0 b0 a0 3e a8 00 bf 3d
       -0.16483478 0.05845362 0.31384802 0.09326297
000020 9f e3 36 3c cf 5a 72 bc b3 7f af bd b8 7e 92 be
       0.011162668 -0.014792158 -0.085692786 -0.28612304
000030 5a 4a 07 3e 63 44 33 be d9 ef 89 3e b6 89 a2 bd
       0.13211957 -0.17506556 0.26940802 -0.079364225
000040 77 08 0b 3e 79 a4 5e bc c7 93 2a 3e 82 f9 08 3e
       0.13577448 -0.013589018 0.16657935 0.1337643
000050 27 7e 77 be e9 90 03 be e1 3a e3 3d 8f 7d 40 be
       -0.24169217 -0.12848248 0.11095215 -0.18797897
000060 d6 e3 e0 3c e0 74 aa 3b 3b 13 d6 3d cd 8a 2c 3e
       0.02745239 0.005201921 0.10452887 0.16849823
000070 a1 5e 05 3e 55 da f1 3d 87 78 0c 3d ad e1 4e 3d
       0.1302438 0.11809222 0.03429463 0.05050819
000080 b1 3e ae bd 24 a6 8f 3d 08 72 d0 be c1 66 43 3d
       -0.08508051 0.07014111 -0.40712 0.047705416
000090 3a c3 6c 3c 91 5a 3d 3b be 04 cf 3d 8e 16 cf 3d
       0.0144508425 0.0028893093 0.101083264 0.10111724
0000a0 2a b9 21 3e 25 15 1b bd 78 9c ec be 5e 2e 87 3d
       0.1579329 -0.037861962 -0.46213126 0.06600641
0000b0 4e 25 29 bd 3b 6c 0b bd 63 2b e6 3d 02 30 40 3b
       -0.041295342 -0.034038763 0.11238744 0.002932549
0000c0 c7 a1 a4 39 22 01 2d be 18 94 26 3c ce 8a 1b 3e
       0.0003140105 -0.16894963 0.010167144 0.15189669
0000d0 cd 3f 25 3e 66 26 ef bd 78 9a 87 3c e1 f9 b2 3d
       0.1613762 -0.11677246 0.016553149 0.08739067
0000e0 b8 a0 8a 3e 73 71 c2 3c f3 5a 36 bd 13 90 fd 3b
       0.27075744 0.023735737 -0.04452033 0.0077381223
0000f0 4f 6c 41 3e f1 a8 ee 3d c1 9a c2 3d 1e 5a 49 3c
       0.18888973 0.11653317 0.09502173 0.012289552
