data/gcn_pt_files/gcn2_mse_model.pt (torch, 64433 bytes, 21 tensors)

conv1.bias f4 [64]
0.00042457905 0.0010354975 -2.8961615e-05 -1.4178901e-09 -0.0005855851 -3.9439765e-05 -0.0016899153 -0.00039402154
-0.0010238405 1.3067265e-07 -0.00022980894 -0.0002439173 -2.3371253e-05 -0.00025571676 1.924751e-05 -0.00014997374
0.00018932446 0.0012638458 -7.858352e-05 0.00012521789 0.0010717028 0.0008663962 5.3990596e-05 0.00019697809
0.00017637126 0.0001834619 -0.00010232593 -7.6018594e-05 -4.571106e-06 0.0003099939 -2.507209e-06 -0.00010110065
-4.5504752e-05 6.740823e-05 0.00021059836 0.00015053281 0.0011024795 0.00019199745 0.00048803102 0.00030549345
0.00026716024 -9.270225e-06 -5.8316306e-05 -0.00026802655 -0.00018550076 0.000115673596 0.0011942594 -0.0015600574
0.0001790885 -0.00027780334 0.00096154463 4.4932098e-05 0.00059432065 -0.00060827186 -2.187602e-05 3.1562577e-05
-0.00016473145 -1.7581111e-05 0.00045876618 -0.0013581851 0.0003115784 -0.00024880108 -1.2149885e-05 0.0015265864
00000000: 099a de39 88b9 873a 98f2 f2b7 93df c2b0
00000010: f381 19ba 206c 25b8 2680 ddba ad94 ceb9
00000020: 6332 86ba 064f 0c34 def8 70b9 0dc4 7fb9
00000030: 620d c4b7 b911 86b9 b775 a137 4542 1db9
00000040: 6685 4639 a1a7 a53a 35cd a4b8 ec4c 0339
00000050: 6178 8c3a dd1e 633a f673 6238 e78b 4e39
00000060: 4df0 3839 ae5f 4039 d197 d6b8 2c6c 9fb8
00000070: 8061 99b6 ad86 a239 8641 28b6 0006 d4b8
00000080: 5bdc 3eb8 855d 8d38 11d4 5c39 58d8 1d39
00000090: 1381 903a ec52 4939 6ade ff39 a32a a039
000000a0: a411 8c39 5087 1bb7 a898 74b8 ea85 8cb9
000000b0: fb82 42b9 ca95 f238 b288 9c3a d77a ccba
000000c0: b4c9 3b39 22a6 91b9 2b10 7c3a 7975 3c38
000000d0: 2fcc 1b3a 6f74 1fba 6582 b7b7 0f62 0438
000000e0: c3bb 2cb9 267b 93b7 8e86 f039 2105 b2ba
000000f0: 585b a339 8471 82b9 5cd7 4bb7 bd17 c83a

conv1.lin.weight f4 [64, 10]
0.09932242 -0.11059553 -0.096055694 -0.03381592 -0.027638346 0.035829302 -0.02865846 -0.7314333
-0.034882247 -3.9001353 -1.543442 -0.20792891 -0.12177953 0.31881964 0.21593334 -0.1951704
0.56681186 0.9764118 -0.0495497 0.35058948 -0.7704763 0.066666424 -0.10545845 0.50478584
0.50714344 0.103068575 -0.08458103 0.6788224 0.12529124 -0.0056864214 0.213468 0.18106279
0.27110508 -0.40370676 -0.068232045 0.2705461 -0.058272213 -0.087213054 0.08253546 0.52593285
-0.9447565 -0.35969388 -0.318366 0.65789497 0.15940775 0.01321951 1.5083468 0.7366328
-0.018698694 0.74670845 0.41894466 -0.15148826 0.52469945 0.089412704 0.102170885 1.6647737
0.5227302 -0.32885432 -0.3428921 0.19722907 0.9525258 0.014514753 0.1176411 0.10593944
0.04944691 -0.6331054 -0.58421594 -1.3522646 -0.02445919 0.08895854 0.40044656 -0.1015289
0.4051286 0.116637014 -0.14903791 1.4555458 0.925891 -0.19216503 -0.20927806 0.47590524
-1.4523329 -0.22257252 0.028624346 0.13296056 0.08764146 0.20781347 -0.16958192 0.8172921
0.00027865483 0.01588088 -0.11693623 -0.2505795 0.15659365 -0.22334647 -0.47489414 0.17096443
-0.6351909 0.055115554 -0.02965159 0.027387088 0.69516355 0.06402361 0.082288876 -0.03911964
-0.07425249 0.13334304 -0.4149142 -0.4891808 0.00093426957 1.8502849 -0.6552423 -0.160888
-0.091431916 0.24484117 -0.5211655 0.32474464 0.9307076 0.01881074 -0.26263502 -0.27580038
0.5755547 -0.08252249 -0.0226894 0.15582345 0.14878087 -0.29791424 0.119705774 -0.9496528
-0.00086927274 -2.4292953 -0.4749285 -0.5273778 0.6302094 0.085397184 -0.45005566 -0.39448294
0.16260672 -0.4511326 -0.09773292 -0.89473766 -0.35316944 0.2411391 0.13339956 -0.0074725123
-0.088145256 0.25337452 0.52558726 -0.21310294 0.0426401 -0.050516725 0.29064745 0.1044045
-0.008607134 -0.10421655 -0.106831804 0.4334444 0.26239443 -0.35117412 -0.33376426 -0.071677625
1.5440172 0.045582544 -0.045777366 0.11058179 -0.16713507 0.29433146 0.7360355 -0.86386675
0.020743653 0.24947034 -0.7212876 -0.04782754 0.6648189 0.1892655 0.57888204 0.4615559
-0.17679887 0.18214001 -0.11394088 -0.47016484 -1.5444121 -0.19622067 0.5381933 0.14423159
-0.07982609 0.017126838 -0.22386505 0.0017196065 -0.12394134 -0.5275523 -0.93553656 -0.14468262
0.14160098 -0.013917192 0.44679856 -0.07874811 0.19522281 0.10089758 -0.2902869 -0.55472684
-0.38399377 -0.030842813 -0.034532834 0.00034410338 0.9116261 0.1864023 0.123210125 0.2554967
-0.16578904 -0.4450682 0.8062806 0.06460978 0.092666164 0.0055338712 -0.016646143 0.10333428
-0.53689265 -0.77531093 -0.009946488 1.0743245 -0.8992048 -0.8094433 -0.66580516 -0.4394388
0.41151175 -0.265732 -0.20414887 -0.0885247 -0.14550883 -0.544273 -0.49094853 -0.29580772
-0.17814296 0.04062623 0.09178247 -0.5079564 0.9321673 -0.28760207 0.099773705 -1.0499347
-0.22458743 -0.55050373 -0.3088261 0.4350328 -0.4191554 0.35554272 -0.534664 -0.2894196
-0.22019057 -0.44889426 0.5641386 -0.17262682 0.12071718 0.06865065 -0.13063753 1.474143
00000000: 8e69 cb3d e97f e2bd d9b8 c4bd 9082 0abd
00000010: d069 e2bc bfc1 123d 26c5 eabc 363f 3bbf
00000020: b0e0 0ebd d19b 79c0 828f c5bf 51eb 54be
00000030: 8c67 f9bd 543c a33e a11d 5d3e c0da 47be
00000040: 951a 113f 20f6 793f a0f4 4abd 7780 b33e
00000050: ef3d 45bf 6888 883d 9afa d7bd a539 013f
00000060: 27d4 013f 9e15 d33d d238 adbd 4ec7 2d3f
00000070: 594c 003e 2955 babb 5b97 5a3e 8668 393e
00000080: 49ce 8a3e a7b2 cebe 3ebd 8bbd 0585 8a3e
00000090: d8ae 6ebd c29c b2bd 5a08 a93d 89a3 063f
000000a0: 90db 71bf cc29 b8be de00 a3be ce6b 283f
000000b0: c93b 233e a596 583c 8211 c13f f893 3c3f
000000c0: 012e 99bc 4928 3f3f ea7f d63e bd1f 1bbe
000000d0: b452 063f 021e b73d f83e d13d 4e17 d53f
000000e0: a5d1 053f 985f a8be 8e8f afbe 6bf6 493e
000000f0: bbd8 733f 49cf 6d3c d1ed f03d c7f6 d83d
00000100: d888 4a3d 3213 22bf 2d8f 15bf 0217 adbf
00000110: a45e c8bc e52f b63d 5507 cd3e 62ee cfbd
00000120: 046d cf3e 63df ee3d 659d 18be 534f ba3f
00000130: 3107 6d3f e9c6 44be fd4c 56be daa9 f33e
00000140: 0be6 b9bf 0dea 63be 9b7d ea3c d026 083e
00000150: 5e7d b33d 0ecd 543e e2a6 2dbe 0e3a 513f
00000160: 6b18 9239 9f18 823c 437c efbd f54b 80be
00000170: 165a 203e f0b4 64be 5325 f3be 4d11 2f3e
00000180: df9b 22bf d9c0 613d e4e7 f2bc e35a e03c
00000190: 3df6 313f cf1e 833d 1287 a83d ea3b 20bd
000001a0: b111 98bd 148b 083e a26f d4be e875 fabe
000001b0: c5e9 743a 23d6 ec3f f6bd 27bf d3bf 24be
000001c0: a840 bbbd a5b7 7a3e 1a6b 05bf ee44 a63e
000001d0: da42 6e3f fb18 9a3c 1978 86be b535 8dbe
000001e0: 8e57 133f 8d01 a9bd 1fdf b9bc 2f90 1f3e
000001f0: 035a 183e 3788 98be 4d28 f53d 721c 73bf
00000200: e8df 63ba 9379 1bc0 d429 f3be 3b02 07bf
00000210: 6755 213f b8e4 ae3d b26d e6be abf9 c9be
00000220: 6082 263e dafa e6be 3228 c8bd 870d 65bf
00000230: a0d2 b4be 2bed 763e e599 083e fadb f4bb
00000240: 8085 b4bd 4eba 813e e38c 063f a837 5abe
00000250: 63a7 2e3d a0ea 4ebd becf 943e 07d2 d53d
00000260: f004 0dbc 7d6f d5bd a2ca dabd 6dec dd3e
00000270: 9058 863e 18cd b3be 26e3 aabe b8cb 92bd
00000280: 5ba2 c53f c3b4 3a3d 0c81 3bbd b578 e23d
00000290: 7525 2bbe 9db2 963e d36c 3c3f 5f26 5dbf
000002a0: 98ee a93c 2775 7f3e 4ea6 38bf d0e6 43bd
000002b0: 9231 2a3f d1ce 413e 9d31 143f 0e51 ec3e
000002c0: c30a 35be e982 3a3e d659 e9bd 72b9 f0be
000002d0: 4caf c5bf 12ee 48be 09c7 093f 72b1 133e
000002e0: dc7b a3bd 954d 8c3c e13c 65be 6b64 e13a
000002f0: f5d4 fdbd ab0d 07bf 537f 6fbf ae27 14be
00000300: d9ff 103e ef04 64bc c8c2 e43e b046 a1bd
00000310: 7de8 473e 64a3 ce3d 7ca0 94be 9402 0ebf
00000320: d59a c4be 11aa fcbc 4d72 0dbd c668 b439
00000330: 5460 693f 3fe0 3e3e 9755 fc3d 77d0 823e
00000340: 9ac4 29be fbdf e3be 6868 4e3f 2252 843d
00000350: c2c7 bd3d 7a55 b53b 7e5d 88bc eca0 d33d
00000360: cc71 09bf c77a 46bf 98f6 22bc 7783 893f
00000370: 4932 66bf ad37 4fbf 3572 2abf 1ffe e0be
00000380: abb1 d23e 060e 88be 670c 51be 704c b5bd
00000390: 4400 15be 7a55 0bbf 9b5d fbbe 1c74 97be
000003a0: 1c6b 36be b167 263d 73f8 bb3d 6e09 02bf
000003b0: 84a2 6e3f 9440 93be 2856 cc3d 4364 86bf
000003c0: 3ffa 65be d0ed 0cbf 741e 9ebe 9fbc de3e
000003d0: 899b d6be b209 b63e bddf 08bf ce2e 94be
000003e0: a379 61be 78d5 e5be 636b 103f 16c5 30be
000003f0: 923a f73d b698 8c3d d8c5 05be b8b0 bc3f

bn1.weight f4 [64]
1.4866683 0.6309408 0.4617135 0.12048135 0.5865365 0.21645954 0.28610638 0.15101977
0.92480963 0.12935284 0.45152783 0.29661626 1.0838135 0.43151346 0.45177442 0.16135107
0.1335476 0.33114737 0.30465686 0.33036342 0.37189957 0.36455876 0.63236076 0.50052816
0.36641902 0.12186834 0.21344784 0.3344867 0.18042329 1.5498657 0.11936852 0.43558234
0.16391957 0.17517246 0.47966906 0.19836332 0.39669952 0.64370364 1.3503393 1.6357313
1.6489508 0.18909813 0.58308786 0.1157588 0.12880222 0.65467536 0.25382742 0.3832795
0.5678666 0.45167956 0.40839514 0.12006956 1.6657237 0.5500567 0.3186048 0.6123657
0.22489136 0.16575046 1.6043664 1.7459848 1.1970491 0.50452864 0.1609887 0.3489358
00000000: 264b be3f 5685 213f b665 ec3e edbe f63d
00000010: 4227 163f 92a7 5d3e 897c 923e eda4 1a3e
00000020: 53c0 6c3f 1275 043e a82e e73e 16de 973e
00000030: 67ba 8a3f 55ef dc3e fa4e e73e 3739 253e
00000040: b4c0 083e 268c a93e fcfb 9b3e 6525 a93e
00000050: 9f69 be3e 72a7 ba3e 65e2 213f 9d22 003f
00000060: 469b bb3e 1c96 f93d 1292 5a3e d741 ab3e
00000070: e2c0 383e 0062 c63f 7c77 f43d a604 df3e
00000080: 88da 273e 6960 333e 2f97 f53e c11f 4b3e
00000090: 331c cb3e c3c9 243f ebd7 ac3f a55f d13f
000000a0: d210 d33f f1a2 413e 3f45 153f f312 ed3d
000000b0: bbe4 033e ce98 273f abf5 813e 363d c43e
000000c0: b55f 113f 8b42 e73e 2b19 d13e 08e7 f53d
000000d0: 6f36 d53f 84d0 0c3f 2b20 a33e 00c4 1c3f
000000e0: ec49 663e 7dba 293e e15b cd3f 6e7c df3f
000000f0: e838 993f ca28 013f 39da 243e b7a7 b23e

bn1.bias f4 [64]
-0.74920726 -0.54244053 -1.4089948 -0.8743993 -0.84847707 -0.029903816 0.10258148 0.13853744
-0.19893073 -0.3656879 0.1532571 -1.0165461 -0.1996028 -0.5190251 -0.52129537 0.20574653
0.092135705 -0.96668684 -0.21882707 -0.82261765 -1.05167 0.1508225 -0.6356099 -0.22608766
-0.8993003 0.13352583 -0.052549925 -0.8429782 -0.04416529 -1.1684022 -0.63718027 -0.363577
0.10821822 -0.07186103 -1.1096495 -0.311303 -1.142369 -1.074162 -0.5827013 -1.0425739
-0.9929523 0.123961456 -0.22866857 0.09445814 0.12769754 -1.1491283 0.11297758 -0.4102102
-0.3635919 -0.63154906 -1.2445207 0.077941395 -1.1851159 -0.9008673 -0.91628504 -0.7259432
0.1466202 0.12745826 -1.3351513 -1.3438703 -0.46326986 -1.3100897 -0.27112746 -0.69271445
00000000: 0ccc 3fbf 62dd 0abf f159 b4bf a2d8 5fbf
00000010: cb35 59bf d9f8 f4bc 3d16 d23d c2dc 0d3e
00000020: 7fb4 4bbe 723b bbbe 6eef 1c3e 2f1e 82bf
00000030: ad64 4cbe d4de 04bf 9d73 05bf 38af 523e
00000040: a5b1 bc3d ca78 77bf 3414 60be 1297 52bf
00000050: 1f9d 86bf 3771 1a3e 55b7 22bf 8683 67be
00000060: 8b38 66bf ffba 083e 973e 57bd 6bcd 57bf
00000070: aae6 34bd 348e 95bf 3f1e 23bf c426 babe
00000080: 84a1 dd3d e02b 93bd ff08 8ebf 1b63 9fbe
00000090: 2639 92bf 247e 89bf ea2b 15bf 1073 85bf
000000a0: 1f32 7ebf 81df fd3d 1828 6abe 4573 c13d
000000b0: 25c3 023e a316 93bf ca60 e73d 1207 d2be
000000c0: b828 babe 33ad 21bf 744c 9fbf bd9f 9f3d
000000d0: e1b1 97bf 3d9f 66bf a891 6abf 6ad7 39bf
000000e0: 9b23 163e 6b84 023e 3de6 aabf f103 acbf
000000f0: b531 edbe 05b1 a7bf 38d1 8abe bc55 31bf

bn1.running_mean f4 [64]
-2.272688 -2.7478397 7.4802823 4.9665294 -1.3482858 -21.067852 -1.6466454 -12.92368
-0.0879104 -1.8514616 -0.19950593 -16.64157 -0.30326882 -5.5298433 2.5282037 -20.534904
1.3837519 -7.6089954 -7.1739397 -18.208702 -9.941885 -0.6289548 -8.912184 5.8619
-13.905916 -12.113399 -11.972165 -21.011894 -17.643595 -1.3664917 14.837455 4.703773
-8.485122 -14.330055 12.356021 -11.611984 -15.240756 -4.8327365 -0.16983905 -0.7653889
-1.4666295 -0.27289838 -1.4582534 -18.97111 -16.450052 -1.6703058 -0.8390439 -6.6406612
-9.742837 -6.7876306 -17.029211 -14.290652 -0.64684534 -13.772591 5.9635925 5.496906
0.38548923 -6.3158803 -1.2127057 -2.397168 -1.5975146 -5.8679886 -12.742498 -9.254761
00000000: b873 11c0 9bdc 2fc0 795e ef40 cfed 9e40
00000010: a194 acbf f68a a8c1 47c5 d2bf 65c7 4ec1
00000020: 5e0a b4bd b2fc ecbf 484b 4cbe ef21 85c1
00000030: 0d46 9bbe 7af4 b0c0 17ce 2140 7c47 a4c1
00000040: c81e b13f e47c f3c0 ea90 e5c0 6cab 91c1
00000050: f611 1fc1 2f03 21bf 4e98 0ec1 af94 bb40
00000060: a27e 5ec1 7bd0 41c1 fd8d 3fc1 5c18 a8c1
00000070: 1526 8dc1 33e9 aebf 3766 6d41 4f85 9640
00000080: 0fc3 07c1 e847 65c1 43b2 4541 b0ca 39c1
00000090: 23da 73c1 c7a5 9ac0 4aea 2dbe 87f0 43bf
000000a0: 84ba bbbf 56b9 8bbe 0ca8 babf d5c4 97c1
000000b0: b599 83c1 95cc d5bf 95cb 56bf 4c80 d4c0
000000c0: a9e2 1bc1 4534 d9c0 d33b 88c1 83a6 64c1
000000d0: a897 25bf 885c 5cc1 c0d5 be40 a7e6 af40
000000e0: d85e c53e b11b cac0 f139 9bbf 336b 19c0
000000f0: 5c7b ccbf 90c6 bbc0 46e1 4bc1 8013 14c1

bn1.running_var f4 [64]
3.4475303 0.344387 1.1862344 0.8943052 0.4068355 10.434661 0.12947671 3.9967058
0.21993017 0.2142842 0.6935725 5.711615 1.4793605 0.9262695 0.22830136 9.050052
0.21052447 2.1589699 1.1787857 7.010494 2.91273 0.23438822 1.6185311 1.2725571
4.081243 3.2660623 3.1631534 7.9922 8.483471 4.128943 5.0215836 0.6842061
1.3968157 5.1071453 2.5482204 2.8492315 4.801832 2.1519845 2.9098434 4.912701
3.365305 0.39669377 0.32484263 8.500174 6.143539 0.76409286 0.0725009 1.4602392
2.0896604 1.2327664 6.595478 4.333075 3.1483185 3.8307111 1.0453088 4.6460295
0.29120702 1.0265862 3.3594558 3.2338614 2.797777 1.5416728 2.728447 2.0546978
00000000: 56a4 5c40 7e53 b03e 87d6 973f 30f1 643f
00000010: be4c d03e 5ff4 2641 8b95 043e 07ca 7f40
00000020: 6035 613e 516d 5b3e f88d 313f 8dc5 b640
00000030: af5b bd3f ff1f 6d3f d5c7 693e 03cd 1041
00000040: ba93 573e 902c 0a40 73e2 963f f855 e040
00000050: 2b6a 3a40 7703 703e 072c cf3f 27e3 a23f
00000060: 8b99 8240 2a07 5140 1b71 4a40 1ac0 ff40
00000070: 4cbc 0741 4d20 8440 d0b0 a040 2228 2f3f
00000080: dbca b23f bc6d a340 0b16 2340 cf59 3640
00000090: 9ca8 9940 1dba 0940 e03a 3a40 d934 9d40
000000a0: 2861 5740 721b cb3e c651 a63e b600 0841
000000b0: df97 c440 979b 433f 5a7b 943d 1ee9 ba3f
000000c0: ffbc 0540 4acb 9d3f 280e d340 8da8 8a40
000000d0: 0d7e 4940 5f2a 7540 aecc 853f 46ac 9440
000000e0: 1619 953e 2d67 833f 5301 5740 96f7 4e40
000000f0: c70e 3340 8955 c53f e09e 2e40 2b80 0340

conv2.bias f4 [64]
-1.2886901e-05 -0.000107680506 -5.0202536e-05 -0.00021865458 6.6824336e-06 8.192214e-05 -0.00031310928 -7.2797993e-06
-0.00022134939 0.0003838063 -4.5919896e-06 -0.0002982912 -0.00012874603 -0.000115738956 -0.00010462808 -0.00023696829
0.00013611047 -0.0002536392 -0.00051510386 0.00028784742 -9.813764e-05 -0.00059848453 2.0665357e-06 -0.0009277573
-0.00012601384 7.43808e-05 9.363043e-05 -0.0001504888 5.1630195e-07 -0.002599379 -9.172849e-05 -0.0001469106
0.0007208317 -2.4485238e-05 -9.035547e-05 -0.00011760426 7.2599476e-05 0.00024252966 0.0001419765 0.00030333258
-0.00015403028 -1.4269488e-05 -6.8287634e-05 -0.00025237128 6.162898e-05 0.00019413023 0.00022603261 0.00058557664
-0.00016907365 0.0001105621 0.00036311714 4.828056e-05 -0.00019496382 0.00019871448 -7.4041076e-05 -0.00016552239
-0.00014225385 -0.00023018706 -0.0010807717 -0.000372829 0.00028570252 0.00012481211 -7.950308e-05 0.00010908335
00000000: d134 58b7 88d2 e1b8 9090 52b8 a446 65b9
00000010: ab39 e036 9dcd ab38 d128 a4b9 0045 f4b6
00000020: 061a 68b9 9c39 c939 e414 9ab6 f863 9cb9
00000030: 0000 07b9 e1b8 f2b8 c66b dbb8 b17a 78b9
00000040: e0b8 0e39 e1fa 84b9 0908 07ba 3aea 9639
00000050: 3fcf cdb8 9ee3 1cba d0ae 0a36 bd34 73ba
00000060: 9522 04b9 e3fc 9b38 745b c438 88cc 1db9
00000070: 0098 0a35 585a 2abb 5c5e c0b8 040c 1ab9
00000080: 32f6 3c3a a665 cdb7 397d bdb8 4ea2 f6b8
00000090: 8c40 9838 8f4f 7e39 87df 1439 9c08 9f39
000000a0: 3083 21b9 fc66 6fb7 a535 8fb8 b350 84b9
000000b0: cf3e 8138 708f 4b39 2b03 6d39 6281 193a
000000c0: 5d49 31b9 93dd e738 c260 be39 db80 4a38
000000d0: 346f 4cb9 035e 5039 8046 9bb8 1490 2db9
000000e0: fa29 15b9 5e5e 71b9 aea8 8dba 4378 c3b9
000000f0: 58ca 9539 ffdf 0239 e4ba a6b8 adc3 e438

conv2.lin.weight f4 [64, 64]
0.027435552 -0.63768435 -0.09690814 0.17870791 -0.16017543 0.1266207 0.13015059 0.16358614
-0.7898723 -0.08144266 -0.026404385 -0.2603618 -0.23550664 -0.20997359 -0.2697699 0.0004104866
0.6622956 0.059819143 -0.42771393 -0.12605554 0.109054774 0.1385464 -0.22325194 -0.21470086
0.22460516 0.052312057 0.3000309 0.10283077 0.25027302 0.23854312 -0.16088365 -0.013878502
0.5843049 0.13719434 0.024461193 -0.42082524 -0.19888373 -0.49302164 -0.27430913 0.053086307
0.27272967 -0.0040392443 -0.19409734 0.059012093 0.3767979 -0.40748212 0.30949166 -0.03403146
-0.2106083 0.15039425 0.076655045 0.30647737 0.026399344 -0.093356125 -0.16352743 -0.30094123
-0.5327653 0.14411014 -0.0006100991 0.6545482 -0.12585208 0.000530896 0.1148142 -0.038348097
0.20767112 -0.06803063 -0.1282977 -0.23338313 -0.23554295 -1.1816893 -0.07961614 -0.802161
-0.09416837 -0.1935357 -0.02167512 -0.18365926 0.23179458 -0.0015208747 0.543745 -0.47567952
-0.68305343 -0.1664148 0.077684484 -0.3223004 -0.28253847 -0.2498153 -0.5145162 0.67383844
0.022389822 -0.44825193 -0.7664303 -0.0019894806 -0.7595425 0.2674902 0.042009227 0.49193737
-0.8383948 -0.87441224 0.14479049 -0.04157792 -0.05999154 0.37283197 0.034139976 0.049756896
0.42151687 -0.57028246 0.20783235 -0.7426235 -0.8331559 0.0728224 -0.05324778 -0.4543964
0.0423431 -0.6900064 -0.14742835 -0.5350151 -0.00837199 -0.17145978 0.38499573 0.5036362
0.18407348 -0.75628567 -0.15644896 -0.015940357 0.3143898 -0.41577038 -0.38128045 -0.16319829
0.12604283 -0.13878246 -0.0015249511 0.1960643 -0.22912785 0.71690845 0.65492576 0.43511343
-0.09236038 0.1295875 -0.02316314 0.2268405 -0.006508607 -0.03611859 -0.06727347 0.20400949
0.16500312 0.16834573 -0.122919805 0.09464266 0.024872268 0.122733444 0.3385224 -0.5060231
0.2072432 0.43308124 0.67747086 0.14815842 0.41865972 0.07432482 -0.20373103 -0.32519734
0.49519518 0.27811632 0.17540927 -0.12427285 0.032134578 -0.6561111 0.042257052 -0.022505416
0.22011511 0.42438847 -0.04467109 0.28922805 0.13820258 -0.424741 0.52546734 0.06744048
0.535141 0.16058345 0.12567273 0.25153664 0.12381849 0.21061146 -0.13093741 -0.6812164
-0.19032136 0.37361336 0.21723135 0.19589607 0.033946052 0.10955046 0.18103844 -0.012777223
0.20930032 -0.39466336 -0.105817 0.015698323 -0.46114084 0.40318274 0.34424472 0.11166164
-0.8321227 0.0040466157 0.079313606 -0.028608661 -0.1386753 0.4138627 0.1509699 0.07713136
0.27460584 0.190337 0.001316237 0.19959182 0.33201534 0.15608288 -0.5099042 0.22736885
-0.14753649 0.24684712 0.34429914 0.2582121 0.6037252 -0.18595473 -0.05222329 -0.19675823
0.31775188 0.38519266 0.34554562 0.072006546 -0.10504928 0.004510429 -0.27004856 -0.010129968
-0.056932565 0.490185 -0.10918281 0.36101574 0.5097764 -0.6109712 0.39484984 0.5592453
-0.20705079 0.35199773 -0.354103 0.47964945 0.04218778 -0.42891103 0.4689742 0.1381993
0.13537736 0.27469102 -0.016005257 0.8215285 0.014146391 -0.06375293 -0.159161 0.24005362
00000000: 86c0 e03c 483f 23bf c677 c6bd 35ff 363e
00000010: 0705 24be dba8 013e 3246 053e 2083 273e
00000020: 1235 4abf 69cb a6bd 024e d8bc 244e 85be
00000030: a728 71be 5103 57be 481f 8abe 9436 d739
00000040: 348c 293f eb04 753d 52fd dabe b414 01be
00000050: 1c58 df3d 1cdf 0d3e 289c 64be 8bda 5bbe
00000060: e5fe 653e 2b45 563d a69d 993e f098 d23d
00000070: c923 803e a644 743e afbe 24be a862 63bc
00000080: 0295 153f ac7c 0c3e d762 c83c 6876 d7be
00000090: 2da8 4bbe 556d fcbe 3f72 8cbe 0771 593d
000000a0: 39a3 8b3e a35b 84bb 74c1 46be aab6 713d
000000b0: a8eb c03e 7fa1 d0be b175 9e3e 9264 0bbd
000000c0: b4a9 57be f300 1a3e 52fd 9c3d 9aea 9c3e
000000d0: 7043 d83c 7f31 bfbd bc73 27be f814 9abe
000000e0: 4f63 08bf 9c91 133e 0fef 1fba 7990 273f
000000f0: 5edf 00be d42b 0b3a b523 eb3d e512 1dbd
00000100: bda7 543e a553 8bbd 7960 03be fdfb 6ebe
00000110: 2c32 71be 9841 97bf c90d a3bd 6c5a 4dbf
00000120: 59db c0bd 392e 46be 0590 b1bc 2c11 3cbe
00000130: 8f5b 6d3e 1658 c7ba df32 0b3f 448c f3be
00000140: 97dc 2ebf a468 2abe 0b19 9f3d 8f04 a5be
00000150: e2a8 90be 95cf 7fbe 55b7 03bf ad80 2c3f
00000160: dc6a b73c 4781 e5be c734 44bf f261 02bb
00000170: 6171 42bf 7af4 883e de11 2c3d 37df fb3e
00000180: 0ba1 56bf 7bd9 5fbf f543 143e 9c4d 2abd
00000190: b0b9 75bd d5e3 be3e 5cd6 0b3d e3cd 4b3d
000001a0: 0fd1 d73e 08fe 11bf 01d2 543e 931c 3ebf
000001b0: b449 55bf e923 953d 581a 5abd a5a6 e8be
000001c0: f56f 2d3d 42a4 30bf 75f7 16be c0f6 08bf
000001d0: ac2a 09bc 2793 2fbe 291e c53e 4dee 003f
000001e0: c27d 3c3e f09b 41bf 2834 20be 5a95 82bc
000001f0: b3f7 a03e dbdf d4be 3137 c3be 741d 27be
00000200: 5f11 013e fd1c 0ebe dee0 c7ba 14c5 483e
00000210: 7ea0 6abe 5087 373f 37a9 273f 30c7 de3e
00000220: 7027 bdbd 96b2 043e a0c0 bdbc e048 683e
00000230: 2746 d5bb 16f1 13bd acc6 89bd dde7 503e
00000240: 94f6 283e d362 2c3e 61bd fbbd 03d4 c13d
00000250: edc0 cb3c ac5b fb3d cf52 ad3e bb8a 01bf
00000260: 9037 543e d3bc dd3e bb6e 2d3f d7b6 173e
00000270: 915a d63e 9c37 983d de9e 50be 4480 a6be
00000280: 398a fd3e 4365 8e3e 7d9e 333e c482 febd
00000290: 8c9f 033d e6f6 27bf bb15 2d3d 475d b8bc
000002a0: db65 613e 7249 d93e 08f9 36bd b315 943e
000002b0: fa84 0d3e a777 d9be 0785 063f 3c1e 8a3d
000002c0: 00ff 083f fd6f 243e 5ab0 003e 69c9 803e
000002d0: 8c94 fd3d 88aa 573e 7514 06be 3364 2ebf
000002e0: 9ae3 42be 404a bf3e e571 5e3e fb98 483e
000002f0: 040b 0b3d fe5b e03d 2462 393e 8f57 51bc
00000300: d352 563e 5111 cabe 95b6 d8bd c599 803c
00000310: a71a ecbe f86d ce3e d840 b03e dcae e43d
00000320: fe05 55bf 7999 843b 2c6f a23d b65c eabc
00000330: e600 0ebe d0e5 d33e da97 1a3e 0cf7 9d3d
00000340: 2399 8c3e b4e7 423e 9685 ac3a cc61 4c3e
00000350: eafd a93e 31d4 1f3e 1589 02bf 61d3 683e
00000360: ce13 17be 7ec5 7c3e fa47 b03e 6034 843e
00000370: bc8d 1a3f eb6a 3ebe 17e8 55bd fd7a 49be
00000380: 60b0 a23e f937 c53e 5beb b03e 2b78 933d
00000390: 1424 d7bd 39cc 933b ce43 8abe 2af8 25bc
000003a0: 1f32 69bd 87f9 fa3e 3d9b dfbd 0ed7 b83e
000003b0: b580 023f 9c68 1cbf c229 ca3e b32a 0f3f
000003c0: 1f05 54be 0c39 b43e fd4c b5be 9d94 f53e
000003d0: 18cd 2c3d 3a9a dbbe 631d f03e 1e84 0d3e
000003e0: 5da0 0a3e 4da4 8c3e 751d 83bc b14f 523f
000003f0: 44c6 673c e590 82bd 1afb 22be 9ed0 753e

bn2.weight f4 [64]
0.46734235 0.9824857 0.5099141 0.742452 0.56963634 0.47298402 1.0453933 1.2948453
1.0050187 1.3529001 0.9837775 0.81316674 0.7596761 0.53393716 0.9766653 1.306326
1.1993611 0.7780792 1.2788517 1.3191166 1.2776496 1.2395562 0.9123117 1.4013932
1.0043607 0.993049 1.3245354 1.162326 0.8264902 1.1356632 1.3904065 0.74739987
1.0888886 0.42915604 1.0896708 0.6058667 0.6992341 1.1508129 1.3813571 0.5103853
0.5616817 1.0650696 0.49185395 0.9733411 0.89547515 0.66366136 0.47708094 1.149754
0.7725014 1.2177432 1.2324226 0.88345486 1.3549237 0.61822253 0.81573087 0.5839788
0.95467466 0.94887817 1.0748641 0.50727123 0.9226002 0.40153724 0.58426994 0.9829217
00000000: 7f47 ef3e 2f84 7b3f bb89 023f 5611 3e3f
00000010: b0d3 113f f62a f23e 73cf 853f 7ebd a53f
00000020: 74a4 803f d52b ad3f d8d8 7b3f b22b 503f
00000030: 227a 423f 1bb0 083f bd06 7a3f b135 a73f
00000040: aa84 993f 3330 473f 6ab1 a33f d0d8 a83f
00000050: 068a a33f c7a9 9e3f 428d 693f da60 b33f
00000060: e48e 803f 7638 7e3f 608a a93f 19c7 943f
00000070: dd94 533f 695d 913f d7f8 b13f 9955 3f3f
00000080: b460 8b3f 57ba db3e 557a 8b3f 141a 1b3f
00000090: 0201 333f d64d 933f 4fd0 b03f 9ca8 023f
000000a0: 5fca 0f3f 3354 883f 48d4 fb3e e22c 793f
000000b0: dc3d 653f b6e5 293f f443 f43e 242b 933f
000000c0: a7c2 453f 02df 9b3f 06c0 9d3f 192a 623f
000000d0: 246e ad3f d543 1e3f bdd3 503f a27f 153f
000000e0: 8f65 743f aee9 723f 2695 893f 87dc 013f
000000f0: 872f 6c3f 4a96 cd3e b792 153f c2a0 7b3f

bn2.bias f4 [64]
-0.4208752 -0.0029407567 0.092925996 -2.1704361 -0.27823678 -0.23182966 -2.0274556 -0.92078435
-0.005138256 -0.6560959 -0.27416527 -1.8778226 -0.17491308 0.01854729 -0.35416532 -0.48290536
-0.44615486 -0.014408317 -1.0123578 -1.030013 -1.246882 -0.8413285 -0.2792748 -0.85022473
-0.8001808 -0.80410475 -0.87824553 -0.88582563 -2.2143552 -2.8644633 0.0802697 -1.423052
-0.19900455 -0.16962035 -0.52102953 -0.078182675 -0.0070514306 -0.68015355 -1.2620381 -0.107618146
-0.4075134 -0.33633578 0.1284503 -0.2135122 0.020942207 0.08369918 -0.18121533 -1.040723
-0.3478716 -0.33733982 -0.26536524 -0.07870959 -1.2375442 -0.53403693 -0.055967193 -0.40861169
0.37233344 -1.6259937 -0.8068895 -0.032872513 -0.95594585 -0.13168938 -1.2024926 0.004370768
00000000: f47c d7be b6b9 40bb fc4f be3d 6de8 0ac0
00000010: 0d75 8ebe c164 6dbe d5c1 01c0 86b8 6bbf
00000020: d15e a8bb e7f5 27bf 645f 8cbe 7e5c f0bf
00000030: 6a1c 33be 7cf0 973c 2855 b5be 5f3f f7be
00000040: 696e e4be dd10 6cbc f194 81bf 77d7 83bf
00000050: d499 9fbf 4e61 57bf 1bfd 8ebe 54a8 59bf
00000060: a6d8 4cbf cfd9 4dbf b3d4 60bf 78c5 62bf
00000070: ffb7 0dc0 5e53 37c0 7164 a43d 9126 b6bf
00000080: d9c7 4bbe f5b0 2dbe 3162 05bf 3d1e a0bd
00000090: b00f e7bb 8b1e 2ebf 778a a1bf e766 dcbd
000000a0: 99a5 d0be 3434 acbe 7a88 033e f1a2 5abe
000000b0: fe8e ab3c 7a6a ab3d 8390 39be 6936 85bf
000000c0: 3a1c b2be ceb7 acbe f4dd 87be 7e32 a1bd
000000d0: d967 9ebf a5b6 08bf db3d 65bd 8d35 d1be
000000e0: 7da2 be3e 9020 d0bf 4f90 4ebf 54a5 06bd
000000f0: deb8 74bf 95d9 06be 47eb 99bf a938 8f3b

bn2.running_mean f4 [64]
-0.08409407 -0.8183202 0.6363639 0.38297617 0.7140018 0.2760926 0.36791766 -0.76134986
-0.5714853 -0.7663664 -0.8042817 0.121076524 -0.51935965 0.49846223 0.0351597 -0.4274714
-0.6218095 -0.6203486 -1.1324778 -0.7864006 -1.0046686 -0.90904593 0.07885488 -0.8206275
-0.0009173809 0.1844523 -0.6592869 -1.1332271 0.20474358 0.53150207 -0.527717 0.15294409
-0.6305144 0.52869374 -0.9468323 -0.3898077 0.39681634 -0.7136204 -1.0128415 0.563056
0.6331312 0.07760695 0.51080626 -0.67263126 -0.4443082 0.41558737 0.69219124 -0.9590601
0.04118533 -0.6936758 -0.5144851 -0.5547554 -0.94781744 -0.07026465 -0.931612 0.10912221
-0.4633081 -0.09882213 -0.12884173 0.47085384 0.19128127 0.6269215 0.4543435 -0.47606134
00000000: 8339 acbd 6f7d 51bf bfe8 223f 7415 c43e
00000010: d2c8 363f 025c 8d3e b45f bc3e d3e7 42bf
00000020: dc4c 12bf 9730 44bf 68e5 4dbf f8f6 f73d
00000030: c1f4 04bf 7136 ff3e 9e03 103d 88dd dabe
00000040: e82e 1fbf 2acf 1ebf 08f5 90bf 8d51 49bf
00000050: fb98 80bf 3cb7 68bf ab7e a13d a514 52bf
00000060: 647c 70ba 10e1 3c3e 07c7 28bf 960d 91bf
00000070: 4da8 513e 8510 083f 7618 07bf 609d 1c3e
00000080: 6469 21bf 7958 073f 9a63 72bf e094 c7be
00000090: 832b cb3e d4af 36bf caa4 81bf 7024 103f
000000a0: e314 223f 65f0 9e3d 33c4 023f 9031 2cbf
000000b0: 5d7c e3be dec7 d43e 7233 313f f684 75bf
000000c0: f3b1 283d bd94 31bf 4cb5 03bf 7304 0ebf
000000d0: 2aa4 72bf eae6 8fbd 207e 6ebf 777b df3d
000000e0: b836 edbe 4263 cabd 16ef 03be c113 f13e
000000f0: 3ddf 433e ed7d 203f b69f e83e 50be f3be

bn2.running_var f4 [64]
0.15221047 0.78324693 0.3931494 0.2975704 0.43893483 0.2298123 0.16698141 1.1089917
0.43442678 1.2589387 0.27109325 0.18369368 0.31313613 0.34110022 0.37781245 0.61949694
0.48756593 0.55753016 1.6420071 0.7432642 1.5358053 1.4869628 0.37199515 1.3802406
0.14800923 0.18809797 0.8467085 0.7296226 0.20760378 0.09630177 0.6941631 0.1820226
0.32200527 0.323896 0.8334147 0.2716638 0.34223697 1.219263 1.8205264 0.28077033
0.32806486 0.10941049 0.3090364 0.45641628 0.41329908 0.3429153 0.3019962 0.6670287
0.126449 0.83455366 0.9517019 0.4247955 1.595773 0.1593521 0.41255933 0.18239358
0.60392374 0.292515 0.14973727 0.37264025 0.13970177 0.29152665 0.263107 0.5066709
00000000: 10dd 1b3e df82 483f e14a c93e 265b 983e
00000010: 11bc e03e ea53 6b3e 2dfd 2a3e 71f3 8d3f
00000020: 306d de3e e724 a13f bccc 8a3e 321a 3c3e
00000030: 6153 a03e b0a4 ae3e a270 c13e 5a97 1e3f
00000040: 3ea2 f93e 4cba 0e3f 4a2d d23f 9046 3e3f
00000050: 4595 c43f cc54 be3f 2676 be3e b9ab b03f
00000060: bb8f 173e c19c 403e e3c1 583f 8cc8 3a3f
00000070: 1696 543e dd39 c53d acb4 313f 2264 3a3e
00000080: e0dd a43e b2d5 a53e aa5a 553f 8517 8b3e
00000090: af39 af3e cf10 9c3f 0207 e93f 21c1 8f3e
000000a0: 1ef8 a73e 9b12 e03d 053a 9e3e 65af e93e
000000b0: f09b d33e 9892 af3e 3f9f 9a3e 65c2 2a3f
000000c0: d97b 013e 4fa5 553f bca2 733f cc7e d93e
000000d0: 4a42 cc3f 322d 233e fa3a d33e 62c5 3a3e
000000e0: bf9a 1a3f 87c4 953e ba54 193e b4ca be3e
000000f0: fb0d 0f3e fb42 953e f6b5 863e 2fb5 013f

fc1.weight f4 [64, 64]
0.041291215 -0.18599327 -0.10751951 -0.20930701 -0.24094553 -0.12705651 0.05450918 0.6163502
-0.13117678 0.40173307 -0.22025318 -0.0577226 0.18972789 -0.43677327 -0.9054121 0.11046479
0.004960615 0.07474807 0.7301216 0.5097314 1.0354218 0.438699 -0.8902171 0.42639968
-0.21315202 -0.020090697 0.29057077 0.3824963 0.122447215 -0.0055656885 -0.35626695 0.051347
0.34721896 -0.22302331 0.21280822 -0.04408328 -0.52677643 0.35260767 0.9965877 -0.3987979
-0.20604119 0.18378307 -0.20660649 0.0035786924 0.21996106 -0.39595553 -0.13645916 0.51744145
-0.20138681 0.43606275 0.24429916 0.41261357 0.74999255 0.13540523 0.045863062 0.054760423
-0.65813196 0.48982164 -0.124101266 -0.35379905 0.49343854 -0.115915224 -0.31333882 0.20703763
-0.16209106 -0.09648851 -0.2429095 -0.34012383 -0.09217664 -0.10807902 -0.10681661 -0.24540965
0.000539073 -0.23436545 -0.055759143 -0.42208648 0.0722722 -0.09908723 -0.14742586 -0.19920163
0.014976071 0.14136466 -0.21785955 -0.25433004 -0.45685813 -0.12276077 -0.08890956 -0.22259082
-0.08111285 -0.93551815 -0.23639284 0.108246125 -0.29517302 0.023466576 -0.038576 -0.027461166
0.010970629 -0.013111723 0.050530646 -0.035659645 0.20369926 0.0017802081 -0.2982411 0.028893193
-0.13537706 -0.90413344 -0.13485461 -0.00023732582 0.06321692 -0.018463084 0.117900714 -0.13213624
-0.05459646 -0.1690495 -0.069316745 -0.038176168 -0.26024422 0.10549401 0.011517745 -0.21119054
0.002035603 -0.19402888 -0.1254614 -0.14001831 0.02775406 0.0028969573 -0.31585908 0.017294383
-0.11334671 0.042102944 -0.019973028 0.14291553 0.02720578 0.066078216 0.12587261 -0.42626807
-0.052780364 -0.6535046 -0.0032349555 0.10300316 -0.6732815 0.07917446 0.15294334 -0.49210814
-0.4418072 -0.11313335 -0.31225246 -0.5868553 -0.60634655 -0.52328354 0.040960867 -0.4843548
-0.11073721 -0.09457753 -0.5286969 -0.23703523 0.13008519 0.34656394 -0.63584775 -0.044476986
-0.24909905 -0.110724226 -0.587006 -0.30397278 -0.120298624 -0.67521214 -0.5037901 -0.20280573
0.0051405714 -0.093351096 -0.15785922 -0.31231016 -0.22133906 0.025024354 0.13523029 -0.42741466
-0.08814185 -0.70798415 -1.023831 -0.06320259 -0.29995388 0.026899738 -0.36485815 -0.11823252
-0.5578904 0.19345246 -0.061341625 -0.07673997 0.05243514 -0.01724862 -0.090767756 -1.1501887
-0.17373492 0.035831656 -0.17741616 0.11892365 -0.099156715 -0.099035695 0.0061501735 0.3932453
0.005635175 0.33753493 0.3574671 0.24603094 0.0065958006 -0.26263577 -0.22827661 0.35075718
0.3639417 -0.07960279 0.9755785 0.49774057 1.0356758 0.45465425 -0.4105048 0.12805955
-0.4478304 -0.068418 0.28714478 0.59182096 0.31349668 -0.1675757 -1.0039673 0.10675288
-0.54493123 -0.108928435 0.20100269 0.020922026 -0.44787675 0.20314766 0.74736 -0.36521924
-0.3578633 -0.44304594 -0.3998838 0.09175395 0.26568073 -0.42205578 -0.1886785 0.37646475
-0.25248802 0.18286413 -0.035894897 -0.12289707 0.7028226 -0.14342462 0.18048453 -0.052274868
0.193185 0.18487288 -0.45816728 -0.23854758 0.16787654 -0.07332673 -0.016453808 0.12830867
00000000: fa20 293d 0575 3ebe 3033 dcbd 9454 56be
00000010: 6dba 76be 1a1b 02be 0545 5f3d 20c9 1d3f
00000020: 3553 06be f5af cd3e 0d8a 61be 886e 6cbd
00000030: 0748 423e bfa0 dfbe 16c9 67bf 5d3b e23d
00000040: a88c a23b 8415 993d 40e9 3a3f c27d 023f
00000050: b488 843f 289d e03e 45e5 63bf 0f51 da3e
00000060: 8644 5abe 3f95 a4bc b1c5 943e 8ed6 c33e
00000070: 9bc5 fa3d 6160 b6bb 9f68 b6be 3b51 523d
00000080: afc6 b13e 3960 64be 66ea 593e ab90 34bd
00000090: d2da 06bf fe88 b43e 5f20 7f3f 3d2f ccbe
000000a0: 76fc 52be a131 3c3e a790 53be 7f88 6a3b
000000b0: 793d 613e afba cabe f3bb 0bbe 0b77 043f
000000c0: 5838 4ebe 9e43 df3e 8f29 7a3e 1642 d33e
000000d0: 83ff 3f3f aba7 0a3e e8da 3b3d 774c 603d
000000e0: 567b 28bf e7c9 fa3e ce28 febd 2625 b5be
000000f0: faa3 fc3e f664 edbd f26d a0be ac01 543e
00000100: 33fb 25be c59b c5bd 45bd 78be b624 aebe
00000110: 1bc7 bcbd 8958 ddbd abc2 dabd ab4c 7bbe
00000120: 9450 0d3a 7ffd 6fbe b363 64bd b81b d8be
00000130: 7203 943d 3fee cabd cef6 16be 83fb 4bbe
00000140: 325e 753c e6c1 103e 9316 5fbe 8c37 82be
00000150: 4fe9 e9be 006a fbbd 3716 b6bd d9ee 63be
00000160: 7e1e a6bd 1e7e 6fbf f710 72be 25b0 dd3d
00000170: eb20 97be fa3c c03c de01 1ebd 3df6 e0bc
00000180: 27be 333c 8dd2 56bc 39f9 4e3d d90f 12bd
00000190: 8a96 503e df55 e93a 0fb3 98be 6bb1 ec3c
000001a0: 49a0 0abe 4a75 67bf 5417 0abe aada 78b9
000001b0: df77 813d e53f 97bc ee75 f13d b94e 07be
000001c0: 8aa0 5fbd 501b 2dbe f0f5 8dbd 9d5e 1cbd
000001d0: bb3e 85be 3e0d d83d edb4 3c3c 5542 58be
000001e0: c067 053b 82af 46be f478 00be f660 0fbe
000001f0: 7c5c e33c e1da 3d3b 48b8 a1be f3ac 8d3c
00000200: 5222 e8bd 2374 2c3d 7a9e a3bc 7358 123e
00000210: a8de de3c 0454 873d c0e4 003e cf3f dabe
00000220: 3930 58bd 144c 27bf 8c01 54bb 52f3 d23d
00000230: 2d5c 2cbf 3826 a23d 2e9d 1c3e 99f5 fbbe
00000240: 8e34 e2be 75b2 e7bd 8edf 9fbe 263c 16bf
00000250: 8739 1bbf e9f5 05bf 95c6 273d 5afd f7be
00000260: 31ca e2bd ddb1 c1bd ae58 07bf 5db9 72be
00000270: 0d35 053e d470 b13e ebc6 22bf 802d 36bd
00000280: d213 7fbe 62c3 e2bd 0646 16bf 52a2 9bbe
00000290: 205f f6bd b4da 2cbf 63f8 00bf 4eac 4fbe
000002a0: 3d72 a83b dc2e bfbd d9a5 21be 1ee7 9fbe
000002b0: b5a6 62be e0ff cc3c cf79 0a3e 18d6 dabe
000002c0: b783 b4bd 733e 35bf e50c 83bf 5c70 81bd
000002d0: 8e93 99be d75c dc3c b0ce babe e423 f2bd
000002e0: e8d1 0ebf 6718 463e 5b41 7bbd d829 9dbd
000002f0: 3bc6 563d fa4c 8dbc 72e4 b9bd 6239 93bf
00000300: 91e7 31be 37c4 123d 95ac 35be 3e8e f33d
00000310: ad12 cbbd 3ad3 cabd 6587 c93b 7357 c93e
00000320: 46a7 b83b 61d1 ac3e ed05 b73e 89ef 7b3e
00000330: 9621 d83b 3278 86be 58c1 69be 7296 b33e
00000340: 9156 ba3e ca06 a3bd 83bf 793f dad7 fe3e
00000350: 0691 843f 71c8 e83e af2d d2be 0b22 033e
00000360: 074a e5be bd1e 8cbd a404 933e 9481 173f
00000370: a382 a03e f798 2bbe 0082 80bf 41a1 da3d
00000380: 9d80 0bbf df15 dfbd a6d3 4d3e ab64 ab3c
00000390: 1a50 e5be f105 503e fc52 3f3f 04fe babe
000003a0: dc39 b7be ebd6 e2be 92bd ccbe 7fe9 bb3d
000003b0: 4e07 883e b217 d8be f034 41be fdbf c03e
000003c0: 1c46 81be bc40 3b3e 8706 13bd 76b1 fbbd
000003d0: 2fec 333f e7dd 12be f0d0 383e 2c1e 56bd
000003e0: 4ad2 453e 514f 3d3e e794 eabe d145 74be
000003f0: d4e7 2b3e 532c 96bd 23ca 86bc 5963 033e

fc1.bias f4 [64]
1.3273331e-05 -1.2089903e-05 -2.6477139e-05 0.00018876574 0.00013947586 7.2122275e-06 7.4927855e-05 0.00018212298
1.8607152e-05 0.00059813313 -0.00021918406 -7.4733805e-05 0.00021984764 -3.570287e-06 4.1479725e-05 -1.9626974e-05
1.7341717e-05 0.00020302543 -5.1844094e-05 -1.0205633e-06 0.00040311273 -3.2116695e-05 8.056863e-05 1.5008268e-07
0.00033339259 -9.960833e-06 2.0599762e-05 1.7494209e-05 9.376696e-05 -3.4067063e-05 9.087021e-05 8.5408334e-05
4.9800515e-06 9.753228e-05 -8.288061e-06 4.148015e-05 3.4526503e-05 5.724452e-07 -1.7513776e-06 0.00014111966
-1.1214268e-05 -5.516923e-07 3.64631e-05 -6.0832066e-05 -2.6567108e-05 -0.0001584743 -3.7408725e-05 -1.0299391e-06
0.00022398432 -2.9738188e-05 0.0001024178 2.8437153e-05 0.00010873979 1.4763683e-05 -1.739549e-06 -1.683825e-05
-1.1230728e-05 2.7669332e-05 2.9476967e-06 -4.297927e-05 -2.4467267e-06 -2.6627617e-05 0.00010691085 -0.00010704213
00000000: 86b0 5e37 bdd5 4ab7 391b deb7 6bef 4539
00000010: 4440 1239 9000 f236 9622 9d38 44f8 3e39
00000020: 8e16 9c37 09cc 1c3a c6d4 65b9 68ba 9cb8
00000030: e786 6639 1099 6fb6 84fa 2d38 9ba4 a4b7
00000040: 0e79 9137 39e3 5439 2c73 59b8 4afa 88b5
00000050: e058 d339 0ab5 06b8 f4f6 a838 6a26 2134
00000060: 32cb ae39 741d 27b7 a7cd ac37 87c0 9237
00000070: c1a4 c438 3be3 0eb8 9391 be38 401d b338
00000080: 511a a736 3e8a cc38 f30c 0bb7 f9fa 2d38
00000090: 8dd0 1038 22aa 1935 e010 ebb5 85f9 1339
000000a0: ea24 3cb7 0218 14b5 f5ef 1838 ef25 7fb8
000000b0: 6edc deb7 1f2c 26b9 50e7 1cb8 703c 8ab5
000000c0: 55dd 6a39 4676 f9b7 23c9 d638 528c ee37
000000d0: 3b0b e438 89b1 7737 737a e9b5 de3f 8db7
000000e0: 9c6b 3cb7 701b e837 0bd1 4536 a444 34b8
000000f0: 7232 24b6 5f5e dfb7 5335 e038 ce7b e0b8

bn3.weight f4 [64]
1.0941261 0.7121526 0.5511348 1.0312426 0.63124883 1.0468122 0.59526145 0.58780885
0.66522366 1.0103781 0.5855119 1.0562445 0.7107054 0.58548456 0.86731434 0.5976374
0.55267096 0.88913375 1.037797 0.7027168 1.0964415 0.7262156 0.8156225 0.5196505
0.554326 1.1432335 0.7299977 0.58223206 0.6006115 1.0120304 0.60503 0.79411733
0.66499746 1.1368849 0.6674829 0.67031133 0.45214683 0.5575821 0.59125346 0.99223655
0.4327012 0.5586399 0.46336135 0.8603669 0.8339012 0.64498967 0.67947876 0.5862754
0.5692753 0.594556 1.0623155 1.0736434 1.0145625 0.43097416 0.5917298 0.93243635
0.5502268 0.63272053 0.5915955 0.48821494 0.6456276 0.72444916 0.8081126 0.8040721
00000000: 530c 8c3f a24f 363f 2c17 0d3f c2ff 833f
00000010: 8699 213f f1fd 853f 0e63 183f a47a 163f
00000020: 194c 2a3f 1254 813f 1ce4 153f 0533 873f
00000030: caf0 353f 51e2 153f 5008 5e3f c4fe 183f
00000040: d87b 0d3f 459e 633f 88d6 843f 40e5 333f
00000050: 3258 8c3f 44e9 393f a3cc 503f d107 053f
00000060: 4fe8 0d3f 7a55 923f 21e1 3a3f 290d 153f
00000070: adc1 193f 368a 813f 3fe3 1a3f 464b 4b3f
00000080: 463d 2a3f 7285 913f 29e0 2a3f 8699 2b3f
00000090: ca7f e73e b3bd 0e3f 635c 173f 3703 7e3f
000000a0: 038b dd3e 0603 0f3f b33d ed3e 0141 5c3f
000000b0: 8d7a 553f 0b1e 253f 52f2 2d3f 2516 163f
000000c0: 07bc 113f d234 183f f4f9 873f 266d 893f
000000d0: 2fdd 813f a5a8 dc3e 9b7b 173f 26b4 6e3f
000000e0: aadb 0c3f f9f9 213f cd72 173f 4ff7 f93e
000000f0: da47 253f 8075 393f 78e0 4e3f abd7 4d3f

bn3.bias f4 [64]
0.09685504 -0.50223655 -0.23662265 -0.10248846 -0.14899485 0.15223862 -0.45864546 -0.2399407
-0.4580172 -0.30115524 -0.48436403 -0.19026712 -0.3783685 -0.4675082 -0.48135692 -0.3331693
-0.41828328 -0.1890537 -0.13946645 -0.41213182 0.14201504 -0.30599704 -0.34567356 -0.4102739
-0.34625486 -0.07296158 -0.5843457 -0.3558986 -0.29762486 0.0054579433 -0.3621337 -0.27646652
-0.574518 0.060921934 -0.46653625 -0.39097834 -0.49971402 -0.5053797 -0.48748207 -0.22619765
-0.50661427 -0.5154354 -0.45061 -0.62648225 -0.407829 -0.31017599 -0.28977647 -0.47073132
-0.24958153 -0.24494275 -0.18734701 -0.12637888 -0.44349846 -0.39543223 -0.2953369 -0.019754758
-0.3942313 -0.2638669 -0.46193525 -0.4711006 -0.45979372 -0.12618135 -0.24648972 -0.48540464
00000000: ef5b c63d 9392 00bf 354d 72be 78e5 d1bd
00000010: 1b92 18be 71e4 1b3e 94d3 eabe 04b3 75be
00000020: 3b81 eabe 0531 9abe 90fe f7be 62d5 42be
00000030: 84b9 c1be 3c5d efbe 6a74 f6be 2b95 aabe
00000040: 3a29 d6be 4b97 41be 4bd0 0ebe f102 d3be
00000050: 646c 113e a5ab 9cbe 20fc b0be 6c0f d2be
00000060: 5148 b1be e16c 95bd ae97 15bf 5738 b6be
00000070: 4962 98be 8cd8 b23b 9769 b9be 058d 8dbe
00000080: 9d13 13bf 4789 793d d7dd eebe 502e c8be
00000090: 84da ffbe 9060 01bf 4097 f9be 5ba0 67be
000000a0: 79b1 01bf 93f3 03bf 5bb6 e6be 2461 20bf
000000b0: f6ce d0be 63cf 9ebe 955d 94be b203 f1be
000000c0: 4d92 7fbe 46d2 7abe e5d7 3fbe 7769 01be
000000d0: 3b12 e3be 1876 cabe 6636 97be bbd4 a1bc
000000e0: afd8 c9be 9019 87be c782 ecbe 1934 f1be
000000f0: 156a ebbe af35 01be cd67 7cbe f586 f8be

bn3.running_mean f4 [64]
-0.9321593 -0.6240361 -2.5852742 -0.8651608 -1.443911 0.5566441 -2.4106665 -1.9293127
-0.6889821 -0.21941522 -2.6276963 -0.504951 -1.0513567 -0.9563952 -0.45008865 -1.9062244
-0.93429506 -0.44485474 0.39334303 -0.5763278 -1.550312 -0.19144489 -0.56435776 -0.6151274
-2.0880299 -0.9822566 -0.78926027 -1.2462642 -2.105459 0.560933 -1.5025172 -0.5327258
-0.44872734 -1.0574286 -0.53022027 -1.0268039 -1.9338324 -0.91842276 -2.755354 -0.63377064
-2.3400004 -0.8464624 -0.86654425 -0.50735754 -0.31344137 -0.70327276 -0.13680801 -1.0036396
-2.5527844 -0.7152917 -0.3879116 -0.14063573 -0.64284325 -0.8227869 -1.0175126 0.06640917
-0.2335164 -1.1465726 -1.2135983 -1.9774513 -0.5436295 0.070812546 -0.21433039 -0.25381136
00000000: fea1 6ebf d4c0 1fbf 2275 25c0 2e7b 5dbf
00000010: 13d2 b8bf 3a80 0e3f 5c48 1ac0 b8f3 f6bf
00000020: 2261 30bf 62ae 60be 2d2c 28c0 7844 01bf
00000030: db92 86bf 51d6 74bf 0572 e6be 29ff f3bf
00000040: f62d 6fbf 00c4 e3be 4264 c93e 388a 13bf
00000050: a070 c6bf 210a 44be c079 10bf fd78 1dbf
00000060: 48a2 05c0 2b75 7bbf f60c 4abf 9685 9fbf
00000070: d7bf 06c0 4e99 0f3f 7c52 c0bf b860 08bf
00000080: 97bf e5be d259 87bf 84bc 07bf 4f6e 83bf
00000090: d287 f7bf c11d 6bbf b857 30c0 cb3e 22bf
000000a0: 91c2 15c0 c3b1 58bf d8d5 5dbf 2fe2 01bf
000000b0: 637b a0be af09 34bf 6617 0cbe 4377 80bf
000000c0: d260 23c0 5b1d 37bf 599c c6be d002 10be
000000d0: 6091 24bf 2aa2 52bf da3d 82bf 8801 883d
000000e0: ec1e 6fbe e4c2 92bf 3057 9bbf 201d fdbf
000000f0: 4e2b 0bbf 2b06 913d 6d79 5bbe 90f3 81be

bn3.running_var f4 [64]
6.0580153 3.6186724 3.563091 3.8978636 3.796143 5.6482806 4.871664 4.0095806
3.0497222 0.7003714 4.0718265 5.8316555 3.017502 5.8709593 0.8220006 3.490356
3.5262842 2.7444448 5.9064083 4.00209 5.2383513 5.357669 1.0323508 1.1188128
2.719068 4.359766 2.4730828 4.038453 3.8488798 6.739734 3.7274404 4.580286
3.6982255 5.453117 3.467813 4.200165 2.2318966 3.604251 5.5844016 3.4447353
2.8897772 1.5382671 2.288857 0.76850605 0.6327484 4.632321 5.2371726 3.7909439
4.371064 3.2939582 3.2056694 5.79425 1.0959752 3.2604651 4.1327405 6.155575
3.1746588 5.2967296 7.351743 3.3164933 3.5597272 7.9078283 1.3415385 0.661966
00000000: 43db c140 5498 6740 af09 6440 9976 7940
00000010: 02f4 7240 b7be b440 ace4 9b40 7c4e 8040
00000020: a62e 4340 8a4b 333f 674c 8240 ec9c ba40
00000030: c11e 4140 e6de bb40 a26e 523f fe61 5f40
00000040: a4ae 6140 fca4 2f40 4c01 bd40 1f11 8040
00000050: 93a0 a740 0672 ab40 1224 843f 4235 8f3f
00000060: 3605 2e40 3483 8b40 fd46 1e40 023b 8140
00000070: 0c54 7640 e7ab d740 628e 6e40 b491 9240
00000080: baaf 6c40 ef7f ae40 a6f0 5d40 c067 8640
00000090: 65d7 0e40 0cac 6640 6bb3 b240 8b76 5c40
000000a0: 1cf2 3840 f0e5 c43f a27c 1240 d0bc 443f
000000b0: cdfb 213f f93b 9440 eb96 a740 d39e 7240
000000c0: c2df 8b40 36d0 5240 b029 4d40 7f6a b940
000000d0: ea48 8c3f 76ab 5040 693f 8440 78fa c440
000000e0: 9c2d 4b40 cf7e a940 7b41 eb40 6d41 5440
000000f0: 92d2 6340 ee0c fd40 89b7 ab3f 9b76 293f

fc2.weight f4 [64, 64]
-0.52811366 0.035765395 -0.120583035 0.12336154 -0.061906982 -0.20652303 -0.10349217 0.00329441
0.017040983 -0.19671696 -0.10773542 0.08555848 0.008850146 0.07183111 0.09822443 -0.13450463
-0.13501702 0.23115873 -0.18842006 -0.08257388 0.13372426 -0.13392875 -0.031068986 -0.036476243
-0.06134583 0.007870764 -0.0028718065 0.014560407 -0.13180755 0.21986446 -0.036745213 -0.022657122
-0.1044899 -0.26529235 -0.06349775 -0.112518474 -0.078177266 -0.16013548 0.02308343 -0.37384218
-0.088518806 -0.034265697 -0.046309907 -0.0008158007 0.08551097 -0.028961549 -0.1283139 -0.07839824
0.0072725606 -0.09268563 -0.26693338 0.043173973 0.05377235 -0.016632592 -0.09361047 -0.01817228
-0.011012144 -0.056030054 0.053333007 0.044066142 0.041110884 0.013570578 -0.04391719 -0.068167485
-0.16844837 0.06283569 -0.50475836 0.060871817 -0.030636279 0.00702982 -0.12882073 -0.2216723
0.03713354 -0.11535453 -0.12030768 -0.20490548 -0.22239739 -0.058474414 -0.067463845 0.016486207
0.030781126 -0.13339396 -0.04585977 0.09165642 -0.19473565 -0.42206722 -0.010927189 0.031878553
-0.4571536 -0.028126793 -0.06969588 -0.4268029 -0.08029714 -0.22077167 -0.116295226 0.02963891
0.10764335 -0.20158784 0.28569636 -0.06591119 0.036246452 0.0038449608 -0.07169527 -0.15173548
-0.13476406 -0.07226785 -0.20727243 -0.065553606 0.022922438 -0.076044284 0.014323242 -0.024567321
-0.007373635 -0.42301056 -0.1671805 -0.13605712 -0.009583081 -0.044067066 0.026546646 0.014740133
0.061618105 -0.1413715 -0.09181347 -0.078040324 -0.073671505 -0.18000843 -0.13410144 -0.08464101
-0.34994075 -0.04548221 -0.13020937 -0.11111009 -0.13889775 0.2926509 0.039177705 -0.2533529
0.04206572 -0.05464323 0.022674693 0.08348807 -0.11424321 -0.0046275845 0.009254219 -0.13793063
-0.052850977 -0.0139530655 -0.29618555 -0.11941228 -0.19385274 -0.1996718 0.16362211 0.23683058
-0.24507757 -0.15803641 0.3196774 -0.12034733 -0.31204858 -0.35721204 -0.08768119 -0.2555362
-0.16304815 -0.29362673 0.013183354 -0.046410363 -0.1551638 0.027432542 -0.08375396 0.22079997
-0.14481437 0.10099411 -0.16975018 0.02549671 0.18261994 -0.10557246 -0.10041942 0.22025055
-0.24426408 -0.05835218 -0.06808882 -0.026217323 0.16540375 0.06294797 -0.15586811 0.2788777
-0.12288562 -0.32367194 0.13229488 -0.10513799 -0.22373311 -0.08957316 0.039184477 -0.01746665
-0.0032173002 -8.13392e-06 -0.00086302776 -0.0017732709 0.003677671 -0.0052024988 -0.0008162189 -0.0012703224
-0.003947877 -0.0039698742 -0.0014782462 -0.0018364232 -0.00011003566 -0.008567401 -0.0044706324 -0.0006671002
-0.00054219016 -0.004488454 -0.0033556437 0.00047267295 -0.011959696 -0.009252256 -0.000871625 -9.931369e-05
-0.009839034 -0.009753953 -0.0020206738 0.0021934658 -0.00018277434 -0.0029437223 -0.006613985 -0.0007872001
-0.006355066 -0.009024811 -3.3132797e-05 -0.006422381 -0.012140103 0.020280717 -0.0013804385 -0.0037726767
0.0067422474 -0.003599079 0.012426421 0.0029367928 0.028387679 -0.0007910021 -0.0013940535 -3.3554474e-07
-0.00024946965 -1.18469906e-07 -0.0036977604 -0.009660401 -0.0068682428 -0.017448526 -2.7069094e-05 -0.004673645
-0.0051936447 -0.004983288 0.0015541584 -0.0046931775 0.0040539275 -0.015129203 0.008719283 -0.0055745365
00000000: 7532 07bf bc7e 123d 3df4 f6bd faa4 fc3d
00000010: 2d92 7dbd c67a 53be b4f3 d3bd 07e7 573b
00000020: 8899 8b3c 2c70 49be 63a4 dcbd 4939 af3d
00000030: 3400 113c 301c 933d e429 c93d 95bb 09be
00000040: e741 0abe e0b4 6c3e 30f1 40be 7f1c a9bd
00000050: 03ef 083e 9e24 09be 6384 febc 1d68 15bd
00000060: c445 7bbd 60f4 003c eb34 3cbb c68e 6e3c
00000070: 8ff8 06be 2624 613e 2682 16bd 6e9b b9bc
00000080: cdfe d5bd 66d4 87be 1c0b 82bd 1670 e6bd
00000090: 671b a0bd 8efa 23be 7619 bd3c 3e68 bfbe
000000a0: 5949 b5bd 305a 0cbd 75af 3dbd 75db 55ba
000000b0: 6020 af3d c540 edbc b864 03be 428f a0bd
000000c0: a94e ee3b f7d1 bdbd 7eab 88be 31d7 303d
000000d0: 6540 5c3d 1341 88bc d9b6 bfbd 09de 94bc
000000e0: 486c 34bc c57f 65bd b673 5a3d b37e 343d
000000f0: e363 283d 2157 5e3c 83e2 33bd 659b 8bbd
00000100: bb7d 2cbe 00b0 803d d837 01bf ba54 793d
00000110: eff8 fabc 675a e63b 95e9 03be 10fe 62be
00000120: 5719 183d ff3e ecbd df63 f6bd bed2 51be
00000130: 24bc 63be de82 6fbd 7c2a 8abd 150e 873c
00000140: b328 fc3c 6d98 08be 74d7 3bbd 5cb6 bb3d
00000150: c868 47be 3219 d8be f407 33bc 1693 023d
00000160: 0910 eabe 296a e6bc b7bc 8ebd e985 dabe
00000170: d472 a4bd f811 62be 312c eebd 4dcd f23c
00000180: 1e74 dc3d 0b6d 4ebe cb46 923e 72fc 86bd
00000190: 2977 143d bdfb 7b3b f8d4 92bd 8c60 1bbe
000001a0: 97ff 09be 2b01 94bd 393f 54be f840 86bd
000001b0: d6c7 bb3c 1bbd 9bbd 08ac 6a3c 6841 c9bc
000001c0: 899e f1bb d794 d8be 5d31 2bbe 8f52 0bbe
000001d0: 5b02 1dbc ab7f 34bd 5a78 d93c 9980 713c
000001e0: 4463 7c3d b1c3 10be b308 bcbd 9bd3 9fbd
000001f0: 16e1 96bd 2154 38be e351 09be 4458 adbd
00000200: 6f2b b3be 8e4b 3abd 9b55 05be b08d e3bd
00000210: 363b 0ebe 57d6 953e cd78 203d 79b7 81be
00000220: 1b4d 2c3d 94d1 5fbd 47c0 b93c cbfb aa3d
00000230: 58f8 e9bd fea2 97bb 029f 173c b03d 0dbe
00000240: 447a 58bd 669b 64bc a2a5 97be 6d8e f4bd
00000250: 5581 46be c476 4cbe 8e8c 273e b783 723e
00000260: 9df5 7abe 4cd4 21be c2ac a33e a978 f6bd
00000270: d5c4 9fbe 7fe4 b6be 3292 b3bd a4d5 82be
00000280: 18f6 26be 3e56 96be fffe 573c cb18 3ebd
00000290: 42e3 1ebe 36ba e03c 3287 abbd 6319 623e
000002a0: 384a 14be 00d6 ce3d fed2 2dbe 7ade d03c
000002b0: b900 3b3e 6036 d8bd b2a8 cdbd 5c89 613e
000002c0: 5d20 7abe b202 6fbd 2772 8bbd b6c5 d6bc
000002d0: 9a5f 293e deea 803d e49b 1fbe 0fc9 8e3e
000002e0: 75ab fbbd 54b8 a5be 4f78 073e 9652 d7bd
000002f0: 4b1a 65be 2272 b7bd e77f 203d 3816 8fbc
00000300: 57d9 52bb ec76 08b7 d03c 62ba 196d e8ba
00000310: 1505 713b b979 aabb 86f7 55ba f280 a6ba
00000320: 315d 81bb b815 82bb b6c1 c1ba 23b4 f0ba
00000330: f2c2 e6b8 495e 0cbc 627e 92bb 56e0 2eba
00000340: c421 0eba e213 93bb 5cea 5bbb 17d1 f739
00000350: 9af2 43bc c696 17bc c37d 64ba a246 d0b8
00000360: e633 21bc 0bcf 1fbc 486d 04bb 40c0 0f3b
00000370: 1da7 3fb9 77eb 40bb 21ba d8bb 1b5c 4eba
00000380: 283e d0bb cddc 13bc 12f8 0ab8 d672 d2bb
00000390: 48e7 46bc bf23 a63c d4ef b4ba 033f 77bb
000003a0: 12ee dc3b 87de 6bbb 3098 4b3c 3577 403b
000003b0: 478d e83c 415b 4fba acb8 b6ba eb24 b4b4
000003c0: 40cb 82b9 8569 feb3 2056 72bb a946 1ebc
000003d0: ff0e e1bb 36f0 8ebc 7012 e3b7 6025 99bb
000003e0: 732f aabb d94a a3bb e7b4 cb3a 3ac9 99bb
000003f0: cfd6 843b 7ae0 77bc 53db 0e3c 9aaa b6bb

fc2.bias f4 [64]
-0.017000062 -0.08772984 0.05980492 -0.04838464 -0.017065281 -0.1519806 0.028795555 0.0106286155
-0.025362752 -0.092295654 0.58709544 -0.009736998 -0.03820638 0.1860666 0.013017281 0.16657495
-0.066800274 -0.019586083 -0.009721642 -0.01832361 -0.036679037 0.16013639 0.081015795 -0.013607143
-0.02574159 -0.1021563 -0.0866462 -0.023807682 -0.08191199 -0.01959575 -0.013551934 0.01712379
-0.20591368 0.070223644 0.021188786 -0.015024578 -0.008553671 0.00041633926 -0.021156339 -0.102390505
-0.014501957 0.007895155 0.23184702 0.26025566 0.1187039 -0.10905328 0.34058976 -0.055218995
0.16020198 0.026966587 -0.1172904 0.45538172 0.05383992 -0.08424572 -0.020825114 -0.07784573
0.09612044 0.08422958 0.064104445 -0.006791652 -0.15761141 0.01647931 -0.14386828 0.652753
00000000: b743 8bbc b4ab b3bd 01f6 743d f92e 46bd
00000010: 7dcc 8bbc cda0 1bbe a8e4 eb3c a523 2e3c
00000020: 8cc5 cfbc 8105 bdbd e34b 163f ee87 1fbc
00000030: 4b7e 1cbd 3e88 3e3e 6f46 553c a092 2a3e
00000040: 95ce 88bd fe72 a0bc 8647 1fbc 651b 96bc
00000050: c23c 16bd cbfa 233e 9ceb a53d 7ff0 5ebc
00000060: 07e0 d2bc 5237 d1bd 9073 b1bd 5408 c3bc
00000070: 79c1 a7bd 4487 a0bc ee08 5ebc 3147 8c3c
00000080: 09db 52be 6ad1 8f3d 1b94 ad3c a629 76bc
00000090: b224 0cbc 1c48 da39 0f50 adbc 1db2 d1bd
000000a0: 9e99 6dbc ae5a 013c 4e69 6d3e 3b40 853e
000000b0: 081b f33d 5357 dfbd c861 ae3e 502d 62bd
000000c0: fd0b 243e 08e9 dc3c f335 f0bd cb27 e93e
000000d0: 3f87 5c3d 0589 acbd 6e99 aabc 956d 9fbd
000000e0: cbda c43d 8f80 ac3d 3149 833d 828c debb
000000f0: e364 21be 9eff 863c 3552 13be d21a 273f
