data/gcn_pt_files/gcn2_lsoa_model.pt (torch, 6517 bytes, 5 tensors)

conv1.bias f4 [32]
00000000: 9439 37bf f666 49be f21b 28c0 5dd1 bcbf
00000010: 61e2 55bf 944c d8bf 5a5d 62bf 3e32 183f
00000020: 0fc4 18bf b30d 06bf 2796 05bf 89e3 00be
00000030: 75eb 1cbf 2de8 87bf 1648 cfbf ac17 50bf
00000040: 595e 1bbf 816a b4bf e77c d1be 02d1 93be
00000050: 9a7f 61bf 932b 29bf aa4d debe ced2 97bf
00000060: c3c7 89be ffcb 00bf 2913 f8be fdc7 7ebf
00000070: 47d8 d1bf a200 85bf cb8d e2bf 00cb d0be
-0.7157223 -0.19668183 -2.6267056 -1.4751393 -0.8354855 -1.689837 -0.88423693 0.59451663
-0.5967416 -0.52364653 -0.5218224 -0.12586798 -0.6129678 -1.061773 -1.6193874 -0.8128612
-0.6069084 -1.4095002 -0.40915605 -0.28870398 -0.8808533 -0.66082114 -0.43418628 -1.1861207
-0.2691022 -0.50311273 -0.48452118 -0.9952391 -1.6394128 -1.0390818 -1.7699522 -0.40779877

conv1.lin.weight f4 [32, 7]
00000000: 1abd 363e 436b 6bbf 0b6e 1b3e e31b 3ebe
00000010: 6375 b2bd af67 933e 4e77 0d3f efaa 4a3d
00000020: 04cd cabc 25da 93c0 de79 0b3d 4106 413d
00000030: ce99 c3bc 2b4d 2ebe 5950 663f c684 493f
00000040: f17d 133e f95f 1f3e f1d5 2fbe 9a91 783e
00000050: 28be 89be 8e57 e53d f979 1d3f 46cb a13d
00000060: 3019 3ebe 924b 99bf 3c43 8abe 7934 ea3d
00000070: 18e3 d6be e67d 183e aa5b 6cbe a123 2f3e
00000080: 7d60 9fbe 7b39 6dbe d6e5 90bd a099 a03f
00000090: bd01 b8bd 9db8 f1be 4203 59bf 2126 913b
000000a0: 6e7f febd 78d0 e93c 43f0 ec3c 321b 423d
000000b0: 4502 e03d cae7 16be d7a2 ecbe d012 2fbd
000000c0: 2c23 f03d 60c0 e93f b599 673f 60a5 72bd
000000d0: 96ec 453d c6c3 b2bd 341a 4abe 7716 493e
000000e0: 62d9 a03e e2d2 50be 9f23 a3be 05a0 32be
000000f0: bbe5 e7bd 6c03 9ebd 608b 78bc 6d2d 733f
00000100: ec62 733e 986a d63e 2107 98be 6444 aebd
00000110: 010c 0d3f c4ef a5be 3854 c63e dd38 64be
00000120: 0d3c 77be 0b40 17be 6bc7 07bd 662a c6bd
00000130: 7a42 2cbb 53f9 96bc 427a 3bbf 22a1 1540
00000140: 704d ea3c 5369 9d3c b12c 033d 3188 a13d
00000150: 53db 683e d214 d13e 0cd5 2ebf b093 22be
00000160: 03ce 543c 99fd 09be 402a 47bd 4705 ccbf
00000170: d25d 29bf 755d 23bf 50aa 00bf e585 2c3e
00000180: 63c2 0dbe 5841 b4be 13ef 003f 5f02 ef3e
00000190: 65a1 493f 7d6d 59be 4029 75bf d9fe a93e
000001a0: a527 1c3f 3ffb d23e b3cb 813d 15b1 fdbd
000001b0: ff4c cebc 987a 14be 97ec 983e 119e a33d
000001c0: 30d4 7e3e 8697 e5be 2c62 2cbe 4a04 f2bd
000001d0: 7148 88be 31b2 0dbe f7de 9c3d 5ea5 053f
000001e0: 4659 403e 33e6 f13d 9bb3 31be 75a6 febf
000001f0: 0b86 35bc 516b ff3d e108 6ebe b817 ccbe
00000200: 7151 ef3d 2b68 a93d 01eb a5bd bc12 73bc
00000210: 94c4 bc3d d4d6 493f 8fd2 7dbe df32 4dbf
00000220: a722 2a3e 5928 8dbe f2a7 973e 3949 e6be
00000230: b158 7a3e 6b23 bf3d 52fd b53d cdff 57be
00000240: 0f0d 87be e33a 883d d417 12be c53f 913e
00000250: 10be 99be 92d0 24bf 6bd5 9ebd af68 4ebe
00000260: 2983 b6bd b7e6 33bd b8b9 053e 6ac6 703f
00000270: dc3e 593e 58f1 cbbe 3c58 20be 1c69 613e
00000280: 32d2 ca3e a5cd 31bf d85c 12bf 9e8e bd3f
00000290: 0b21 8dbe acd4 1e3c a45d 4b3d 42af 51bd
000002a0: 3538 ae3e 686b 963e 6c2b f0be eff0 c63e
000002b0: 2899 233d 8b2d ea3e b8c6 663c 6c24 8f3f
000002c0: 0176 323e 7cdc dc3e bdbe f7be 34ba 5abe
000002d0: 2d89 4cbd a1fc 463f 6f3e 74bf 8a10 9bbf
000002e0: 3db0 9cbf 15be 1abf 0522 c8be 9046 283e
000002f0: e4e9 bc3d 9189 b5be 514f 88bf 5045 043f
00000300: 5b09 e33d 4417 4d3e e512 32be efb1 ca3d
00000310: 86ac 75bf 6b10 a23f b650 babd 8eed 5abe
00000320: a362 873d d92c 4d3e e042 203e b0cf d2be
00000330: 8763 91be 4ea3 863f 77d5 92be e13b a73d
00000340: ba12 343d f8fd 14bd aa81 a2bd 9810 16be
00000350: 4de3 0e3d 4f3f 833f 5622 e6bf d25f 623c
00000360: b843 233e e3ac ec3e a663 323d 312a be3f
00000370: cca9 a1be 50dc 65be b19b b83d 49e2 383d
0.17845574 -0.91960543 0.15178697 -0.18565325 -0.08713796 0.28790042 0.5526017 0.04947942
-0.024755962 -4.620379 0.03405177 0.047125105 -0.02387705 -0.17021625 0.8996635 0.7871822
0.14403512 0.15563954 -0.17171456 0.24274293 -0.2690289 0.1119834 0.6151424 0.079000995
-0.18564296 -1.1976187 -0.2700442 0.114357896 -0.41970134 0.14891776 -0.23081842 0.17103435
-0.31128302 -0.23166458 -0.07075088 1.2546883 -0.089847066 -0.4721116 -0.84770596 0.004429594
-0.12426649 0.028541788 0.02892316 0.047389217 0.10937933 -0.14736858 -0.46217987 -0.04274255
0.117254585 1.8261833 0.90468913 -0.059239745 0.04832133 -0.08728747 -0.19736558 0.19637476
0.3141585 -0.20392945 -0.31863114 -0.17443855 -0.113231145 -0.077154964 -0.015169948 0.9499119
0.23768204 0.418782 -0.2969294 -0.08509138 0.5509644 -0.3240949 0.3873613 -0.22287317
-0.24144001 -0.14770524 -0.033149164 -0.096760556 -0.002628474 -0.018429434 -0.73233426 2.3379598
0.028601378 0.019215262 0.032025043 0.078873046 0.22739916 0.40836197 -0.68293834 -0.15876651
0.01298857 -0.13475646 -0.048624277 -1.593911 -0.66158783 -0.6381448 -0.50259876 0.16847952
-0.13843684 -0.35206103 0.503648 0.46681497 0.78761894 -0.21233173 -0.9576607 0.33202246
0.6099799 0.4120731 0.06337681 -0.12387291 -0.025183199 -0.14499891 0.29868004 0.07989133
0.2488563 -0.44842166 -0.16834325 -0.11817224 -0.26617768 -0.13837506 0.07659715 0.52205455
0.18784055 0.11811485 -0.1735367 -1.9894549 -0.011079322 0.12471641 -0.23245575 -0.39861846
0.116854556 0.082718216 -0.08101464 -0.01483601 0.09217182 0.78843427 -0.24787353 -0.8015575
0.16614781 -0.27569845 0.2962032 -0.4497774 0.24447896 0.09332927 0.08886208 -0.21093674
-0.2637715 0.06651857 -0.14266902 0.28368965 -0.3002782 -0.64380753 -0.0775555 -0.20157121
-0.089117356 -0.0439212 0.13059127 0.94052756 0.21215385 -0.39832568 -0.15658659 0.22012752
0.3961349 -0.69454414 -0.5717292 1.4809148 -0.27564272 0.00969426 0.04964985 -0.05119253
0.34027258 0.2937882 -0.46908128 0.38855693 0.039940983 0.45737872 0.014085464 1.118299
0.17427827 0.43136966 -0.4838771 -0.21360093 -0.04993551 0.7772923 -0.95407766 -1.2114422
-1.2241284 -0.6044629 -0.39088455 0.16433167 0.092242986 -0.35456517 -1.0649205 0.5166826
0.11085769 0.20028406 -0.1739002 0.098972194 -0.95966375 1.266126 -0.09097426 -0.21379682
0.0661061 0.2003664 0.15650511 -0.41174078 -0.28396246 1.0518587 -0.28678486 0.08165718
0.04396317 -0.036375016 -0.07934888 -0.14654768 0.03488474 1.0253695 -1.7979228 0.013816791
0.15943801 0.46225652 0.043552063 1.4856626 -0.31574857 -0.22447324 0.09014071 0.045137677

conv2.bias f4 [16]
00000000: d604 5a3e 47c9 b4be aab5 aabe 975e aebe
00000010: 9d98 efbd 6d88 16be 825d 9a3f 51ed ebbd
00000020: 3eb5 40be 99da 19be 1c4e 2f3f 92da bd3e
00000030: 9477 803d a24d a5bc bff8 193d 18a8 5bbe
0.21290907 -0.35309812 -0.33341724 -0.3405654 -0.116990305 -0.1470048 1.2059786 -0.11519874
-0.18819138 -0.15024795 0.6847856 0.37080818 0.06272808 -0.02017862 0.03759074 -0.21450841

conv2.lin.weight f4 [16, 32]
00000000: 32e7 23bf 6e10 9f3e bce6 1ec0 2cbe 9e3f
00000010: 7ede 163e 5640 2b3f becf 63be 586b 9fbe
00000020: d7ac 1b3d ac84 8cbf 777e d33c ab34 5ebe
00000030: 2980 1dbf 0e3c 59bf 0584 dc3e b40d 903d
00000040: 049e 3e3d 7b8d 1340 fb7b 203e 57f0 873c
00000050: eb44 74bd 265e ad3e 54c7 7bbf 18b1 f33e
00000060: 1eb6 22be eb07 37bf 7ca6 0dc0 3205 ed3e
00000070: 8e08 0bbc 10ce 7a3e 1cb2 0c40 b5d3 1fbe
00000080: 120b e7bc f17e 4abe 9588 923e ce82 f3be
00000090: 41b5 02bf 9931 2dbf 9d20 5c3e ba3b b0bf
000000a0: de85 e93d 7677 203e 5512 03bf 9055 e23d
000000b0: 95e0 c53e 522f afbd eb44 263f 19d7 33bf
000000c0: 697c 96bd 03fb 0540 85e7 cd3e 4194 91bf
000000d0: c2c9 c1be bdf6 f1bd 66e9 153f e0de c8be
000000e0: 1273 5bbf e2cf c93e 5706 033e 53f7 5e3e
000000f0: e694 43bf 7225 85bc 5813 babf 8ee0 8b3f
00000100: f91a ce3e dff9 52bf 5af8 2fbd 4148 e7bd
00000110: 258b 563e 7cde bfbe 0858 cabe 6931 febe
00000120: 0126 6dbe fac1 2ebf 257e b4be ab74 d93d
00000130: 06fb 8d3d 6dcd 2ebf 6fc5 3fbd d2a5 263e
00000140: b486 cabe 5e00 4abe 47f7 9bbe fe19 3cbf
00000150: 3f7d 61be 7401 fbbe f0f7 043d d646 fbbe
00000160: 3438 81be a98f fc3d 0a9b 9a3e e6da d7be
00000170: 9fcb 81be fb72 a2be c4ba f2bd 3ace 80be
00000180: e4a3 07be 5f4b 68bf 43df 123e 10a7 9f3d
00000190: caae e1be bdc9 5abd 531b b23d 947c fdbe
000001a0: 484c f13d 32b8 343e cc3b cbbe 86c6 1bbf
000001b0: 6636 363e 9dc0 423e 72bd 873e 8dc5 343e
000001c0: 7422 c53d 2e75 51bf 647d 9b3c 23be 06bf
000001d0: a2fd cd3e e226 803d b626 473d 31af 3b3d
000001e0: 9ea9 16be 6721 a93d 80e2 dfbd 8d5d cdbf
000001f0: 80df a9be 7539 46bf 658f 1dbf 5644 f43e
00000200: 14c1 6bbe bfd4 91be 5eb8 373e ce9b 683e
00000210: 9ddd 91be fb4c 92be 6aac 29be 57f3 96be
00000220: edf1 c1bb a75a 243e 7320 313e 6237 bcbd
00000230: 4793 01bd 4075 63be 4f95 73be d85a a0be
00000240: f101 92bd 752b f73d 0fc0 63be 4fcb b2be
00000250: a3c0 94be 9d7f 65be 3ea0 c53d 7b72 7dbe
00000260: 9a24 233c 6b93 debe b60e 35be b03e 80bc
00000270: 59e7 29bd dc6c 8d3e 5908 0cbd 3dee 87bd
00000280: d10d edbe c9b1 06bd 6584 583e 1e88 5f3e
00000290: b873 92be d965 4b3e dd9d 6cbe 6b90 6bbe
000002a0: eb6c 9ebe ad95 dabe 2010 73be 8944 a83d
000002b0: 8079 783e 057f ffbd 8e08 b6bd e79f f13d
000002c0: 2d2b 1c3c 55d4 5e3e f2cd db3b fe7b 1ebe
000002d0: 09f5 c4be aae2 c53d 259f abbd a8cf 3abd
000002e0: 3e4a 96be f520 1a3d 0574 b5be 4701 0dbf
000002f0: c521 11be 1d28 91be 739c 27be 3506 98be
00000300: 8fce bfbb 73af 8abd fbae 4c3f a0a8 f8bd
00000310: 5cf3 41be 41f9 d3bf aa8b 4bbd 3b15 193f
00000320: 6939 4ebe ce83 8b3e 7f40 19be 48f1 823e
00000330: b257 edbd 377f ddbe 5923 763e fa87 0d3b
00000340: 8101 2bbd 9ec6 7fbf fd44 313d cc92 4e3d
00000350: 1bf5 543b 2c0d 2dbd 39b4 253e 1e46 4fbf
00000360: 6df3 5b3e 4104 c33e 2e31 2cbe 1a26 37bd
00000370: 64f8 7bbf d402 97be fe4d b1bf 7068 403e
00000380: 00d3 d1be 892e 073d b55f 1abd 64ab 343e
00000390: 58d9 66bb 703d 44be ede7 063d aacf 4bbe
000003a0: 960a 52be 6d90 91be 1ba4 15be b8c0 55be
000003b0: 7041 9bbe fcc3 c13c 9f4e 3c3c 0037 9d3d
000003c0: b614 c63d 1cf5 43be 0e86 1b3e 0f93 4cbe
000003d0: 37db adbe 0f2a 91be 606f 46be 4e56 37bd
000003e0: e5b8 1bbe b1fc 84be 59e9 1dbe 97c7 07bc
000003f0: 0b46 973d 550b a4be f786 f9bd c0f1 d0be
-0.6402465 0.31067222 -2.482833 1.2401786 0.14733312 0.66895044 -0.22247216 -0.31136584
0.03800663 -1.0977988 0.02581714 -0.21699779 -0.6152368 -0.8485726 0.43069473 0.07033864
0.046537414 2.3055103 0.15672295 0.016594095 -0.059636038 0.33860892 -0.98351026 0.4759605
-0.15889785 -0.71496457 -2.2132864 0.46293026 -0.008485926 0.24492669 2.198371 -0.15608104
-0.02820352 -0.19774987 0.2861983 -0.47560734 -0.5105782 -0.67653805 0.21496816 -1.3768227
0.11402486 0.1567057 -0.5119985 0.11051476 0.38647905 -0.085539475 0.6494891 -0.7025009
-0.07347948 2.0934455 0.40215698 -1.1373369 -0.37849241 -0.1181464 0.5855926 -0.3923254
-0.8572246 0.39416414 0.12795387 0.21774034 -0.76399076 -0.016253207 -1.4537153 1.0927904
0.40254954 -0.82412523 -0.042961456 -0.11293078 0.20951517 -0.3747443 -0.39520288 -0.49647072
-0.23159029 -0.68264735 -0.3525249 0.10617956 0.069326445 -0.68282205 -0.046819147 0.16274193
-0.39555895 -0.19726703 -0.30462095 -0.7347716 -0.22020434 -0.49024546 0.032463014 -0.4907748
-0.25238192 0.123320885 0.3019641 -0.42159194 -0.25350663 -0.31728348 -0.11852029 -0.25157338
-0.13246113 -0.9074001 0.1434298 0.077955365 -0.44078666 -0.05341505 0.08696618 -0.49509108
0.117821276 0.1764839 -0.3969406 -0.608498 0.17794189 0.19018789 0.26511723 0.17653485
0.09625712 -0.81819427 0.01898069 -0.52633876 0.4023257 0.06257416 0.048620902 0.045821372
-0.14713141 0.08258324 -0.10931873 -1.6044174 -0.3317833 -0.7743142 -0.6154693 0.47708386
-0.23022872 -0.28482625 0.17941424 0.22715685 -0.2848939 -0.28574356 -0.16569677 -0.2948253
-0.0059187324 0.16050206 0.17297535 -0.09190251 -0.031634595 -0.22212696 -0.23787425 -0.31319308
-0.071292765 0.12068836 -0.22241233 -0.34920737 -0.2905322 -0.22411962 0.096497044 -0.24750702
0.009957457 -0.43471846 -0.17681393 -0.015654892 -0.041480396 0.27622116 -0.03418765 -0.06637237
-0.46299604 -0.032884393 0.21144255 0.21829268 -0.2860391 0.1986307 -0.23107095 -0.2300431
-0.30942473 -0.4269232 -0.2373662 0.08216197 0.24265099 -0.12475399 -0.088883504 0.11798077
0.009531778 0.21760686 0.0067079 -0.15476987 -0.38468197 0.09662373 -0.08379964 -0.045608193
-0.29353517 0.037629087 -0.35440078 -0.55080074 -0.14173038 -0.28350917 -0.16368274 -0.29692236
-0.005853481 -0.067717455 0.799545 -0.12141538 -0.1894049 -1.6560441 -0.04969374 0.5979802
-0.20139088 0.27248996 -0.1496601 0.25574708 -0.11588992 -0.4326112 0.24036922 0.002159594
-0.04174948 -0.9991244 0.043278683 0.050432965 0.0032494727 -0.04224889 0.1618203 -0.80966365
0.21479578 0.38089183 -0.16815636 -0.04471407 -0.9842589 -0.29494345 -1.3851926 0.1878984
-0.40981293 0.033003364 -0.03768893 0.17643505 -0.0035224762 -0.19164062 0.032936025 -0.19903436
-0.2051185 -0.284305 -0.14613383 -0.20874298 -0.30323362 0.023653023 0.011493354 0.07676506
0.09671919 -0.1913647 0.15187857 -0.19977973 -0.3395631 -0.283524 -0.19378424 -0.04476004
-0.1520725 -0.25974038 -0.15421046 -0.008287332 0.073864065 -0.32039896 -0.121839456 -0.4080944

conv3.lin.weight f4 [1, 16]
00000000: 3cf0 883e 1340 efbd a358 d5bd fa97 18bd
00000010: 75c7 bfbe 398f 90bd ad36 0f3f 386d bbbd
00000020: b2b2 36be df0d 5fbe 19ab 213f e190 1b3e
00000030: d47e 733d 4ebc a73e 0545 a33b 2596 8cbe
0.26745784 -0.11682143 -0.10417297 -0.03725431 -0.3745686 -0.070585676 0.55942804 -0.09151691
-0.17841604 -0.21782635 0.631517 0.15191986 0.059447125 0.32760853 0.004982593 -0.274583
