data/gcn_pt_files/gcn3_lsoa_model.pt (torch, 16445 bytes, 7 tensors)

conv1.bias f4 [64]
-1.7222252 -1.6246517 -1.7281555 -2.291747 -0.41355243 -1.4000369 -0.15149479 -1.6080405
-0.053676415 -0.41319528 -0.4020645 -0.6030763 -0.99247634 -0.427019 -1.2828937 -0.9027077
-0.42874897 -0.88232046 -0.44062734 -0.5523969 -0.68978834 0.006885778 -0.6121939 -0.9506841
-0.47244242 -0.7612284 -0.39636672 -1.1911695 -0.5594323 -1.0680125 -0.52704597 -0.91218036
-1.3587165 -0.5927554 -0.61008406 -1.114091 -0.17628889 -1.2775214 -0.65209454 -0.6633172
-1.0596943 -1.5934005 -1.0441839 -1.0513484 -0.92296183 -1.2163566 -0.86248505 -0.6545222
-1.8497727 -0.79159325 -1.1208844 0.1982334 -0.40021878 -0.59041125 -0.39601323 -0.09654045
-0.7516323 -0.8928776 -0.9291931 -0.3954751 -1.2673136 -1.307885 -0.7561585 -0.46237707
00000000: e071 dcbf 96f4 cfbf 3334 ddbf fcab 12c0
00000010: 25bd d3be 6934 b3bf 7321 1bbe 45d4 cdbf
00000020: cddb 5bbd 558e d3be 66db cdbe 3563 1abf
00000030: ee12 7ebf 3ca2 dabe dc35 a4bf da17 67bf
00000040: fc84 dbbe c1df 61bf e899 e1be e269 0dbf
00000050: f895 30bf 18a2 e13b bdb8 1cbf 0860 73bf
00000060: f9e3 f1be dddf 42bf 94f0 cabe 3e78 98bf
00000070: f536 0fbf a2b4 88bf 7cec 06bf a784 69bf
00000080: 6cea adbf d1be 17bf 782e 1cbf 899a 8ebf
00000090: 1385 34be d285 a3bf abef 26bf 28cf 29bf
000000a0: 10a4 87bf 8cf4 cbbf d1a7 85bf 9692 86bf
000000b0: 3a47 6cbf 93b1 9bbf d2cb 5cbf c48e 27bf
000000c0: 5ac5 ecbf dba5 4abf 2479 8fbf b2fd 4a3e
000000d0: 7ae9 ccbe 3125 17bf 3fc2 cabe 00b7 c5bd
000000e0: f96a 40bf a093 64bf 99df 6dbf b67b cabe
000000f0: 5537 a2bf c768 a7bf 9a93 41bf b0bc ecbe

conv1.lin.weight f4 [64, 7]
1.2697095 -0.43703204 -0.7510636 -1.5619594 0.45037213 -0.013529635 -0.22095211 -0.5193776
-0.6479573 -0.8948486 0.9277327 0.54697275 -0.20317495 0.20487423 -0.30058023 -0.2786866
0.3363422 -0.6025348 -1.5503693 -0.16761212 0.16169028 0.5231647 0.7909017 0.5558198
-0.090347216 -0.21758479 0.37872565 -0.50305 -0.09064363 -0.025067572 0.051906295 -0.09360162
0.034013815 0.020808898 0.020968618 0.25998697 -0.100670435 -0.010535 0.5577527 -2.1372063
-0.08108015 0.053484153 1.4793301 0.17595848 0.29437345 0.11792418 -0.16307116 -0.08098789
-0.22274853 -0.0914908 -0.19748986 0.15731186 0.83747405 -1.4617997 0.11710335 0.1316437
1.5866953 1.0742435 0.61729383 -0.27725896 0.06333273 -0.2152463 0.45132256 0.2712389
-0.17483488 3.1864626 -0.24028826 0.14223541 0.023695117 0.020523582 -0.12489092 -0.29675558
0.40293533 -0.06370725 -0.015540379 0.0046340595 -0.06481009 -0.01173337 0.5148441 0.058682263
-0.43366387 0.044068784 0.21826069 0.3049463 -0.5444914 -0.8619175 0.05962259 -0.5067143
0.7660209 -0.06529072 0.15867928 -0.028485652 -0.229217 0.07550823 -0.059070177 -0.061383
-0.17899232 -0.09535767 -0.52892935 -0.434288 -0.8158828 -0.34649372 -0.13907328 0.11406043
0.07105191 0.007659544 0.07683459 0.23099889 -0.162117 -0.14342946 0.12672336 0.029485628
-0.13894406 -0.060765993 -0.13327312 0.08737935 -0.07378858 -0.0356437 0.00071884907 -0.20706603
-0.029771503 -0.35151336 0.3542528 -0.6532321 -0.47176546 -0.29629707 0.008259603 -0.09343403
-0.17586577 0.01735344 0.036688063 0.10540899 -0.05653944 0.3543604 -0.13404529 -0.8917072
0.11901232 0.0032647352 -0.009974676 0.14860928 -0.25047883 0.0145646455 -0.13346224 0.018265722
-0.06737588 -0.019312762 0.0944748 2.03355 0.28084064 0.16599998 -0.05942402 0.00074922864
-0.24783504 0.2823716 0.71083444 -0.23101392 -0.9242603 0.14569654 -0.0033683006 -0.14136754
0.32980818 -1.036543 -0.28551784 -0.57781816 -0.2479932 -0.021118801 -0.20787854 -0.079580694
-0.03300328 -0.19313468 -0.32080323 0.014767583 -0.010115419 0.06382825 0.03748302 0.25756416
-0.24745454 -0.27054247 0.014939795 -0.033286422 -0.010559463 -0.12336539 -0.9592718 -1.1373374
-1.4517747 0.11543316 0.4156323 -0.4073887 -0.28228694 0.2476907 0.052824985 0.4134756
-0.29970127 -1.4102283 0.043652322 0.06306721 0.15113491 -0.07351491 0.159976 -0.10615467
-0.12363621 0.1714272 0.07730649 -1.1508945 -0.49634233 1.094612 -0.4034544 0.54490495
0.048476994 -0.25544655 1.1639308 0.22377431 0.33130595 -0.5714627 -0.20056246 -0.04644163
0.50590575 0.37545478 0.010015739 0.2901112 -0.7825981 0.24446379 -0.03118808 -0.08144459
-1.2972292 1.0189315 0.30368245 -0.30943924 0.0038445187 0.19992955 0.092919454 0.3991772
-0.070960686 0.29036632 -0.39652717 -0.2826333 -0.0881315 0.22667211 1.4305811 0.33891517
-0.39114657 0.17930241 0.13775562 0.48030427 -0.21414708 -0.7952915 -0.3356362 1.1496494
-0.5316477 0.13810715 0.15695657 0.5109024 -0.07662452 -0.13298714 -4.7004833 -0.07691887
00000000: d785 a23f aac2 dfbe b445 40bf 49ee c7bf
00000010: 2d97 e63e 67ab 5dbc 4541 62be eef5 04bf
00000020: 88e0 25bf cc14 65bf e47f 6d3f 6806 0c3f
00000030: 180d 50be 8dca 513e a7e5 99be 03b0 8ebe
00000040: 0b35 ac3e b83f 1abf 8072 c6bf 83a2 2bbe
00000050: 2392 253e 1fee 053f 8978 4a3f 354a 0e3f
00000060: f607 b9bd 8cce 5ebe 54e8 c13e e3c7 00bf
00000070: 5ea3 b9bd 825a cdbc b29b 543d 35b2 bfbd
00000080: 1252 0b3d 6c77 aa3c 61c6 ab3c 031d 853e
00000090: 4d2c cebd fe9a 2cbc e2c8 0e3f fdc7 08c0
000000a0: 5a0d a6bd 3312 5b3d b05a bd3f 762e 343e
000000b0: 1eb8 963e 3c82 f13d 20fc 26be fbdc a5bd
000000c0: 3118 64be 875f bbbd c83a 4abe 5c16 213e
000000d0: b364 563f 411c bbbf e2d3 ef3d 9bcd 063e
000000e0: d518 cb3f d080 893f f806 1e3f e3f4 8dbe
000000f0: 97b4 813d 8769 5cbe c013 e73e d3df 8a3e
00000100: ea07 33be 01ef 4b40 200e 76be 29a6 113e
00000110: 431c c23c 1221 a83c d0c6 ffbd 59f0 97be
00000120: 8a4d ce3e f278 82bd 139d 7ebc 4fd9 973b
00000130: 27bb 84bd 523d 40bc d3cc 033f d05c 703d
00000140: 3109 debe 7881 343d bb7f 5f3e ec21 9c3e
00000150: ca63 0bbf a0a6 5cbf d136 743d 07b8 01bf
00000160: f219 443f 24b7 85bd d27c 223e be5a e9bc
00000170: dcb7 6abe 0fa4 9a3d 92f3 71bd be6c 7bbd
00000180: c349 37be e24a c3bd ea67 07bf ff5a debe
00000190: b2dd 50bf a067 b1be 3a69 0ebe 8498 e93d
000001a0: aa83 913d e9fc fa3b 745b 9d3d f98a 6c3e
000001b0: 0002 26be 2cdf 12be c5c3 013e d88b f13c
000001c0: 5a47 0ebe c3e5 78bd c078 08be f2f3 b23d
000001d0: 781e 97bd 21ff 11bd 2571 3c3a 1e09 54be
000001e0: 5ee3 f3bc 8ff9 b3be 9f60 b53e 383a 27bf
000001f0: 3e8b f1be 40b4 97be 4953 073c 575a bfbd
00000200: 2816 34be cd28 8e3c 3946 163d abe0 d73d
00000210: e695 67bd ba6e b53e 2b43 09be ec46 64bf
00000220: bbbc f33d 2bf5 553b d36c 23bc 082d 183e
00000230: c33e 80be 8da0 6e3c 53aa 08be ffa1 953c
00000240: 5efc 89bd cc35 9ebc 017c c13d af25 0240
00000250: 58ca 8f3e e6fb 293e 9a66 73bd e267 443a
00000260: 78c8 7dbe 0393 903e 3ff9 353f ea8e 6cbe
00000270: 539c 6cbf 7931 153e b5be 5cbb a7c2 10be
00000280: 9edc a83e 71ad 84bf 652f 92be e4eb 13bf
00000290: eef1 7dbe 5601 adbc 1dde 54be 34fb a2bd
000002a0: 732e 07bd 19c5 45be 5240 a4be bcf3 713c
000002b0: 24bb 25bc 63b8 823d cc87 193d 73df 833e
000002c0: b964 7dbe 8b84 8abe 0bc6 743c 5857 08bd
000002d0: 9901 2dbc fea6 fcbd d692 75bf 4694 91bf
000002e0: c1d3 b9bf 3868 ec3d c2cd d43e 4095 d0be
000002f0: ea87 90be a2a2 7d3e 035f 583d 13b3 d33e
00000300: 7272 99be 5c82 b4bf c7cc 323d 6229 813d
00000310: 1cc3 1a3e fc8e 96bd c0d0 233e 9f67 d9bd
00000320: fb34 fdbd 9d8a 2f3e dd52 9e3d 8350 93bf
00000330: 9520 febe 3f1c 8c3f 9391 cebe e47e 0b3f
00000340: d08f 463d e4c9 82be affb 943f 1825 653e
00000350: efa0 a93e 614b 12bf 3f60 4dbe 9439 3ebd
00000360: 0a83 013f 9c3b c03e 0e19 243c 7589 943e
00000370: 5958 48bf b754 7a3e 257e ffbc 6ccc a6bd
00000380: 9b0b a6bf 596c 823f 447c 9b3e d26e 9ebe
00000390: 52f4 7b3b 55ba 4c3e 8e4c be3d f460 cc3e
000003a0: d653 91bd e5aa 943e 9c05 cbbe 50b5 90be
000003b0: 4a7e b4bd bc1c 683e 481d b73f 4a86 ad3e
000003c0: 5d44 c8be 0d9b 373e cf0f 0d3e 71ea f53e
000003d0: 5f49 5bbe 3998 4bbf 82d8 abbe b627 933f
000003e0: 101a 08bf f66b 0d3e 39b9 203e 80ca 023f
000003f0: 51ed 9cbd c82d 08be 5c6a 96c0 a487 9dbd

conv2.bias f4 [32]
-0.097788244 -0.03517923 -0.07629451 -0.29373935 0.16293831 -0.091155395 -0.107409626 -0.08562368
0.6717605 -0.058099434 -0.09622366 -0.18667862 -0.31826407 -0.08756611 -0.14903477 -0.19298865
-0.070895195 -0.2594202 -0.37386128 -0.23618586 -0.10184151 -0.52881026 -0.07647886 -0.041331418
-0.38690272 0.5598801 0.119947076 0.11388972 -0.042105228 -0.07579376 -0.2165228 0.7471297
00000000: 3445 c8bd 1918 10bd 4c40 9cbd 0165 96be
00000010: 4dd9 263e aeaf babd 94f9 dbbd 785b afbd
00000020: 7ff8 2b3f acf9 6dbd e910 c5bd ae28 3fbe
00000030: 82f3 a2be dc55 b3bd 929c 18be d19e 45be
00000040: 8031 91bd b9d2 84be bf6a bfbe b5da 71be
00000050: 4892 d0bd 1c60 07bf f3a0 9cbd 224b 29bd
00000060: 1d18 c6be 4d54 0f3f d0a6 f53d 033f e93d
00000070: 8876 2cbd c239 9bbd 27b8 5dbe e443 3f3f

conv2.lin.weight f4 [32, 64]
-0.17510171 -0.029110994 0.07320034 0.057190794 -0.53687644 -0.31520405 0.008054099 0.26594955
-0.46409696 -0.370396 -0.032763015 -0.56698835 -0.027319334 -0.23211558 0.14507328 0.05945548
-0.13327162 0.17100514 -0.18472135 -0.49934104 -0.31417003 -0.41526502 -0.409088 -0.13874017
-0.25279745 -0.022333719 -0.45343286 -0.39809248 -0.05206993 0.0464578 -0.78156334 -0.26491433
0.07653684 -0.21227075 -0.25999445 -0.29547408 -0.09089602 0.103248484 -0.8134869 -0.23095651
-0.12109267 -0.12073137 -0.8433853 -0.17798425 -0.2830002 0.003137924 -0.06726132 0.10944941
-0.08931353 0.088344224 -0.38218382 -0.59270334 -0.2136071 -0.4339371 -0.26170868 -0.6310838
-0.04102277 -0.18491386 -0.13500722 -0.22613211 -0.07567658 -0.23852623 -0.27890012 -0.222113
0.044525534 -0.23967016 0.1477945 0.105189145 -0.18545331 0.060557876 -0.114283964 -0.14624527
-0.116513565 -0.06961881 -0.24569054 -0.18832928 0.09480075 -0.064597175 0.08641148 -0.24090795
-0.18454088 -0.27744827 0.14592299 -0.11912661 -0.04944175 -0.12918612 -0.29890788 0.17594627
-0.17277 0.21614437 -0.0722528 -0.1220194 -0.2069915 0.032231446 0.12991321 -0.20698029
-0.15153852 -0.080824785 -0.08940082 0.16611956 -0.19608334 -0.14743468 0.18381597 -0.26840246
-0.050120525 0.01513228 -0.026862083 0.079541996 -0.12529935 0.22477055 0.03182071 0.111929365
0.0946618 0.121464245 -0.0955402 -0.34408724 -0.06768859 0.04281424 0.032586962 0.0159303
-0.1920151 -0.06802739 0.097861424 0.022404155 -0.17335138 -0.15143609 -0.19046567 0.16158387
-0.11801771 -0.045967493 0.03675512 -0.13181773 0.0856185 -0.278245 0.12812045 -0.25691655
-0.10268004 -0.27631265 -0.14611918 -0.2734522 -0.12569469 0.2248808 0.09509195 -0.040114675
-0.21915767 -0.20594661 0.20276171 -0.08090838 0.12236896 -0.262339 -0.23393422 -0.1969363
0.2248517 0.19640575 -0.19747967 -0.14476049 0.0136986505 0.12405011 0.18610199 -0.08749014
-0.022673069 0.13193086 -0.010555015 0.22734833 0.0068623023 -0.017995426 -0.16794923 -0.22042152
-0.009189647 -0.27336568 -0.27760413 0.046230614 0.08529644 0.06077118 0.06549699 0.05721934
0.11481661 -0.28383508 0.2582545 -0.20952708 -0.3619181 0.120829985 0.11652993 -0.043518085
-0.14937708 -0.25797215 0.1492676 0.0044352263 0.0059284368 0.012096638 0.01571444 -0.19453081
0.12034765 -0.34628606 -0.21562065 -0.32851252 0.12603623 -0.57903546 -0.2528298 -0.23291378
-0.261316 -0.41061646 -0.3307375 -0.24734157 -0.35120162 0.05176959 0.01575731 -0.29030216
-0.13013431 -0.038197726 0.078957506 -0.11719373 -0.007079272 -0.28344047 -0.24723822 -0.2045868
0.10790349 0.0034036587 -0.2973405 0.07997485 -0.10076519 -0.21604848 -0.37388623 -0.44927314
-0.010557889 -0.44590864 -0.17976469 -0.26557773 -0.5125388 -0.17334004 -0.024272505 -0.27511787
0.035431996 -0.07023816 -0.2228695 0.19706228 -0.23218757 0.05793169 -0.19129676 -0.112511665
-0.07556699 -0.1344213 -0.015314794 -0.26345834 -0.58158773 -0.0073146867 -0.58488005 -0.51441
-0.29654983 -0.053873066 -0.40244067 0.053180605 -0.18197574 0.06344914 -0.5396802 -0.44612706
00000000: dd4d 33be 2e7a eebc 0fea 953d e540 6a3d
00000010: bc70 09bf 6d62 a1be 57f5 033c 8a2a 883e
00000020: 1e9e edbe 8ba4 bdbe 8332 06bd 2626 11bf
00000030: cccc dfbc b5af 6dbe 178e 143e 9787 733d
00000040: 5b78 08be f91b 2f3e 9827 3dbe a1a9 ffbe
00000050: e5da a0be 9e9d d4be fb73 d1be e711 0ebe
00000060: ab6e 81be 34f5 b6bc 5a28 e8be c7d2 cbbe
00000070: 4747 55bd 894a 3e3d 8914 48bf daa2 87be
00000080: 59bf 9c3d 815d 59be fe1d 85be 6148 97be
00000090: b127 babd f173 d33d ad40 50bf dd7f 6cbe
000000a0: 6fff f7bd 0242 f7bd 19e8 57bf 8141 36be
000000b0: 67e5 90be a1a5 4d3b 4ec0 89bd 0327 e03d
000000c0: 03ea b6bd d1ed b43d 99ad c3be 68bb 17bf
000000d0: d2bb 5abe 012d debe aefe 85be b58e 21bf
000000e0: 7e07 28bd 0f5a 3dbe 553f 0abe 2d8f 67be
000000f0: 53fc 9abd 3840 74be ffcb 8ebe 9771 63be
00000100: 6860 363d 186c 75be 7157 173e 686d d73d
00000110: 79e7 3dbe 890b 783d b60d eabd 52c1 15be
00000120: aa9e eebd 4f94 8ebd 4d96 7bbe 64d9 40be
00000130: e526 c23d 864b 84bd 81f8 b03d 93b0 76be
00000140: 49f8 3cbe b30d 8ebe d66c 153e a7f8 f3bd
00000150: 6f83 4abd 5e49 04be 740a 99be 422b 343e
00000160: 9eea 30be f354 5d3e 47f9 93bd 4fe5 f9bd
00000170: 94f5 53be 1f05 043d f807 053e a4f2 53be
00000180: ea2c 1bbe 7787 a5bd c717 b7bd 3f1b 2a3e
00000190: 12ca 48be 1ef9 16be 413a 3c3e 0c6c 89be
000001a0: 2e4b 4dbd 62ed 773c df0d dcbc eae6 a23d
000001b0: 794e 00be 402a 663e 6f56 023d 393b e53d
000001c0: 0cde c13d 3fc2 f83d 95aa c3bd 342c b0be
000001d0: 51a0 8abd fc5d 2f3d e879 053d 4380 823c
000001e0: 9b9f 44be f251 8bbd 926b c83d eb88 b73c
000001f0: 0683 31be 1012 1bbe 6f09 43be 3e76 253e
00000200: 45b3 f1bd 6948 3cbd 898c 163d 3afb 06be
00000210: c158 af3d 2176 8ebe 0232 033e 918a 83be
00000220: ea49 d2bd da78 8dbe 44a0 15be ed01 8cbe
00000230: 1cb6 00be 2747 663e 91bf c23d 494f 24bd
00000240: de6a 60be abe3 52be c4a0 4f3e 4bb3 a5bd
00000250: 949c fa3d 4c51 86be 748c 6fbe aba9 49be
00000260: 863f 663e 971e 493e 1c38 4abe 183c 14be
00000270: 4e70 603c fc0d fe3d 8591 3e3e 082e b3bd
00000280: dfbc b9bc e218 073e f1ee 2cbc 00ce 683e
00000290: 2add e03b 256b 93bc e2fa 2bbe 2eb6 61be
000002a0: 2c90 16bc 96f6 8bbe 2122 8ebe 505c 3d3d
000002b0: e6af ae3d 33eb 783d 4923 863d d45e 6a3d
000002c0: f924 eb3d d552 91be ef39 843e 448e 56be
000002d0: 544d b9be b675 f73d 3ea7 ee3d 0540 32bd
000002e0: 4ef6 18be ed14 84be 9bd9 183e 6055 913b
000002f0: 5543 c23b fa30 463c 92bb 803c 1633 47be
00000300: d478 f63d 684c b1be a9cb 5cbe cb32 a8be
00000310: a40f 013e ab3b 14bf e872 81be f380 6ebe
00000320: 36cb 85be 523c d2be 6d56 a9be 1c47 7dbe
00000330: b3d0 b3be 590c 543d 7915 813c 7ca2 94be
00000340: ee41 05be 3875 1cbd 79b4 a13d 4403 f0bd
00000350: 3df9 e7bb 1c1f 91be 042c 7dbe 347f 51be
00000360: 81fc dc3d eb0f 5f3b 043d 98be dbc9 a33d
00000370: fb5d cebd d03b 5dbe 046e bfbe 2107 e6be
00000380: fffa 2cbc 234e e4be 3c14 38be cef9 87be
00000390: be35 03bf 0d80 31be 22d7 c6bc 40dc 8cbe
000003a0: 2421 113d 06d9 8fbd e737 64be b2ca 493e
000003b0: 94c2 6dbe c849 6d3d 4ce3 43be 846c e6bd
000003c0: dec2 9abd bda5 09be e7ea 7abc 03e4 86be
000003d0: efe2 14bf 0ab0 efbb b3ba 15bf 60b0 03bf
000003e0: 61d5 97be 01aa 5cbd b40c cebe e8d3 593d
000003f0: d957 3abe 9ff1 813d 7b28 0abf c46a e4be

conv3.bias f4 [16]
0.087622486 0.8816551 -0.44615805 -0.19111793 -0.24785897 -0.17903638 -0.108650014 0.47082582
-0.19183697 0.08773722 0.013930576 0.8632343 -0.40326032 0.008189021 -0.14917368 -0.50070256
00000000: 6b73 b33d 26b4 613f d46e e4be 6bb4 43be
00000010: bece 7dbe 5055 37be e683 debd 1510 f13e
00000020: e970 44be 92af b33d 123d 643c ecfc 5c3f
00000030: 2378 cebe 3e2b 063c fcc0 18be 0b2e 00bf

conv3.lin.weight f4 [16, 32]
0.03889321 0.26559362 0.22588097 -0.42647916 -0.6624954 -0.24905276 0.31062862 0.3310629
-1.1905391 0.032941483 0.022650383 -0.20212023 0.4088931 -0.0709394 -0.07170014 -0.089684665
-0.23951055 -0.10040995 -0.06641844 0.25884494 -0.17947835 -0.26042697 -0.24217531 -0.16754547
-0.1191446 0.100764826 -0.5302029 -0.08999612 0.07912868 0.08270686 -0.070255816 -0.46664137
-0.012916257 -0.12247695 -0.107550144 -0.37321302 0.12812997 0.09818124 0.02243605 -0.2204743
0.22607155 -0.20294742 -0.08597025 0.30825502 0.176455 0.18982624 -0.16258018 -0.11826509
-0.055813123 -0.0420203 0.11821105 0.038591612 0.022022452 -0.16430333 0.21918118 0.31560588
0.27491465 0.5363807 0.038723692 0.5003056 0.25282216 0.06200027 0.6820944 0.5252163
0.26888075 0.19966143 0.28330907 -0.3741154 0.71967924 0.1556779 -0.014710279 0.029050274
-0.5712167 -0.20366885 0.18689546 0.23283803 -0.25997713 0.004009932 -0.12852651 -0.41213986
-0.2788406 0.2336374 0.19294693 0.18197088 -0.26871064 -0.15727337 -0.27809125 0.01885982
-0.06548692 -0.6722341 -0.44688898 -0.22509909 0.23056512 0.2862066 -0.089122556 -0.5054247
0.037826553 -0.21271749 0.2668664 0.055447537 -0.13977769 -0.07102163 -0.09245615 -0.105387926
-0.33041415 -0.08849675 -0.31054786 0.07965251 -0.24052426 -0.013163538 -0.075287156 0.114998356
0.23561163 -0.25179574 0.16402046 -0.29400396 -0.09002692 -2.0437622 0.07873111 0.009371737
-0.11238087 -0.2078636 -0.2959169 -0.26205277 0.09288705 0.22512844 -0.19160402 0.075518325
0.25015786 -0.41943687 -0.01992972 0.33084664 -0.14531997 -0.34405935 -0.35498193 -0.3861751
-0.25950053 -0.25749636 0.2191765 0.23179483 -0.14099455 0.07105679 -0.22290991 -0.33827454
-0.2004922 -0.39310732 -0.32285032 -0.1410524 0.038092468 -0.49156827 -0.007226676 0.033191636
-0.23341508 -0.1307277 -0.19951664 -0.096540675 0.27195206 -0.23031558 -0.35315427 0.032842085
0.146718 0.23048297 -0.20456934 -0.096159734 -0.11552587 0.16185391 0.1012635 -0.053515244
-0.44946176 0.056366995 -0.3574692 0.029280094 0.42120078 -0.059874345 0.35999924 0.19457576
0.21103154 -0.09724658 0.00942932 -0.13307095 0.3102742 -0.38303432 -0.3827985 -0.04578607
0.2566243 -0.6101105 -0.7369839 -0.26296306 -0.121399775 0.17070718 -0.18785185 0.015957411
0.031056538 -0.19092613 0.26697755 0.16238698 -0.24136066 -0.17454295 -0.23700483 -0.36018077
0.022549698 -0.28298625 0.117606945 0.1016017 -0.19146444 0.20639697 0.3948619 -0.14970683
0.1416832 0.17815553 -0.24092767 0.48302698 -0.072626844 -0.5357208 -0.32909626 0.13235843
-0.2070054 -0.20109645 -0.07639213 -0.22094104 -0.25859296 -0.030208735 0.00048550882 -0.18900073
-0.08103478 -0.3001282 0.18094063 -0.000895182 -0.017483532 0.04709945 -0.12891604 -0.16319014
-1.6974771 0.061169244 -0.12549827 0.033847984 -0.07581999 0.01957537 0.32266217 0.23007384
-0.10573315 0.022313152 -0.23187229 -0.017372102 -0.07307374 -0.99652654 0.056741964 -0.20766857
-0.24532941 0.35171917 -0.08295652 0.33298066 0.29788578 0.13409755 0.048416786 -0.20858687
00000000: 7d4e 1f3d e3fb 873e 574d 673e 7a5b dabe
00000010: 4c99 29bf b007 7fbe b70a 9f3e 1481 a93e
00000020: 9663 98bf a6ed 063d 4c8d b93c 9bf8 4ebe
00000030: 705a d13e ad48 91bd 86d7 92bd 98ac b7bd
00000040: 4142 75be bba3 cdbd 6406 88bd 5387 843e
00000050: 2cc9 37be af56 85be cefc 77be 0a91 2bbe
00000060: 1602 f4bd ca5d ce3d 61bb 07bf e34f b8bd
00000070: 380e a23d 3762 a93d 48e2 8fbd 9eeb eebe
00000080: b59e 53bc 32d5 fabd 4043 dcbd c715 bfbe
00000090: 8134 033e 3f13 c93d cfcb b73c 04c4 61be
000000a0: 4d7f 673e 73d1 4fbe 2c11 b0bd 9ad3 9d3e
000000b0: 9fb0 343e cf61 423e 6b7b 26be f834 f2bd
000000c0: 4d9c 64bd 7a1d 2cbd a318 f23d 3d12 1e3d
000000d0: 6e68 b43c 223f 28be 0871 603e 1897 a13e
000000e0: 9dc1 8c3e 3f50 093f bc9c 1e3d 0714 003f
000000f0: e871 813e fff3 7d3d bd9d 2e3f 9374 063f
00000100: bdaa 893e 0c74 4c3e e30d 913e 0e8c bfbe
00000110: e63c 383f 076a 1f3e 6203 71bc d7fa ed3c
00000120: 423b 12bf 918e 50be 8661 3f3e 186d 6e3e
00000130: b91b 85be bf65 833b 749c 03be ff03 d3be
00000140: 32c4 8ebe a53e 6f3e e193 453e 9356 3a3e
00000150: 7194 89be 450c 21be fa61 8ebe e97f 9a3c
00000160: 021e 86bd 8917 2cbf a2ce e4be 6080 66be
00000170: 4319 6c3e ac89 923e e385 b6bd 8363 01bf
00000180: 04f0 1a3d 9dd2 59be b6a2 883e f51c 633d
00000190: e221 0fbe ca73 91bd a659 bdbd a0d5 d7bd
000001a0: 0b2c a9be c93d b5bd 2100 9fbe db20 a33d
000001b0: fe4b 76be e1ab 57bc 2730 9abd 4284 eb3d
000001c0: 2d44 713e 5feb 80be fbf4 273e b087 96be
000001d0: 0960 b8bd 00cd 02c0 c73d a13d ea8b 193c
000001e0: f127 e6bd 32da 54be 6b82 97be c82b 86be
000001f0: 913b be3d 1288 663e d833 44be 5aa9 9a3d
00000200: b114 803e 6ec0 d6be a743 a3bc bb64 a93e
00000210: c2ce 14be 8c28 b0be 31c0 b5be beb8 c5be
00000220: 41dd 84be 90d6 83be ce6f 603e a05b 6d3e
00000230: e060 10be 3986 913d 7f42 64be 5232 adbe
00000240: d44d 4dbe 5d45 c9be a34c a5be 0a70 10be
00000250: d906 1c3d d6ae fbbe c1cd ecbb f4f3 073d
00000260: 5d04 6fbe 7bdd 05be 174e 4cbe 1eb7 c5bd
00000270: 4d3d 8b3e d9d7 6bbe a3d0 b4be 6c85 063d
00000280: 3e3d 163e ba03 6c3e a07a 51be 65ef c4bd
00000290: d498 ecbd 08bd 253e 3d63 cf3d cd32 5bbd
000002a0: da1f e6be 14e1 663d 3406 b7be cfdc ef3c
000002b0: a1a7 d73e cd3e 75bd d251 b83e de3e 473e
000002c0: a718 583e 3729 c7bd 6f7d 1a3c c043 08be
000002d0: 43dc 9e3e 131d c4be 2afe c3be 2d8a 3bbd
000002e0: 4364 833e 3430 1cbf faaa 3cbf 18a3 86be
000002f0: 72a0 f8bd ddcd 2e3e 3c5c 40be 1eb9 823c
00000300: 486a fe3c 2482 43be 48b1 883e c648 263e
00000310: 4027 77be 63bb 32be 65b1 72be 9d69 b8be
00000320: 25ba b83c 93e3 90be e9db f03d 8d14 d03d
00000330: 410f 44be ba59 533e 572b ca3e bf4c 19be
00000340: 6715 113e 676e 363e beb5 76be 504f f73e
00000350: 62bd 94bd 0025 09bf 4e7f a8be f888 073e
00000360: 39f9 53be 3aec 4dbe 7a73 9cbd 5e3e 62be
00000370: 4c66 84be 4f78 f7bc e48b fe39 6889 41be
00000380: 90f5 a5bd 67aa 99be 8048 393e a6aa 6aba
00000390: a039 8fbc 5aeb 403d 9102 04be 511b 27be
000003a0: ee46 d9bf 9a8c 7a3d 9e82 00be 2fa4 0a3d
000003b0: 8347 9bbd 875c a03c fa33 a53e 7a98 6b3e
000003c0: 9f8a d8bd 12ca b63c ee6f 6dbe f04f 8ebc
000003d0: afa7 95bd 5d1c 7fbf 436a 683d 12a7 54be
000003e0: a237 7bbe 8914 b43e 1ce5 a9bd 717c aa3e
000003f0: 7c84 983e de50 093e ae50 463d cc97 55be

conv4.lin.weight f4 [1, 16]
0.03406996 0.6231532 0.14117253 0.4779956 0.10429073 -0.24309121 0.31431097 0.41452694
-0.028581498 0.03487284 -0.004978287 0.5230914 -0.48885146 -0.0053836703 -0.010772734 0.042057794
00000000: f18c 0b3d f886 1f3f 888f 103e d7bb f43e
00000010: 6196 d53d e7ec 78be 5eed a03e e03c d43e
00000020: bf23 eabc d3d6 0e3d e620 a3bb 51e9 053f
00000030: bd4a fabe 8069 b0bb 1f80 30bc cb44 2c3d
