data/gcn_pt_files/gcn4_lsoa_model.pt (torch, 17477 bytes, 9 tensors)

conv1.bias f4 [64]
0	0xbf49d387	-0.7883839
1	0xbf9a7718	-1.2067595
2	0xbf4c3946	-0.7977489
3	0xbe4b73f6	-0.19868454
4	0xc01c740a	-2.4445825
5	0xbea2604d	-0.31714097
6	0xbf96ecae	-1.1790979
7	0xbfb5da94	-1.420733
8	0xbe7844b0	-0.24244952
9	0xbfa96aa6	-1.3235672
10	0xbf3eec78	-0.7457957
11	0xbf9a2a11	-1.2044088
12	0xc02382c1	-2.5548556
13	0xbf84123b	-1.0318063
14	0xbf346759	-0.70470196
15	0xbf97b43a	-1.1851876
16	0xbfa0e60a	-1.2570202
17	0xbea22d7c	-0.31675327
18	0xbf883a8c	-1.0642867
19	0xbf56c80e	-0.8389901
20	0xbf752bfa	-0.9577023
21	0xbe83a5a6	-0.25712317
22	0xbf8a36bc	-1.0797954
23	0xbf9de0ff	-1.2334288
24	0xbfc1c3be	-1.5137861
25	0xbf53f37d	-0.8279341
26	0xbf92da63	-1.1472896
27	0xbea463e0	-0.3210745
28	0xbf90db11	-1.1316854
29	0xbfcc19ad	-1.5945336
30	0xbf1be735	-0.6089967
31	0xbeeca460	-0.46219158
32	0xbfafe790	-1.3742542
33	0xbe76f01f	-0.24115036
34	0xbf8c5318	-1.0962858
35	0xbee0b571	-0.4388843
36	0xbf31b437	-0.6941561
37	0xbfc9cdd7	-1.5765942
38	0xc026e9b4	-2.608014
39	0xbf48ecc0	-0.7848625
40	0xbf279a14	-0.6546948
41	0xbf819a5d	-1.0125233
42	0xbfa35434	-1.2760072
43	0xbf9ea1d1	-1.2393132
44	0xbfb17dd5	-1.3866526
45	0xbfd389f7	-1.6526479
46	0xbf8c2e69	-1.0951663
47	0xbf313b04	-0.69230676
48	0xc00024aa	-2.0022378
49	0xbfb7f697	-1.4372128
50	0xbf8ffd7a	-1.124923
51	0xbfce8b41	-1.6136247
52	0xbfcb85a9	-1.5900165
53	0xbface924	-1.3508649
54	0xbf3ae1f9	-0.73001057
55	0xbfbc8a3b	-1.4729685
56	0xbf4491bf	-0.7678489
57	0x3d9da027	0.07696562
58	0xbfe61053	-1.7973732
59	0xbf1145aa	-0.56746924
60	0xbf859654	-1.0436502
61	0xbf922974	-1.14189
62	0xc03ffa44	-2.99965
63	0xbf874015	-1.0566431

conv1.lin.weight f4 [64, 7]
0	0x3fa4e284	1.2881627
1	0x3c189376	0.009312501
2	0xbe8fe205	-0.28102127
3	0xbe2afae8	-0.16697276
4	0xbd974d2b	-0.073877655
5	0x3ec7ee6e	0.39049095
6	0x3df474b3	0.11936321
7	0x3eec65f3	0.4617153
8	0xbf00f7ee	-0.5037831
9	0x3df63a8a	0.12022884
10	0xbc8298f5	-0.015942076
11	0x3d2c0ee1	0.042006377
12	0x3ece278c	0.40264547
13	0x3e066da9	0.1312777
14	0xbf0a0819	-0.53918606
15	0xbfa21702	-1.2663271
16	0xc02cf77f	-2.702606
17	0x3dfa6e76	0.122281
18	0x3efa0e24	0.48838913
19	0xbeaf74c0	-0.3426876
20	0xbec45eac	-0.3835348
21	0xbdd66bf8	-0.10469812
22	0xbe5f0ddb	-0.21782629
23	0xc0b5dc98	-5.683178
24	0xbce5e0f9	-0.028061377
25	0x3d1aba8a	0.037775554
26	0x3be9add4	0.0071313176
27	0xbda45f8c	-0.080260366
28	0x3f686a82	0.9078752
29	0x3f3a27a6	0.7271675
30	0xbe1cf74f	-0.15328716
31	0xbf478e7b	-0.7795178
32	0xbfbd6da5	-1.4799086
33	0xbe0baa65	-0.13639219
34	0x3e9401b7	0.28907558
35	0xba1de6d0	-0.00060234684
36	0x3d817977	0.06321996
37	0xbd83abaa	-0.06429227
38	0xbd82a227	-0.06378584
39	0xbd0f13ff	-0.03493118
40	0x3d8c05b9	0.06837029
41	0x3c6e9e5f	0.014564126
42	0xbfe5a9f6	-1.7942493
43	0x3d07da4e	0.033167176
44	0xbf13b6bb	-0.577007
45	0xbd506311	-0.050875727
46	0xbf384b43	-0.7198984
47	0x3f20a643	0.62753695
48	0x3ecbfef6	0.39842957
49	0xc0003d22	-2.0037313
50	0x3fc246ef	1.5177897
51	0xbf2dc342	-0.67876065
52	0xbe38ee5a	-0.18059674
53	0x3e16ee3c	0.14739317
54	0x3f4f033d	0.80864316
55	0x3f385ba7	0.7201485
56	0xbd0b6d35	-0.034039695
57	0xbca3698d	-0.019947791
58	0x3d2331e4	0.0398425
59	0xbd8508db	-0.0649583
60	0xbc99750d	-0.018732572
61	0xbd04789b	-0.03234158
62	0x3d2f54bf	0.04280543
63	0x3f4d56dc	0.8021066
64	0xbd86ba4b	-0.06578501
65	0xbf39cc52	-0.72577393
66	0xbf43a2b8	-0.76420164
67	0x3e86c261	0.26320174
68	0xbd4213ec	-0.04738228
69	0xbe007724	-0.12545449
70	0x3f83f148	1.0308008
71	0x3f1fdff6	0.6245111
72	0x3f1566d2	0.58360016
73	0xbf5025e8	-0.8130784
74	0x3cf01072	0.029304717
75	0xbf2a8aa1	-0.6661778
76	0x3f84ad4e	1.0365388
77	0xc027839f	-2.6174085
78	0xbfe4de95	-1.7880427
79	0x3f6365c9	0.88827187
80	0x3e36bf98	0.17846525
81	0x3f603a47	0.87588924
82	0xbedca536	-0.43094796
83	0xbe43864e	-0.19094202
84	0xbe412cd8	-0.18864763
85	0xbe6039aa	-0.21896997
86	0x3e208dfe	0.15679166
87	0x3f963cdf	1.1737326
88	0xc01646f2	-2.3480802
89	0x3c8d7f8f	0.017272739
90	0x3e2fa6c0	0.17153454
91	0x3f8235dd	1.0172688
92	0x3ee6c91c	0.4507531
93	0xbe575a3c	-0.21030515
94	0xbdf996b1	-0.12186945
95	0xbea11516	-0.314614
96	0x3f5058d3	0.81385535
97	0xbd039138	-0.032120913
98	0xbdabbe58	-0.083859146
99	0xbd955a02	-0.07292558
100	0xbdd4fde6	-0.1039999
101	0xbe13e8b2	-0.14444235
102	0x3d40eca5	0.04710068
103	0xbdcea301	-0.10089684
104	0x3cfc8f4f	0.030830054
105	0x3ebc71ac	0.36805475
106	0xbe1250fa	-0.14288703
107	0xbe966c0e	-0.29379314
108	0xbf37a874	-0.71741414
109	0xbd1636ac	-0.036673233
110	0x3c8df7d2	0.017330084
111	0xbcc1347d	-0.023584599
112	0x3dd80a81	0.105488785
113	0x3dea151b	0.11429807
114	0x3e7ca8f4	0.24673826
115	0xbf7f1196	-0.9963621
116	0x3e5437cd	0.20724411
117	0x3db8bf9d	0.09020922
118	0xbd6886cd	-0.05676918
119	0x4000feb6	2.0155463
120	0x3e3d39ea	0.18479124
121	0xbd713fd3	-0.05889876
122	0xbd47e3da	-0.04880128
123	0xbc3fdad1	-0.011709885
124	0xbe1cbf34	-0.15307313
125	0x3f0d940e	0.5530404
126	0x3f21fda8	0.63277674
127	0xbbcab80c	-0.006186491
128	0xbefd64c8	-0.49490952
129	0xbf1ffbc0	-0.62493515
130	0x3e1e0d74	0.1543482
131	0xbd76f302	-0.060290344
132	0xbda7f283	-0.08200552
133	0x3da40d62	0.08010365
134	0x3e6b49e0	0.229774
135	0xbe458205	-0.1928788
136	0xbf016afa	-0.5055386
137	0xbdf6812b	-0.120363556
138	0xbd80f787	-0.06297212
139	0xbe682172	-0.22669008
140	0x3c095b99	0.008383655
141	0xbda4e804	-0.08052066
142	0xbcc7b531	-0.024378391
143	0xbe8dafe8	-0.27673268
144	0x3dd4126c	0.10355076
145	0x3d933bd4	0.07189146
146	0xbdb9434d	-0.0904604
147	0xbfd8b251	-1.6929418
148	0xbfc04196	-1.5020015
149	0xbfc71ed7	-1.5556287
150	0xbf8f5ef8	-1.1200857
151	0x3e94a5ad	0.2903265
152	0xbe3b835f	-0.18311833
153	0xbee727d2	-0.45147568
154	0x3e692f93	0.22772054
155	0x3d47993e	0.048730128
156	0x3d5cd76b	0.053916376
157	0xbed521d5	-0.41627374
158	0xbe882a45	-0.2659475
159	0x3e31a58b	0.17348306
160	0x3c8a7d99	0.016905593
161	0xbf71eac0	-0.94498825
162	0xbf8fc463	-1.1231807
163	0xbf3a0ac1	-0.7267266
164	0x3ed6289c	0.41827857
165	0xbf29135c	-0.66045165
166	0xbe713e79	-0.23558988
167	0x3e12d119	0.14337577
168	0x3f7733ea	0.9656359
169	0xbebf80ee	-0.37403053
170	0xbedc1fd9	-0.42993048
171	0xbf8bef6b	-1.093244
172	0x3e110391	0.14161517
173	0xbe10b07b	-0.14129822
174	0xbd38a32d	-0.04507749
175	0xbd811e36	-0.063045904
176	0xbe83b4da	-0.25723916
177	0x3ea37f20	0.31932926
178	0xbe8ff7e0	-0.281188
179	0xbd5e8845	-0.054329176
180	0x3e102a24	0.14078575
181	0xbdc2e6fa	-0.095167115
182	0xbe361060	-0.17779684
183	0xbeba18b1	-0.36346963
184	0x3f1e9ef7	0.6196131
185	0xbdb9514b	-0.090487085
186	0xbe359702	-0.17733386
187	0x3e0c5457	0.13704048
188	0x3ef46bd6	0.47738522
189	0xc00ee609	-2.2327902
190	0xc028e9be	-2.6392665
191	0x3ffd0154	1.976603
192	0xbe38ba59	-0.18039836
193	0x3ecbf4a1	0.39835075
194	0xbe8e8f84	-0.2784387
195	0xbe0c5585	-0.13704498
196	0xbe3110d2	-0.17291573
197	0xbd866f6f	-0.06564223
198	0xbe1eeed1	-0.15520789
199	0xbf19c93f	-0.600727
200	0x3e5a973b	0.21346752
201	0xbd2e2877	-0.04251906
202	0x3db7da31	0.089771636
203	0x3e69a540	0.22816944
204	0x3e9680ad	0.29395047
205	0xbf2e9000	-0.68188477
206	0xbea58332	-0.32326657
207	0xbf3c229b	-0.73490304
208	0xbec7b9f6	-0.39009064
209	0x3e8fb2e9	0.28066185
210	0x3e633de2	0.22191575
211	0xbe0c812e	-0.13721153
212	0xbdb72b7c	-0.08943841
213	0xbdee79ba	-0.11644311
214	0xbd801e08	-0.06255728
215	0xbd626abc	-0.05527757
216	0xbca9fb5e	-0.020749744
217	0x40026c59	2.037863
218	0x3f0dbdc0	0.5536766
219	0xbe39830c	-0.18116397
220	0xbe383755	-0.17989857
221	0x3dba5e2e	0.090999946
222	0x3e1f2879	0.15542783
223	0x3e06cea0	0.13164759
224	0xbdc78755	-0.097426094
225	0xbe96310a	-0.2933429
226	0x3edaa93c	0.4270724
227	0xbef44a43	-0.47712907
228	0xbebe2d13	-0.37143764
229	0x3e7f5ab3	0.24936943
230	0x3e4314f9	0.19050969
231	0xbd681896	-0.056664072
232	0xbcd4da33	-0.025982952
233	0xbd387e82	-0.045042522
234	0xbc9e1da0	-0.019301236
235	0x3cec1560	0.028818786
236	0x3d02e763	0.03195895
237	0xbd3413e0	-0.043964267
238	0x3e69905f	0.2280898
239	0x3f35a5df	0.70956224
240	0x3dce8d23	0.100855134
241	0xbf80a885	-1.0051428
242	0x3e516e3d	0.20452209
243	0xbe1ba074	-0.15197927
244	0x3c90598c	0.017620824
245	0x3dfc3163	0.12314107
246	0x3f08cf75	0.53441554
247	0xc014c2f9	-2.3244002
248	0x3f0dbe53	0.55368537
249	0xbeac7a9c	-0.33687294
250	0xbea322ea	-0.31862575
251	0xbadd929b	-0.0016904654
252	0x3f5e88cb	0.8692748
253	0x3dc18abe	0.09450291
254	0x3f3e4924	0.74330354
255	0xbea6d12f	-0.3258147

conv2.bias f4 [32]
0	0xbdd4da13	-0.10393157
1	0xbdbd15fd	-0.092327096
2	0xbe88d22b	-0.26722845
3	0xbf1476b8	-0.5799365
4	0xbf45ee8c	-0.7731712
5	0xbee4901e	-0.44641203
6	0xbcbcd55e	-0.02305096
7	0xbe0f0518	-0.13966787
8	0xbe81c793	-0.25347576
9	0xbe560180	-0.2089901
10	0x3e832e76	0.25621384
11	0xbe143155	-0.14471944
12	0x3f62216b	0.8833224
13	0xbe6d3297	-0.2316383
14	0x3f48daf9	0.78459126
15	0xbe0cf294	-0.13764411
16	0xbdd4e2f6	-0.10394852
17	0x3f1b6bcb	0.60711354
18	0xbf10e0aa	-0.5659281
19	0xbe7f8971	-0.24954773
20	0xbea55992	-0.322949
21	0xbec67b65	-0.38766018
22	0xbd928e18	-0.071560085
23	0xbede83f8	-0.4346006
24	0xbe89e0d6	-0.2692935
25	0xbe1f4f00	-0.1555748
26	0xbe346006	-0.17614755
27	0xbdfc8c51	-0.12331451
28	0xbe58685e	-0.21133563
29	0xbe203191	-0.15643908
30	0xbe993e3c	-0.29930294
31	0xbebd02f8	-0.36916327

conv2.lin.weight f4 [32, 64]
0	0xbe4d5ad9	-0.20054187
1	0xbcf81d0f	-0.030287294
2	0x3d7d6d94	0.06187208
3	0xbdf858cc	-0.12126312
4	0x3e0d4476	0.13795647
5	0xbd965680	-0.07340717
6	0x3d989387	0.074500136
7	0xbe9d1910	-0.30683184
8	0xbc7cd83f	-0.015432416
9	0xbe5af299	-0.21381606
10	0xbe9b8d3d	-0.30381194
11	0x3d3a3a82	0.045465954
12	0xbe2bf147	-0.16791259
13	0x3d75371b	0.059867006
14	0x3d930b35	0.07179872
15	0xbec4943d	-0.38394347
16	0x3c87ff5a	0.016601253
17	0xbdae86ec	-0.08521828
18	0xbe276622	-0.16347554
19	0x3e119402	0.14216617
20	0xbe954b07	-0.29158804
21	0xbe13de6d	-0.14440317
22	0xbebaa768	-0.36455846
23	0x3d13b26d	0.036058832
24	0x3cf482dd	0.029847557
25	0x3c8c1a31	0.017102333
26	0xbe75b9b4	-0.23996621
27	0xbdfc2bb0	-0.1231302
28	0xbcf6da3b	-0.030133357
29	0xbea0e551	-0.31424955
30	0xbccd68a3	-0.025074309
31	0x3dcb80e0	0.0993669
32	0xbe42c062	-0.190187
33	0x3da2b9af	0.079455726
34	0xbdc1b86a	-0.09459002
35	0x3cf1e275	0.029526928
36	0x3cb46c11	0.022024186
37	0xbe0597d7	-0.13046204
38	0xbe8edd60	-0.2790327
39	0xbdfee100	-0.12445259
40	0xbeaac56d	-0.3335375
41	0xbe8af210	-0.27137804
42	0xbee9a797	-0.45635673
43	0xbe8a506c	-0.27014482
44	0xbe1ff644	-0.15621287
45	0x3da20d05	0.079126395
46	0xbe298526	-0.16554698
47	0xbe263016	-0.16229281
48	0xb8abf000	-8.198619e-05
49	0xbe5e02e9	-0.21680798
50	0xbddb9558	-0.107218444
51	0xbe8a1a19	-0.26973036
52	0xbe07517e	-0.1321468
53	0xbe4e5a80	-0.2015171
54	0x3dab651f	0.08368897
55	0xbebd363b	-0.36955437
56	0xbe5d37fb	-0.21603386
57	0xbe1d0c7d	-0.15336795
58	0xbe042094	-0.12903053
59	0x3dd2a954	0.10286203
60	0xbe40be77	-0.18822657
61	0xbd3e0cb2	-0.046398826
62	0xbe21a0fb	-0.15784065
63	0xbdb11f01	-0.08648492
64	0xbe82bd15	-0.25534883
65	0x3de67de7	0.11254483
66	0xbea1f285	-0.3163034
67	0xbdd34202	-0.10315324
68	0xbdf21798	-0.118209064
69	0x3e00be9c	0.12572712
70	0xbe6eb0cd	-0.23309632
71	0xbe5354f5	-0.20637877
72	0x3e08598b	0.13315408
73	0xbe47b131	-0.19501187
74	0x3d844e78	0.06460279
75	0x3dbb9825	0.09159879
76	0xbe33e995	-0.17569573
77	0x3b662320	0.003511615
78	0xbe1c4990	-0.15262437
79	0x3cff8ee5	0.031196067
80	0xbeb47cf1	-0.35251573
81	0xbd87142b	-0.065956436
82	0xbbdc769d	-0.006728007
83	0x3daac8d4	0.08339086
84	0x3df5ccd3	0.12001958
85	0xbdb3cd9b	-0.087794505
86	0x3e1a5a64	0.15073544
87	0xbdef3832	-0.1168064
88	0xbe1a7e83	-0.15087323
89	0xbde8eea4	-0.11373642
90	0x3e097d90	0.13426805
91	0xbe96dff4	-0.29467738
92	0xbd9194b1	-0.07108439
93	0xbe9a7915	-0.30170503
94	0xbde9892e	-0.11403118
95	0xbd6fa547	-0.05850723
96	0x3dcb7ce3	0.099359296
97	0xbd17ad7a	-0.037030675
98	0xbe992574	-0.29911387
99	0xbe9cae6e	-0.3060183
100	0xbe541972	-0.20712832
101	0xbe1558ce	-0.14584658
102	0xbe9b362a	-0.3031476
103	0xbe885b50	-0.26632166
104	0xbe362689	-0.17788137
105	0xbe58e35e	-0.21180484
106	0xbe1fff3e	-0.15624711
107	0xbe5a8133	-0.21338348
108	0xbe6381e4	-0.22217518
109	0xbe02eb01	-0.1278496
110	0x3d86db3c	0.065847844
111	0x3e28b453	0.16475038
112	0xbe27f522	-0.16402104
113	0xbcac8cc3	-0.021063214
114	0xbd334a28	-0.043771893
115	0x3da4bf4c	0.080442995
116	0xbe66f075	-0.22552665
117	0xbea3b800	-0.31976318
118	0x3d92b806	0.07164006
119	0xbdd782dc	-0.10523006
120	0x3df2a18b	0.11847218
121	0x3bb91ede	0.0056494316
122	0x3cfd5e4f	0.030928759
123	0x3c478123	0.012176785
124	0x3c354fb6	0.011066368
125	0xbd5c2214	-0.053743437
126	0xbd8cdc06	-0.06877904
127	0x3d9edc2d	0.07756839
128	0xbc474f74	-0.012164939
129	0x3cdb25cc	0.026751421
130	0xbf1b7eae	-0.6074017
131	0xbe749fd7	-0.23889099
132	0x3e1bfef3	0.15233974
133	0x3c13dd80	0.009024978
134	0xbe6edf09	-0.23327269
135	0xbe31ce0c	-0.17363757
136	0xbe99a093	-0.3000532
137	0x3d88d26e	0.06680761
138	0xbe92454d	-0.28568497
139	0x3e34f05e	0.17669818
140	0xbe46a1be	-0.19397637
141	0xbe2e57ff	-0.17025755
142	0xbda3e3f8	-0.08002466
143	0x3dffa576	0.12482731
144	0xbf2eb7e3	-0.6824934
145	0xbe81f584	-0.25382626
146	0xbd80e5d6	-0.06293838
147	0xbee5d486	-0.44888705
148	0xbe374936	-0.17899022
149	0xbe6d916a	-0.23200002
150	0xbb04a959	-0.002024254
151	0xbe415985	-0.18881805
152	0x3c54d8b7	0.012991122
153	0xbdafb1d0	-0.08578837
154	0x3e3ca198	0.18421018
155	0xbf127e55	-0.5722402
156	0x3bb33ccc	0.005469894
157	0xbc206786	-0.009790307
158	0xbe8622f6	-0.26198548
159	0xbe57f40f	-0.21089195
160	0x3e4c785f	0.19967793
161	0x3ced0804	0.028934486
162	0xbeaf9806	-0.34295672
163	0xbe2a5169	-0.16632618
164	0xbe095dd2	-0.13414696
165	0x3d7cd09d	0.061722387
166	0xbd358ec6	-0.044325612
167	0xbdc55d1e	-0.09636901
168	0x3e13538d	0.14387341
169	0xbe69c9a7	-0.2283083
170	0xbe58c0af	-0.21167253
171	0x3e89a399	0.26882628
172	0xbeaf0786	-0.34185427
173	0xbd9ed723	-0.07755878
174	0xbe80aa1a	-0.25129777
175	0xbdfb3231	-0.122654326
176	0xbed8ad7d	-0.4231986
177	0xbd600025	-0.054687638
178	0xbcb9b1df	-0.022667823
179	0x3da16f0d	0.078825094
180	0xbbfc0a24	-0.0076916385
181	0x3e7e47b0	0.24832034
182	0xbe9c585c	-0.30536163
183	0x3e3e2331	0.18568112
184	0x3c9ae25d	0.018906767
185	0xbe3910a6	-0.18072757
186	0x3dafb41f	0.08579277
187	0xbf99e580	-1.2023163
188	0xbdeb6a96	-0.11494939
189	0xbebb3a82	-0.36568075
190	0xbe7cc50a	-0.2468454
191	0x3e09ff53	0.13476305
192	0x3e78b7bf	0.24288844
193	0xbda6fc05	-0.08153538
194	0x3e54c9fc	0.20780176
195	0xbbd83238	-0.0065977834
196	0xbea2bc1d	-0.31784144
197	0xbe5457f8	-0.20736682
198	0xbfd54cc9	-1.6664058
199	0xbfbae47a	-1.4600976
200	0x3e1c2579	0.1524867
201	0xbeafe321	-0.34352973
202	0xbf7656d4	-0.9622624
203	0xbdb62587	-0.088938765
204	0x3ee98fa9	0.45617417
205	0x3f220552	0.6328937
206	0x3e64b253	0.2233365
207	0xbee3ab8a	-0.4446681
208	0x3c964362	0.018342678
209	0xbf402d51	-0.7506915
210	0xbe515df6	-0.20446
211	0xbef2d833	-0.47430572
212	0x3e32d699	0.17464675
213	0xbf11126b	-0.5666873
214	0xbd9b5315	-0.07584206
215	0x3f8e8f30	1.1137447
216	0xbe970f10	-0.2950368
217	0xbe29d4b9	-0.16585054
218	0x3e252037	0.1612557
219	0xbfb72bc0	-1.4310226
220	0xbb1c73c7	-0.002387272
221	0xbc1b62bb	-0.009483988
222	0x3dd614d8	0.104531944
223	0xbede1688	-0.43376565
224	0xbeaf4338	-0.3423097
225	0xbe8773a2	-0.26455408
226	0xbeb1116a	-0.34583598
227	0xbe9e081f	-0.3086557
228	0xbba8917c	-0.005144296
229	0xbf550541	-0.8321114
230	0x3f19e622	0.6011678
231	0xbe6a037d	-0.22852893
232	0xbdc501ab	-0.09619459
233	0x3c4c618e	0.012474431
234	0xbeb956fc	-0.36199176
235	0xbf8233d2	-1.0172064
236	0xbd1623f0	-0.036655366
237	0x3fc64ca5	1.549214
238	0xbe8ad255	-0.27113596
239	0xbdc15d0c	-0.094415754
240	0xbf985dde	-1.1903646
241	0xbd24c4ad	-0.040226627
242	0xbe77e642	-0.2420893
243	0x3f85c323	1.0450176
244	0x3fa0040a	1.2501233
245	0x3de45ede	0.11150907
246	0xbf6c5257	-0.9231314
247	0x3dac69ab	0.08418592
248	0x3e8780e3	0.2646552
249	0xbf64970a	-0.8929297
250	0x3fabedcb	1.3431944
251	0xbf81dfe6	-1.0146453
252	0xbe67337d	-0.22578235
253	0xbe39b734	-0.18136293
254	0xbdc7bf42	-0.097532764
255	0x3faee01f	1.3662146

conv3.bias f4 [16]
0	0x3f4c810c	0.7988441
1	0xbd62ecb0	-0.055401504
2	0x3ed063ed	0.40701237
3	0xbe8a539e	-0.2701692
4	0xbfc73994	-1.5564446
5	0xbe7309df	-0.23734234
6	0xbe1d0ad8	-0.15336168
7	0xbf3e3634	-0.7430146
8	0xbc98cb31	-0.018651577
9	0xbe0b6f3c	-0.13616651
10	0xbd8ebb4e	-0.06969319
11	0xbed1bdf1	-0.40965226
12	0x3edbbc7d	0.42917243
13	0xbf4b43ef	-0.79400533
14	0xbe8220a9	-0.25415543
15	0xbe953873	-0.2914463

conv3.lin.weight f4 [16, 32]
0	0x3e24223e	0.16028687
1	0x3eb4c287	0.35304663
2	0xbde4c73c	-0.111708134
3	0xbf05ce56	-0.5226797
4	0xbf2a417a	-0.6650616
5	0x3ea6601a	0.32495195
6	0xbc90db91	-0.017682822
7	0xbe7d8302	-0.24757007
8	0xbd04b8a2	-0.032402642
9	0xbda7615d	-0.081728674
10	0xbf871b21	-1.0555154
11	0x3da72d13	0.08162894
12	0x3ed713e6	0.4200737
13	0xbc40d536	-0.011769583
14	0xbed1abff	-0.40951535
15	0x3ea50b28	0.32235074
16	0x3e8737ae	0.26409668
17	0x3f17cd89	0.59297997
18	0xbe129469	-0.14314426
19	0xbc903796	-0.01760463
20	0x3c4d0aa1	0.012514741
21	0xbe61a8ef	-0.220371
22	0x3d9f9e4f	0.07793867
23	0x3ea87679	0.32902887
24	0xbc9d8af0	-0.01923129
25	0x3e124035	0.14282306
26	0xbde3a1e6	-0.11114864
27	0x3e0210be	0.12701699
28	0xbde28c73	-0.11061945
29	0xbdd110ae	-0.102082595
30	0x3d5e116e	0.05421584
31	0xbebfe9d5	-0.37483087
32	0x3dee4c88	0.11635691
33	0xbe30468d	-0.17214413
34	0x3d9607c3	0.07325699
35	0xbdc2aeb4	-0.09505978
36	0xbe0cd517	-0.13753162
37	0xbd1e4cd4	-0.038647488
38	0x3e41b8ef	0.18918203
39	0xbe4f4a62	-0.20243219
40	0xbeac1f74	-0.33617747
41	0xbd1ef2f6	-0.038805924
42	0xbe9b1f38	-0.30297256
43	0xbe34ca6b	-0.17655341
44	0xbeccc26d	-0.39992085
45	0xbe70da21	-0.2352071
46	0xbde3eaad	-0.11128745
47	0x3d99bf92	0.07507242
48	0xbe6a185f	-0.2286086
49	0xbdd770d3	-0.105195664
50	0x3da3b74b	0.07993945
51	0x3e090602	0.13381198
52	0xbda9afcf	-0.08285486
53	0x3e1a0fcd	0.1504509
54	0xbe487f6a	-0.19579855
55	0xbec0592b	-0.3756803
56	0x3daab3c7	0.08335071
57	0xbe004210	-0.12525201
58	0xbd8088b1	-0.06276072
59	0xbec25151	-0.37952664
60	0x3e4b3b3c	0.19846815
61	0xbcb0d803	-0.021587377
62	0xbe678d76	-0.22612557
63	0x3d6b7864	0.05748786
64	0xbdfe8d75	-0.124293245
65	0xbe5f6e66	-0.21819457
66	0x3cda3588	0.026636854
67	0xbf06dbe0	-0.5267925
68	0x3ed68846	0.41900843
69	0x3da0150b	0.07816514
70	0xbd8aaf2b	-0.06771692
71	0xbdd911ad	-0.105990745
72	0xbe0f2703	-0.13979726
73	0xbeb5c27d	-0.35499945
74	0xbff29388	-1.8951273
75	0x3daee202	0.08539201
76	0xbe16dba0	-0.14732218
77	0xbd809cef	-0.06279933
78	0xc0709dc0	-3.7596283
79	0x3d208dc7	0.03919771
80	0xbe8057ab	-0.25066885
81	0x3e256f75	0.16155799
82	0x3ec486cc	0.38384092
83	0x3ea0d77c	0.31414402
84	0xbe8d6d6e	-0.2762255
85	0x3e414862	0.18875268
86	0x3cccf911	0.025021108
87	0x3e844303	0.25832376
88	0xbe812a6a	-0.25227672
89	0xbdf3d76b	-0.11906322
90	0xbd9749b1	-0.073871024
91	0xbdbf11a3	-0.09329536
92	0xbe90b676	-0.28264207
93	0x3e77ddfc	0.24205774
94	0xbec58321	-0.38576606
95	0xbd7a0e04	-0.061048523
96	0xbe76e0df	-0.24109219
97	0x3d43acae	0.047772102
98	0xbec751b3	-0.3892952
99	0xbe5297b6	-0.20565686
100	0x3d64ae9d	0.055830587
101	0xbd6e5ec2	-0.058195837
102	0xbec54b4f	-0.38534018
103	0xbe665987	-0.2249509
104	0xbd724922	-0.059151776
105	0xbe92d164	-0.28675377
106	0xbe88ac82	-0.26694113
107	0x3d5dee21	0.054182176
108	0xbf11768c	-0.56821513
109	0xbe95c0fc	-0.29248798
110	0xbee1f13b	-0.44129357
111	0x3dce1c42	0.100639835
112	0xbec8c3f9	-0.39212015
113	0x3bc245fc	0.005928753
114	0xbebe79f2	-0.37202412
115	0x3ddc9d1d	0.107721545
116	0xbf2dba78	-0.67862654
117	0x3be3e2e6	0.0069545386
118	0xbe41ee86	-0.18938646
119	0x3dbac810	0.0912019
120	0xbe759f71	-0.23986603
121	0x3dbf4f5a	0.09341307
122	0x3d81eb31	0.06343687
123	0xbe7a81aa	-0.24463525
124	0x3e27c838	0.16384971
125	0x3e5ae9ee	0.213783
126	0xbd5c8b42	-0.053843744
127	0x3db3bf06	0.08776669
128	0xbefcf7a5	-0.49407688
129	0xbea18d3d	-0.3155307
130	0xbf06d0a4	-0.5266211
131	0xbf8582ac	-1.0430503
132	0x3f9e4b9f	1.2366828
133	0xc0645118	-3.5674496
134	0xbebe8db3	-0.37217483
135	0x3e559957	0.20859276
136	0x3dbcb56b	0.0921429
137	0x3fea1357	1.8287152
138	0x3ea70c85	0.3262674
139	0x3ed38321	0.4131098
140	0xc007864d	-2.117572
141	0xbf96932d	-1.1763664
142	0x3f19a401	0.60015875
143	0x3e9ce380	0.3064232
144	0xbea86490	-0.32889223
145	0xc05f438a	-3.4884973
146	0xc04f257c	-3.2366629
147	0xbf17bbcb	-0.59270924
148	0xbf134177	-0.57521766
149	0xc02e77ab	-2.726054
150	0xbdec7542	-0.11545803
151	0xbf0625c0	-0.5240135
152	0xbe7081c2	-0.23486999
153	0xbe9660ae	-0.29370636
154	0x3eabda69	0.3356507
155	0xbfa03ae7	-1.2517976
156	0x3f2557ed	0.6458729
157	0x3eaf298a	0.3421138
158	0x3ee3a224	0.4445964
159	0xbf6eeeca	-0.93333113
160	0xbda309a5	-0.07960824
161	0xbe4f5dc0	-0.20250607
162	0xbe240649	-0.16018023
163	0xbe7780f2	-0.24170282
164	0xbe42db5d	-0.19028993
165	0xbe8c7541	-0.27433208
166	0xbe6f100c	-0.23345965
167	0x3e5d9881	0.21640207
168	0xbe2400d3	-0.1601594
169	0x3e9e51be	0.3092174
170	0xbf46b0a5	-0.7761329
171	0xbe2fdd4c	-0.17174262
172	0xbe412b77	-0.18864237
173	0x3e4f6cd3	0.20256357
174	0xbf50be4b	-0.81540364
175	0xbd7eddbd	-0.062223185
176	0xbe3246ed	-0.17409869
177	0xbf1a7e43	-0.6034891
178	0xbf2dafa1	-0.67846113
179	0x3f085e6b	0.5326907
180	0xbe814afe	-0.25252527
181	0x3ed27397	0.41103813
182	0xbdd2162a	-0.10258134
183	0xbeab0807	-0.33404562
184	0xbd9314b8	-0.07181686
185	0x3eb51ca1	0.35373405
186	0xbda2440a	-0.07923134
187	0x3c804681	0.015658619
188	0xbee65463	-0.44986257
189	0x3f8fbe04	1.1229863
190	0xbd61535e	-0.055011146
191	0xbecdc06b	-0.40185866
192	0xbb285d80	-0.0025690496
193	0x3dfe0df2	0.124050036
194	0x3e737e63	0.23778681
195	0xbe985ba7	-0.29757425
196	0xbdeba1c5	-0.115054645
197	0xbec92410	-0.39285326
198	0xbe394c0e	-0.18095419
199	0xbe8fa02b	-0.28051886
200	0x3e2874a2	0.16450742
201	0xbe5f9974	-0.21835881
202	0xbea93c00	-0.3305359
203	0xbebdcafa	-0.3706892
204	0x3d926115	0.07147423
205	0x3dbc977b	0.0920858
206	0xbee8d339	-0.4547365
207	0x3e92bc13	0.28659114
208	0xbe2fac66	-0.17155609
209	0xbe1263ac	-0.14295834
210	0xbecdec9f	-0.4021959
211	0x3e80e788	0.25176644
212	0xbe9f719e	-0.3114137
213	0x3e7cef64	0.24700695
214	0xbea8ec9b	-0.32993016
215	0xbd48a824	-0.048988476
216	0xbd72252b	-0.059117477
217	0x3ea82ad7	0.32845184
218	0xbe70a33e	-0.23499772
219	0x3c05a3cb	0.008156727
220	0x3de9180f	0.11381542
221	0x3dcc6d75	0.09981815
222	0x3d81c218	0.063358486
223	0xbd279196	-0.040910326
224	0x3dca1ece	0.09869157
225	0xbeb87a30	-0.36030722
226	0x3e2402f9	0.16016759
227	0x3f6ade1f	0.9174518
228	0xbf5550ef	-0.8332662
229	0x3f36ea0b	0.7145087
230	0xbe39b614	-0.18135864
231	0xbe102b23	-0.14078955
232	0xbe4ae168	-0.19812548
233	0x3ef367fd	0.47540274
234	0xbeefbc76	-0.46823472
235	0x3d81fdae	0.06347214
236	0xbf6b292f	-0.91859716
237	0xbd9f5b2d	-0.07781062
238	0xbc44a142	-0.0120013375
239	0x3b8720cd	0.004123783
240	0xbc8818b7	-0.016613347
241	0xc004a811	-2.072758
242	0xbea6a293	-0.3254591
243	0xbe744e00	-0.2385788
244	0xbfc46606	-1.5343635
245	0xbf9b6cec	-1.2142615
246	0xbe2b0680	-0.16701698
247	0xbd048b05	-0.03235914
248	0xbd477254	-0.048693016
249	0xbe6b4187	-0.22974215
250	0x3e328f48	0.1743747
251	0x3db1f011	0.08688367
252	0xbe921c4c	-0.28537214
253	0xbe086057	-0.13318
254	0x3c859954	0.016308464
255	0x3e1144ac	0.14186352

conv4.bias f4 [8]
0	0xbe995a44	-0.2995168
1	0xc0080196	-2.1250968
2	0x3f78eee9	0.9723955
3	0xbe1de786	-0.1542035
4	0xbfb99ba2	-1.450062
5	0xbeea108a	-0.45715743
6	0xbe1c4f9f	-0.15264748
7	0xbeabf903	-0.33588418

conv4.lin.weight f4 [8, 16]
0	0xbf009a9e	-0.5023593
1	0x3ed93ca9	0.42429093
2	0xbe722372	-0.23646334
3	0x3e66b28f	0.22529052
4	0xbf1ee6a6	-0.6207069
5	0xbea6d37e	-0.3258323
6	0xbf05ad48	-0.5221753
7	0xbee8dd80	-0.4548149
8	0xbe61f95d	-0.22067781
9	0xbeea4381	-0.45754626
10	0x3ebf6eaa	0.37389117
11	0x3de79484	0.11307624
12	0xbf4858ac	-0.782603
13	0xbf2e21d7	-0.68020386
14	0x3e9b7823	0.30365095
15	0x3ed48efc	0.41515338
16	0x3ee52068	0.44751287
17	0xbe726095	-0.23669656
18	0xbe1e659d	-0.1546845
19	0xbf2601c0	-0.6484642
20	0xbf0bbd5d	-0.5458582
21	0xbe133989	-0.14377417
22	0xbe1080c2	-0.14111617
23	0xbe8d38a4	-0.27582276
24	0x3e58066b	0.21096198
25	0xbeb09453	-0.34488162
26	0xbe1d6444	-0.1537028
27	0xbe84abb4	-0.2591225
28	0xc040cca6	-3.0124907
29	0xbf0482e3	-0.5176222
30	0x3ec3d19d	0.3824586
31	0xbe1b2720	-0.15151644
32	0x3f16fcd9	0.58979565
33	0x3dc618a9	0.09672672
34	0x3e98cd98	0.29844356
35	0xbe096a5d	-0.1341948
36	0xbe8c7ee8	-0.27440572
37	0xbbbc1f09	-0.0057410044
38	0xbe14ad3b	-0.14519207
39	0x3ed09244	0.40736592
40	0xbe4d7103	-0.20062642
41	0xbe993b25	-0.29927936
42	0xbb47edf3	-0.003050682
43	0x3c554fde	0.01301953
44	0x3df93809	0.12168891
45	0x3e4f49be	0.20242974
46	0x3ed185e8	0.40922475
47	0xbe4aa614	-0.19789916
48	0xbefebd5c	-0.49753845
49	0x3ebf9658	0.3741939
50	0x3d766daa	0.060163178
51	0x3e98be15	0.2983252
52	0xbe93b135	-0.28846136
53	0xbe1cd1bc	-0.15314382
54	0xbecad1b4	-0.39613116
55	0xbec60128	-0.38672757
56	0xbe43f506	-0.19136438
57	0x3e4d475b	0.20046751
58	0xbedda153	-0.43287143
59	0x3e6f3d29	0.23363174
60	0xbec5e024	-0.38647568
61	0xbdd56217	-0.104191
62	0xbf0547d5	-0.5206273
63	0x3e661124	0.22467476
64	0xbeb578e4	-0.35443795
65	0x3d50b4d0	0.050953686
66	0x3ae73c87	0.001764194
67	0xbf15af2c	-0.58470416
68	0xbf4020b2	-0.7504989
69	0x3d9867d8	0.074416816
70	0xbefe80b6	-0.49707574
71	0x3f233581	0.63753515
72	0x3e4e4a07	0.20145427
73	0xbeb1ff1d	-0.34764948
74	0x3d8f76cf	0.07005083
75	0xbf5721cd	-0.8403595
76	0x3f6c4390	0.9229059
77	0xbf12c42b	-0.5733058
78	0xbd2f79fa	-0.042840935
79	0xbe9797f5	-0.29608122
80	0xbcc3659f	-0.023852168
81	0x3cd02be3	0.025411552
82	0x3cc56b55	0.024099031
83	0xbed6acac	-0.41928613
84	0x3c153671	0.009107218
85	0x3e74be1c	0.23900646
86	0xbed46283	-0.41481408
87	0xc0382cdb	-2.8777378
88	0xbe6df54f	-0.23238109
89	0xbecda571	-0.40165284
90	0xbf13f6b6	-0.57798326
91	0xbec6e3ee	-0.38845772
92	0xbef9b09d	-0.48767558
93	0xbf0c33a4	-0.547663
94	0xbf0e7590	-0.55648136
95	0x3cddfd60	0.027098358
96	0xbc95f48f	-0.018305091
97	0x3c28f214	0.010311622
98	0xbec2cf76	-0.38048905
99	0x3ee18866	0.44049376
100	0xbcc9e46d	-0.024645055
101	0xbeab58ed	-0.33466282
102	0xbe782da9	-0.24236168
103	0xbf0572a7	-0.5212807
104	0xbeb7f2e3	-0.35927495
105	0x3e0a79fd	0.13523097
106	0xbd94d37c	-0.072669
107	0xbeb8145b	-0.3595303
108	0xbcef0cdf	-0.029180942
109	0xbd10795c	-0.035271987
110	0xbe331451	-0.17488219
111	0x3e979e46	0.2961294
112	0xbea14967	-0.31501314
113	0xbe872be9	-0.26400688
114	0xbf0d4305	-0.5518039
115	0xbecb5be5	-0.39718547
116	0xbef8762b	-0.48527655
117	0xbc161acb	-0.009161661
118	0xbcde30ad	-0.02712282
119	0xbe7fc3aa	-0.24976984
120	0xbe185f14	-0.1488002
121	0xbea3590f	-0.31903884
122	0xbd04f572	-0.032460637
123	0x3cf64d7f	0.03006625
124	0xbf215877	-0.6302561
125	0xbea89b96	-0.32931203
126	0x3dcb5c36	0.09929697
127	0xbea55463	-0.32290944

conv5.lin.weight f4 [1, 8]
0	0xbf1a6ba4	-0.60320497
1	0x3ec88fdf	0.39172265
2	0x3f46fd02	0.7772981
3	0xbf1548ca	-0.5831419
4	0xbf3d3fb8	-0.7392535
5	0x385e39b5	5.298267e-05
6	0xbdb606fc	-0.08888051
7	0xbe109d47	-0.14122497
