data/gcn_pt_files/gcn_lsoa_model.pt (torch, 3683 bytes, 3 tensors)

conv1.bias f4 [32]
00000000: 6db9 96be a6ab 96bd 3530 c33e 30b5 183e
00000010: da34 9cbe 6486 523e 18ef c4be dfbd 973c
00000020: 57ce ff3e e77a 393e b9fc 17bf 8407 aabe
00000030: a62f 06be e1d2 b53e ea40 7cbd ea42 e7be
00000040: 80fd 87be 27df 88be ff40 8fbe 7ee3 afbe
00000050: be70 24bf f772 de3d ab50 4d3f 144b d4bd
00000060: 0323 1d3b dcc6 94be 367b 4bbf 7f2a 26bf
00000070: 711b 94be ea76 a63e e777 a0be 4d53 a03e
-0.29438344 -0.07356958 0.38122717 0.14912868 -0.30509073 0.20559078 -0.38463664 0.018523155
0.49962112 0.1811329 -0.5937 -0.3320886 -0.13104114 0.3551245 -0.061585344 -0.4516824
-0.26560593 -0.26732752 -0.27979276 -0.3435325 -0.6423453 0.108617716 0.80201215 -0.103658825
0.0023977167 -0.29057968 -0.7948488 -0.64908594 -0.28927186 0.325126 -0.31341478 0.31313553

conv1.lin.weight f4 [32, 6]
00000000: 34ee 78bf c0fd 11be 4318 80be 477c 2abe
00000010: c9fe 75bd 03bf d1bd 5ba5 b43e 8710 adbf
00000020: b3ba 953e 1080 86bf 1d98 dabc f936 c03c
00000030: e430 943e 6fb1 e9bd d46c 6c3f 65f0 0e3f
00000040: c388 073e 8c1e 143e e449 563f 398d db3d
00000050: 5652 4ebe 04b7 fe3d 148d 3abf a600 1c3d
00000060: 117d 1ebd 61c4 bebc 7c97 563c 9189 d7bd
00000070: cc28 a73d 0c84 8dbb 3e0f 4d3f eb73 1abd
00000080: 9376 64bd 5140 163f f857 e63e 6a12 bc3e
00000090: 9e2d 3a3e 038e fbbe b0cb 4c3e 3732 103f
000000a0: ef5f 35bd db26 1c3d dd1b f6be ac07 043e
000000b0: 4876 b3bd 5705 19bd ad7b fb3e 1453 0cbe
000000c0: 77a5 d23e 0288 d13e f5d2 f13e d9d9 283f
000000d0: 9ac5 16be e4a1 f3bc 2609 cd3d 4628 a13c
000000e0: 176a afbc 237a c33c 8a86 7c3e c7ed 46bf
000000f0: 0345 6d3f bedf 8bbf e1c9 5ebe 430b ef3e
00000100: 262e e9bb 058d 623e 5e69 0a3d 55e2 4bbe
00000110: 9ab7 023e 5e10 593f 47d3 7abd e04c 7a3c
00000120: 2e63 c53e 991e 92bf f652 bdbe 8ca4 abbf
00000130: 07c2 a7bc 85f3 86bd 78ff 0ebf bf15 943e
00000140: 8fd0 58be ce75 c93e a721 46be ddfb c13e
00000150: 90d1 c23e 9c75 b63c bdde c0bd 1a89 b23e
00000160: f8e5 70be 0c5a 823e 1a81 f73e 636a 21bf
00000170: 2657 09be b29e a8bd c447 99bc 74e7 543d
00000180: ed7f 323f 3eeb c4ba 922f 2c3d 3903 ecbd
00000190: 6a76 173f 377d a73e d981 313f 09c6 713c
000001a0: 8351 b0be 8b5a 81bd ef00 253e ff12 6cbe
000001b0: abcd 1e3f d743 983d f37e d3be 9e69 2ebd
000001c0: ef78 a53e 2932 31bd 8e01 c4bd b451 64bf
000001d0: 3764 b8be 610a 5a3f d591 f2bc 7011 59b9
000001e0: 64d9 303f 90b2 5cbf dc54 9abe af28 a0be
000001f0: 7734 8e3b e06d ddb9 ce10 b73d a707 a63e
00000200: d951 fdbd 3f10 9e3e de49 473c b2cc f03b
00000210: 0cd4 4cbf 9ae3 0a3e 4f75 90be a59d 563e
00000220: 4adf 0bbe 1bbb ad3d b800 443f afb7 62bd
00000230: e0d4 323d 0834 ef3d c5be 173e 2344 233f
00000240: 2830 fe3e 40c6 3c3e a290 5abb d20d 813e
00000250: 7bb6 32bc f4ff 02bf 0f9a 19bf b177 f03d
00000260: 37a7 b6bd a251 67bd c034 ebbc c05d cbbc
00000270: fd72 1fbe e620 bb3d 65cd 01c0 edf0 3c3c
00000280: 68f1 043d 40a7 543c a655 d3bd f82b 20bf
00000290: 0be5 283f c33f 0dbf 17dd b4bc 3e49 31bd
000002a0: e2cf e4bd c80e 803d c5f6 9a3c 7b4a 803c
000002b0: c61e 4ebe ed5b 5c3d 4397 d93e c791 1d3f
000002c0: 1e2b 1cbf f848 a83e bcb6 763e 36cb ad3e
000002d0: dc35 b2be 343a 383e 2bcc a9bd fb2d e93a
000002e0: c80b f8bc 0155 96bd 5d15 253f 8957 f53e
000002f0: 1cb6 8dbe 4240 003f 1668 6a3e 41cc 1fbe
-0.9723847 -0.14256954 -0.2501851 -0.1664897 -0.060057435 -0.10241511 0.35282406 -1.3520669
0.29244003 -1.0507832 -0.026683861 0.023463713 0.2894355 -0.11410796 0.9235356 0.5583556
0.13235764 0.14464778 0.837065 0.107202955 -0.20148596 0.12437251 -0.7287152 0.038086556
-0.03869349 -0.023287 0.01309764 -0.105242856 0.08162078 -0.0043187197 0.8010138 -0.037708204
-0.055777144 0.5869189 0.4498899 0.367328 0.18181464 -0.49131784 0.19999576 0.5632662
-0.044280943 0.038122993 -0.48068133 0.12893552 -0.08762795 -0.037358608 0.49117795 -0.13703567
0.41141865 0.40924078 0.4723126 0.6595741 -0.14723817 -0.029740281 0.100115106 0.019672524
-0.021412892 0.02386195 0.24660698 -0.7770657 0.9268343 -1.0927656 -0.21756698 0.4668828
-0.007116097 0.22124107 0.033791892 -0.19910558 0.12765351 0.847906 -0.061236646 0.0152771175
0.3855223 -1.1415588 -0.36977357 -1.3409591 -0.020478262 -0.065894164 -0.55858564 0.2892284
-0.21173309 0.3934769 -0.19348775 0.3788747 0.38050508 0.022272877 -0.09417484 0.34870225
-0.23525226 0.25459325 0.48340684 -0.6305296 -0.1341215 -0.08233394 -0.018710978 0.051978543
0.6972645 -0.0015023721 0.042037554 -0.11524052 0.5916506 0.3271272 0.69338757 0.014756688
-0.34437189 -0.06316098 0.16113637 -0.23054121 0.62032574 0.074348144 -0.41307792 -0.042581193
0.32318828 -0.043260727 -0.09570609 -0.8918717 -0.36013958 0.85172087 -0.029610554 -0.00020701229
0.6908171 -0.86209965 -0.30142868 -0.3128104 0.0043397504 -0.00042234268 0.08938752 0.32427713
-0.12369127 0.3087177 0.012163607 0.0073486203 -0.8001106 0.13563386 -0.282145 0.20958574
-0.13659397 0.08482953 0.76563597 -0.055350956 0.043660045 0.11679846 0.14818867 0.63775843
0.49646115 0.18435001 -0.0033350368 0.25205857 -0.010907765 -0.51171803 -0.600007 0.11741579
-0.089186125 -0.056474335 -0.028711677 -0.024824977 -0.15571208 0.09137134 -2.0281613 0.011532051
0.032456785 0.012979329 -0.103190705 -0.6256709 0.6597449 -0.5517542 -0.02207808 -0.04328274
-0.11172463 0.06252819 0.018916497 0.015660515 -0.20128927 0.053798605 0.42498216 0.61550564
-0.6100329 0.3286817 0.24093145 0.339441 -0.34806716 0.17990953 -0.08290895 0.0017790193
-0.030279055 -0.07340432 0.6448572 0.47918347 -0.27678 0.5009805 0.22891268 -0.1560526

conv2.lin.weight f4 [1, 32]
00000000: 844b 80be 7051 c2be 2896 d53e c6f6 be3e
00000010: b01f c1bb 70b9 ae3e f3ea 43be 74f7 4e3e
00000020: a206 993e 23f6 943e 02d7 bbbe 51a9 afbe
00000030: 6474 a9be 11ff 223e 3b28 983d 8a63 48be
00000040: e97d 533e 788d 363e 601f 213e 508e e8be
00000050: 12d3 bbbe d123 8d3d 70a6 0f3f 19f1 983e
00000060: 5052 093e c8f5 c6bd d3fd 2a3f e4f2 e8be
00000070: 9e74 a1bb 4cad 503e fe85 9cbd a149 7a3e
-0.25057614 -0.37952757 0.41716123 0.37297648 -0.00589367 0.34125853 -0.19132595 0.20211583
0.29887873 0.29094037 -0.36687475 -0.34308866 -0.33096611 0.15917613 0.07429548 -0.19569221
0.206535 0.17827404 0.15734625 -0.45421076 -0.3668447 0.06891597 0.5611334 0.29871443
0.13410306 -0.09714848 0.66793555 -0.4549781 -0.004927232 0.20378608 -0.076427445 0.2444215
